Players1/0.5_10_10_False.pth (torch, 5016 bytes, 6 tensors)

fc1.weight f4 [16, 16]
00000000: 9a2a 1cbb 13f8 42bd c843 68be d5e2 93bc
00000010: 1061 673e a238 22be cc23 debd eb54 f9bd
00000020: 9671 583d 36c8 f4bd d585 44be aa53 143e
00000030: 757e b5bd 1a13 393e a802 283d 0cc5 71be
00000040: 563b 7c3d cf5a c9bb c66a 053c 4dba 073d
00000050: 8681 7cbd 21f0 903d 6cd2 4a3e b96b 4abe
00000060: fcbc a53d 57c5 733d 7130 b4bd 02eb 533e
00000070: 6e7f d83d 97f3 b6bd 20db 49be d096 4dbe
00000080: 6324 863d b8f6 933d fce0 133e 1e7a 823d
00000090: c2ef 08be 23d5 b63d e90b bbbd f737 8e3d
000000a0: faab 823e 8536 23bc 7ba0 0fbe 73fd 28be
000000b0: ec7f dcbd 59af 83bd c062 b4bd c9f2 4b3e
000000c0: 52f0 edbc 043e 99bd 3eb4 733e da15 823e
000000d0: 3c7b 473e b913 2f3e 9bf3 893d e41e 043e
000000e0: deac 093e a717 333e 3ed5 0fbe 3ef4 3fbd
000000f0: 4a22 913c da98 5d3d ec38 9f3d 6b08 ee3d
00000100: b1ed 93be 8e13 49be fac1 17be 54a6 f33c
00000110: 4756 eb3d 0d4e 8abe a9c6 3e3c e6d9 1d3e
00000120: 247a 3fbd 7caf afbd f4f6 1bbe 39d5 273e
00000130: 5c47 1b3e e3f6 9b3d 7f41 a8bd e04c 13be
00000140: 6d61 89bb 3d60 eb3d 1c30 bcbe 3dd4 863d
00000150: e5f3 53be c034 5dbd af1b bbbd dae8 1bbe
00000160: 8a60 853d 4091 883e 6e0a 483e 2e8e 56bd
00000170: 0106 c4bd b456 e93a 8e14 e43d 5e0b 6abe
00000180: a360 1d3e ec89 c23b ed7d 213c 06ba 683e
00000190: bcc4 113e 4870 f23d 1ac6 e5bb e30f 3abe
000001a0: 99a8 57bd d815 af3d 1450 13be 8180 10be
000001b0: 08c9 1b3d 45e0 79bd aac6 81be e55b bc3e
000001c0: 44c6 8a3e 20e1 cd3e a9f9 303e 0e28 8a3e
000001d0: 39ea 5f3e bec9 50bc 5ef3 973e 8630 263e
000001e0: 026f 7e3e 6524 c5bd b55f 613d da66 1fbe
000001f0: 187f e23d a16c 4f3e a45f c9bd d240 98be
00000200: c47e 343e d2ba 063e 1034 62be 9399 84be
00000210: f8f7 cbbe 158f d6bd 92d2 723d 9fd2 0f3d
00000220: 42a0 8a3c ce36 d33b a1fd 48be d54a fb3d
00000230: 761d 83bd 2500 083e 81a9 bb3d 785d c03d
00000240: 28da a1be b189 0cbe 5c92 793e 3348 6bbe
00000250: b55c 6b3d 175a 333e 8006 4e3e 3929 77be
00000260: b3c0 803e 8539 fe3d 3c38 15be 7af1 d8bd
00000270: c6fb cbbd 5d95 63bd 1044 bebd 3482 87be
00000280: 09ec 8ebe 3c12 4abe e0fb a73c c48b 6bbd
00000290: 7a22 413d e2c4 67be 892e 223d 64a3 83bd
000002a0: c7ac 50be f2bd 1b3e 60df cbbd b765 8d3e
000002b0: 1556 f13c 5a5c 62be 5a43 b83d 9871 83bd
000002c0: 0d53 7dbd ee0d e93d 809f 21be ba16 38be
000002d0: ebdd 4e3e 1eb8 57be 35d3 573e 1def aebd
000002e0: ee72 d0bb 6f34 833d 6fd3 22bd 4341 88bc
000002f0: 6768 89be 929d 83bc 3c38 e73d 7e41 523e
00000300: 7f18 32bd ee67 94bc 9d2d 833d e531 843d
00000310: 1905 87be db16 873d c01e 353b 38e6 cd3d
00000320: f0d2 63bd 54f5 843d bf3f 56bd 893f 793d
00000330: a017 00be 8a81 0c3e d4f0 f23d 9702 4f3e
00000340: 8f8b 19bd 4b02 b8bd 3e62 1f3d fdbd cb3d
00000350: 9154 0dbe e8c8 35be c0db 5f3d 5d76 a5bc
00000360: d6c3 bcbd 8a21 6f3d 041c 823e 7c4a 8e3e
00000370: f764 cf3d 3aa8 57be 194c ecbd 3ecf 1c3d
00000380: 1698 ba3d d653 63be 1ad7 e5bd fa2d af3d
00000390: f28e ccbd f17d 233e aba4 dcbd 4da9 13bc
000003a0: 4f66 ccbc 0f5d dd3d 0b6b 553c 4233 22bd
000003b0: 24ba 193e ea41 2abd 7b0a 1abe 7193 923e
000003c0: b0c8 abbe d3cf 8ebe 6ed3 a8be a946 86be
000003d0: b947 c4be adf5 4ebe 3c26 a63d 814f a3be
000003e0: 0440 57be dba2 263e e964 2a3e 02c6 b83d
000003f0: c10c ee3d 8e40 043e ed09 3ebe 2cfb 043e
-0.0023829103 -0.047599863 -0.22682106 -0.018052498 0.2259562 -0.15841916 -0.108466715 -0.121744
0.0528427 -0.1195225 -0.19191678 0.1448504 -0.088620104 0.18073693 0.04101816 -0.23610324
0.061580025 -0.0061448584 0.008143133 0.033136655 -0.06164696 0.07077051 0.19806832 -0.19767655
0.080926865 0.05951437 -0.08798302 0.20695117 0.1057118 -0.0893318 -0.19712496 -0.20077062
0.06549909 0.07224792 0.14441293 0.06370948 -0.1337271 0.08927371 -0.09133131 0.06944268
0.25521833 -0.009961729 -0.14026062 -0.16502933 -0.10766587 -0.06429929 -0.088078976 0.19916834
-0.029045258 -0.07482532 0.23799226 0.25407296 0.19480604 0.17097367 0.06735917 0.12902409
0.1344485 0.17489491 -0.14046189 -0.046863787 0.017716546 0.05410085 0.07774529 0.11622699
-0.28892282 -0.19636366 -0.1482009 0.029742397 0.114910655 -0.27012673 0.011644044 0.15415153
-0.04674734 -0.08578393 -0.15230924 0.16389932 0.1516394 0.07615449 -0.082156174 -0.14384794
-0.0041925223 0.11492965 -0.36755455 0.0658345 -0.20698507 -0.054005384 -0.091361396 -0.15225545
0.06512554 0.26673317 0.19535229 -0.052381687 -0.09571458 0.0017802329 0.11136733 -0.22855899
0.15368895 0.0059368517 0.009856683 0.22727212 0.14235204 0.11837822 -0.007012141 -0.18170123
-0.05265102 0.08549088 -0.14386016 -0.1411152 0.038033515 -0.061004896 -0.2534688 0.3678886
0.2710439 0.4021082 0.17282738 0.26983684 0.21866693 -0.012743412 0.29677862 0.16229448
0.24847034 -0.09626082 0.055022914 -0.15566579 0.110593975 0.20256282 -0.09832695 -0.29736954
0.17626482 0.13157204 -0.22090173 -0.25898418 -0.39837623 -0.104765095 0.059282847 0.035112973
0.01692212 0.006445742 -0.19628002 0.122701325 -0.064021036 0.13281305 0.0916319 0.09392828
-0.31611753 -0.137244 0.24372238 -0.2297676 0.05746146 0.17514835 0.20119667 -0.24136819
0.25147018 0.12413315 -0.14572233 -0.10592933 -0.09960131 -0.055562366 -0.09290326 -0.26466525
-0.27914456 -0.19733518 0.020505846 -0.057506338 0.04715202 -0.22633699 0.03959516 -0.06427649
-0.2037841 0.15209177 -0.09954715 0.27616665 0.029459992 -0.22105542 0.08997221 -0.06418151
-0.06184678 0.1137961 -0.157835 -0.1797742 0.20201842 -0.21066329 0.21076663 -0.08541701
-0.006361357 0.06406485 -0.03975242 -0.016632682 -0.26837465 -0.016066346 0.11290023 0.20532796
-0.043480393 -0.018115964 0.064051844 0.06454829 -0.26371077 0.06596156 0.0027636737 0.10053676
-0.055621088 0.06492105 -0.052306887 0.060851607 -0.12509012 0.1372129 0.118623406 0.20215832
-0.03748661 -0.08984812 0.03891205 0.09948347 -0.13801791 -0.17752421 0.05465293 -0.020198042
-0.0921704 0.058381595 0.25412 0.27791202 0.101266794 -0.21060267 -0.11537952 0.03828358
0.09111039 -0.2219995 -0.11222668 0.08553691 -0.09988202 0.15966012 -0.107735954 -0.009012532
-0.024951128 0.10808765 0.013026009 -0.039599665 0.15012413 -0.041566767 -0.1504306 0.28628114
-0.3355155 -0.27892932 -0.32973808 -0.26225784 -0.3833597 -0.20210905 0.081127614 -0.31896594
-0.21020514 0.16273062 0.16640057 0.09022142 0.11623526 0.1291525 -0.18558474 0.1298644

fc1.bias f4 [16]
00000000: a3e6 a8bd 2c63 11be 2ad3 cebd fe10 3b3e
00000010: 27ed 23be 9cf7 5bbd 2f6f a2bd 73e5 44be
00000020: 3532 37be 1cf8 643e b117 403c f064 ca3d
00000030: 0a7c d03d 02e4 873d 8923 7a3e 11be 7e3e
-0.082471155 -0.14197987 -0.1009887 0.18268201 -0.16008435 -0.053702936 -0.07931363 -0.19228153
-0.17890246 0.22360271 0.0117243985 0.098825336 0.101799086 0.06635286 0.24427618 0.24877192

fc2.weight f4 [12, 16]
00000000: b06a 52bd f071 0fbe 1a7b 29be 9751 b6bd
00000010: d5a3 543e eb14 ffbd 9e1f 333e 1b58 9bbc
00000020: 6a43 d6bd fe67 4fbe 9ecd aebb 9ae5 533d
00000030: f001 57bd 6922 e93d a800 12be 42a4 1abe
00000040: 9dc6 e5bd 3845 8d3d e2df 31be 6e96 063e
00000050: e2f6 fb3d f4eb 13be a8b1 5dbe dd37 b4bd
00000060: cc72 3cbe d322 3e3e 25a1 cf3c 2fd8 30be
00000070: e5d4 733d 07df 863d 0d74 7e3e ea45 f6bd
00000080: 02bd 193e fa31 d4bd 9a67 613e c70a 063e
00000090: 4418 a03d cbda 073d 961b 9bbd eae9 d9bd
000000a0: 7701 213e c32f 713e cbee f1bd 2120 5a3d
000000b0: 51c0 a13c 836e 243e 3dc0 503e 92b1 993d
000000c0: 0b00 503e f3f1 1b3e 7fa5 ba3d 4b85 b73d
000000d0: 55df 043e 9a8b b93d 0996 30bd f701 a2bd
000000e0: fbd7 8cbd 8481 87be f9e5 cc3c 7029 aa3e
000000f0: 258b c2bc e44e 443d 223a 393e 2745 753e
00000100: 19c5 08be 25cb 1fbe 70c8 053e ce33 55be
00000110: 6dc2 413e 7321 91be 31c4 463e d7b8 99be
00000120: f502 5f3e a80d 89bc 279f 3a3d b40b eabc
00000130: 1352 513e 9f2b 543e 1dbd 003d 333d 543e
00000140: f81a ceb9 1456 6dbc 93ec d03d 13fd 303d
00000150: 39d4 f4bd 5800 4fbe 079b 5fbd 9c83 7b3e
00000160: 77a7 1e3c f5f1 863d 6f6d 6bbe 4db1 7bbe
00000170: 0f28 f93d d2d4 2abd ff1b e1bd c4ba 96bd
00000180: 00b2 c2bd de71 2ebe fc06 053d 14b6 333e
00000190: b1a8 2cbd d02a 64be aa22 7bba 563b d6bd
000001a0: 96ab 26be 5b1f f03c 24cc 85be abfc e83b
000001b0: df12 cfbd c932 3bbe 053a 58be 7ee0 0fbe
000001c0: df4c 91bc f64d c1bd 3be3 42be 0917 373e
000001d0: b05e 043e f4a3 42be 4ece 28be 18c9 063e
000001e0: 3cdb 633e 78ac c83b fde9 c6bd 06c8 923d
000001f0: c4e0 30bd 2260 d23c 57c4 153e 7dd5 87be
00000200: e07b 55bc 8967 ed3d aeac 32bc 0d54 80be
00000210: 57a9 24be 7a4f ee3c fae5 253e 94a5 ec3c
00000220: 1d16 6d3d e24b 203d 8ec1 403d 8309 6fbe
00000230: 22d7 97bd b660 a6bd a1a4 a23d 0766 42bd
00000240: 51ef 5abe 2f29 a7be 03cb 06bd 0d29 433d
00000250: 6d5b 3f3e 590d 313e fc46 043e 30c7 f43c
00000260: d709 b63c 4587 c93c 6f39 92bd e9e1 073d
00000270: 283f 67be 343a 783d 6cd2 293e 3df8 013e
00000280: 5208 363e fbb8 babd b6ec eb3c 830a de3d
00000290: 29ae 89bc 85fa ffbc e871 a23b aa92 4e3e
000002a0: 95ba 9abd 7e3d 38bd d4f0 86be 67d6 febd
000002b0: 2617 2a3d 5ebb 96bd c3d3 643d aab5 f73d
000002c0: 2cd7 06be 908a b9bd b036 3abe 48b8 33be
000002d0: 0805 ee3d 1405 44be 00f4 473d 66bd 29be
000002e0: 008d 72bc b09b 6fbe 7c83 d13d 7044 8d3d
000002f0: e00c 293e 5af8 6dbe c23e 45be 1c03 4ebe
-0.051371276 -0.14008307 -0.16550866 -0.08902281 0.20765622 -0.12455162 0.1749253 -0.01896291
-0.10462077 -0.20254514 -0.00533457 0.051732637 -0.052492082 0.11383516 -0.14258063 -0.15101722
-0.11219523 0.06897968 -0.17370561 0.13143322 0.123029485 -0.14445478 -0.21649802 -0.087997176
-0.18403167 0.18567972 0.025345394 -0.17269967 0.059529204 0.06585508 0.24848957 -0.12025054
0.15013507 -0.10361095 0.22012177 0.13090049 0.07817128 0.03316764 -0.07573621 -0.10640319
0.15723215 0.23553376 -0.11813124 0.053253297 0.019745024 0.16057782 0.20385833 0.07504572
0.20312516 0.15229015 0.09113597 0.089609705 0.1297582 0.0905983 -0.043111835 -0.07910531
-0.068771325 -0.26466 0.025012003 0.3323474 -0.02374799 0.0479268 0.18088582 0.23952161
-0.13356437 -0.15604837 0.13064742 -0.20820543 0.18921824 -0.28345832 0.19410779 -0.30023834
0.21778472 -0.016730145 0.045561936 -0.028570034 0.20441465 0.20719765 0.031430352 0.2072647
-0.00039311475 -0.014485855 0.10201373 0.0432101 -0.11954541 -0.20214975 -0.054591205 0.24561924
0.009683481 0.065891184 -0.22990964 -0.24579354 0.12165844 -0.041706868 -0.10991668 -0.073598415
-0.09506607 -0.17035624 0.032477364 0.17549926 -0.042153064 -0.22281957 -0.00095800555 -0.10460536
-0.16276392 0.029311826 -0.2613231 0.0071101985 -0.10111021 -0.18281092 -0.21115883 -0.1405048
-0.01773685 -0.09438698 -0.19031994 0.17879881 0.12926745 -0.19007856 -0.16484949 0.13162649
0.222516 0.0061240755 -0.097125985 0.07167058 -0.043183103 0.025680605 0.14625679 -0.26530066
-0.013030022 0.115920134 -0.010905428 -0.25064126 -0.16080223 0.029090632 0.1620101 0.028887548
0.057882417 0.039134867 0.047059588 -0.23343472 -0.0741408 -0.08123915 0.07941557 -0.047460582
-0.21380354 -0.32648608 -0.03290845 0.04764657 0.1868722 0.17290248 0.12917703 0.029880136
0.022221489 0.024600634 -0.07139861 0.03317443 -0.22582686 0.06060238 0.16584176 0.12692352
0.17776611 -0.091173135 0.028799396 0.10841849 -0.016806679 -0.031247387 0.0049574263 0.20173135
-0.07555119 -0.04498052 -0.26355612 -0.12443238 0.041525982 -0.07359956 0.055866014 0.120951965
-0.13168019 -0.09059632 -0.18184924 -0.17550766 0.116220534 -0.19142562 0.04881668 -0.16576156
-0.014804125 -0.23399234 0.10230157 0.06897819 0.16508818 -0.2323927 -0.19262221 -0.20118374

fc2.bias f4 [12]
00000000: f8b9 f1bd 1bfa f03b 398f 0e3e 4427 903c
00000010: 3d1d 093e 0539 983c f94a 43be a504 033e
00000020: 8187 493e 0e48 cbbd 710e 3fbd c880 a4bd
-0.11803049 0.0073540336 0.13921823 0.017596848 0.1339006 0.018581877 -0.19071569 0.1279474
0.19680597 -0.09925853 -0.04664463 -0.080323756

fc3.weight f4 [10, 12]
00000000: 0683 f9bd 2026 bebd 421e 4e3e b937 403e
00000010: 4458 6f3e 6664 39be aa8b a93d 4f47 44bc
00000020: 07f6 0b3e f47b 34bd 4fc2 8d3e e0ed 3a3e
00000030: 04e3 55be b8ae e03a b423 133b 2f89 303e
00000040: 1be0 603e 7227 c63d e913 0bbd 86f7 08be
00000050: b811 2d3d 7e60 013e d5de d4bc 6883 783d
00000060: f514 6b3e 5cd6 88be 7f76 a73c 3239 473e
00000070: 30ea 863e 493e 5bbe a8e1 453e 652c 983d
00000080: 7f4e febd 6d29 73bd ebff b23d 94fb 213e
00000090: 5600 8ebe 45b2 06bd 82a8 f1bc 82d0 733e
000000a0: 15eb 4c3e 88dc 83bd 0010 8a3a 4e85 603b
000000b0: 3cfa 78be 011e eb3d 0932 843d 740d 19be
000000c0: 3ccf a4bd bc6e 21bb 2b3f 173e 3589 5d3e
000000d0: 834c a4bc f34f a53e 546f 09be 87f8 87bd
000000e0: b0cb 41bd 664c 8a3e ec92 cbbe 4568 93be
000000f0: 3c00 3e3e 7276 5bbe 696e 5d3e b8c1 7f3e
00000100: f5ab 53be c638 793e 9045 893e 6889 45be
00000110: 5c7c 8b3e c442 4b3e 8c3d 333e 12a1 803e
00000120: 0e5f 563e f97b 94bd 6d2c a23d 4929 4c3e
00000130: c9c0 783e 1224 97bc 47f9 3abe cf28 2abe
00000140: e01a 193e 526c c0bc c861 103e db22 91be
00000150: 9cf0 703e 0f9e 93bc 7929 543e c321 23be
00000160: 8e22 9b3e 57da a3bd 715a 8abe 4e8f cebe
00000170: 9c8b 423c ec90 833e dfc1 243d aa55 883e
00000180: a2b7 7fbe aa44 b53c 31cb 583c 88cf 1f3e
00000190: b674 873e bea5 5ebc a75f 653e 569b 43be
000001a0: 5c18 473d 82ce f03b 7832 7d3d 45e5 91be
000001b0: ae75 7bbe c812 82bd d720 333e 2b24 3d3e
000001c0: d445 153e f886 4e3e 3b1f f93d f25f a13c
000001d0: 4d17 36bd 5119 1e3e 81bc 76be 0404 f43d
-0.12183194 -0.092846155 0.2012873 0.18771257 0.23373514 -0.18104705 0.08278592 -0.011979892
0.1366807 -0.044063523 0.27687308 0.18254805 -0.20887381 0.0017141914 0.00224517 0.17239831
0.2196049 0.09675492 -0.033954535 -0.13375673 0.042253226 0.12634465 -0.02598516 0.060672194
0.22957213 -0.26726043 0.020442246 0.19455412 0.26350546 -0.21410479 0.19324362 0.074303426
-0.12417316 -0.05936568 0.08740219 0.15818626 -0.2773463 -0.032884855 -0.029499296 0.23810008
0.20011552 -0.064385474 0.0010533333 0.0034259143 -0.24314207 0.11480332 0.06454856 -0.14946538
-0.08047339 -0.0024632653 0.1477019 0.21634372 -0.020056015 0.3228756 -0.13421375 -0.066392
-0.047313392 0.27011412 -0.3976053 -0.2879049 0.18554777 -0.21431902 0.2162415 0.24976242
-0.20671065 0.24338064 0.26810884 -0.19290698 0.27243316 0.19849688 0.17503947 0.25122887
0.20934698 -0.072502084 0.0791863 0.19937624 0.24292292 -0.018449817 -0.18259154 -0.1661713
0.14951658 -0.023489151 0.140998 -0.28346905 0.23529285 -0.018019704 0.20718946 -0.15930848
0.302998 -0.080006294 -0.27022126 -0.40343708 0.011874106 0.25696504 0.040223952 0.26627856
-0.24972394 0.022127468 0.013232038 0.1560651 0.2645623 -0.013589321 0.2239977 -0.19102225
0.048607215 0.0073488364 0.06181571 -0.2849523 -0.2455661 -0.063512385 0.17492996 0.18470828
0.14577419 0.20168674 0.1216416 0.01969907 -0.044455815 0.15439345 -0.24095346 0.119148284

fc3.bias f4 [10]
00000000: 3197 d8bd 2e09 033e a954 223e 4350 3d3d
00000010: 2956 693d 30f6 77be f654 a83d 469a b33e
00000020: bbb1 233e 0e1e 6bbd
-0.105757125 0.1279647 0.15852608 0.04621912 0.056966934 -0.24215007 0.0821933 0.3507864
0.15985768 -0.05740171
