paths/0.5_10_0.1_False.pth (torch, 4311 bytes, 6 tensors)

fc1.weight f4 [16, 16]
000000 99 cf 47 3e 35 b7 26 be 74 22 d9 be ec 84 41 be
       0.19512786 -0.16280825 -0.42409098 -0.18898362
000010 17 47 03 bd 60 02 18 3e 11 a1 96 3d 1a 8c d3 3b
       -0.03205022 0.14844656 0.0735494 0.0064559104
000020 8c e1 61 be 24 56 87 3d f4 bd fd 3c 83 60 7c bd
       -0.22058696 0.06608227 0.030974366 -0.06161548
000030 7e fc 87 be f0 b7 43 bd 63 7e de bd 3f 1b 43 3e
       -0.26559824 -0.04778284 -0.1086395 0.19053362
000040 0a 08 9e bd f1 64 87 bd 7f 11 df bd d5 b1 18 3e
       -0.07716377 -0.0661105 -0.10892009 0.14911588
000050 26 2c d1 bd c7 b1 53 be 33 c8 e6 3d a3 c0 c8 bc
       -0.10213499 -0.20673285 0.11268654 -0.024505919
000060 ed 4d 32 be c1 a3 d4 3c 20 bc 12 be 06 f0 00 3e
       -0.17412539 0.02595699 -0.14329576 0.12591562
000070 34 b8 48 3e c8 6b 2f be 34 ad 6e bb b6 82 03 3d
       0.19601518 -0.17130959 -0.0036419155 0.032107078
000080 bd d5 79 3e ff f5 0e 3d 2b c4 a7 3d 18 68 2a 3d
       0.24397941 0.03490257 0.08191713 0.041603178
000090 5d 24 07 3e 12 b2 10 3c 89 d1 3c 3e e6 17 8e 3d
       0.13197465 0.008831518 0.18439306 0.06938152
0000a0 7b 8d ae 3e d5 12 cd 3c c4 ed 1f be d6 bf 9b bd
       0.34092316 0.025033394 -0.15618044 -0.07604949
0000b0 bb eb b9 3d c9 52 ba bd 71 52 36 3e c1 44 aa 3e
       0.09078165 -0.09097821 0.17804886 0.3325558
0000c0 64 bc 21 be 27 09 a5 bd ba fa 16 be c7 1f 6a 3d
       -0.15794522 -0.08058386 -0.14744082 0.05715921
0000d0 da 5b 6c 3d e7 40 c7 bd 74 bc 95 be e3 e0 87 3e
       0.057704784 -0.09729176 -0.2924534 0.26538762
0000e0 4b 99 ed bd 5f 64 c0 bc 8d 88 a2 3c e3 80 b5 3a
       -0.11601504 -0.02348536 0.019840503 0.0013847615
0000f0 a0 a9 a9 bb 1e 4a 44 3d 2a 30 08 ba 37 21 7f 3e
       -0.0051776916 0.047922246 -0.0005195165 0.24915014
000100 c5 38 64 be 9e dd eb bd 59 29 68 be 59 77 1d be
       -0.22287281 -0.115168795 -0.22672023 -0.15377559
000110 b4 a9 25 be 12 1a f9 3d 09 de 5a bd 76 1b 2e be
       -0.16178018 0.12163176 -0.053434405 -0.17002663
000120 a5 97 c6 3b 18 11 c6 3d 13 de 3a bc 22 59 ef 3d
       0.006060558 0.09671229 -0.011405486 0.116869226
000130 ca 9f 0b bd c9 73 ce 3d 86 76 0c be 0f fa 19 3d
       -0.034087934 0.10080678 -0.13717088 0.03759199
000140 db 64 6b 3e 6b b0 08 3e 3c c3 73 3e 0d d1 8b 3e
       0.22987692 0.13348548 0.23804945 0.2730793
000150 0c 20 4e 3e 57 7f 8c 3e 47 c2 c9 3d 9e 8d 71 3e
       0.20129412 0.27440903 0.098515086 0.23589179
000160 d0 32 86 bd 61 1a b4 bd b1 9f bc 3d 2c fa 0d 3e
       -0.065526605 -0.08794094 0.09210146 0.13864964
000170 0c 90 dc bc f8 b1 68 3e cd 33 cd 3c 2c ff 09 be
       -0.026924156 0.2272414 0.025049115 -0.13476247
000180 52 19 c5 bd a6 a6 68 be 0c aa 9c 3d d2 4a 59 be
       -0.0962397 -0.22719821 0.07649621 -0.21219948
000190 d8 9b 68 be eb 60 41 bc 4a c3 95 3b 59 88 ac bd
       -0.227157 -0.011802892 0.0045703994 -0.08424444
0001a0 a5 ab 6f be d0 0f 18 bd 2c 66 ba 3d 57 65 5f 3e
       -0.23405321 -0.037124455 0.09101519 0.21816002
0001b0 fa b7 9c 3d 45 bb 06 bd 8e 85 7a bd 53 58 89 3d
       0.07652278 -0.032893438 -0.061162524 0.067063
0001c0 79 86 05 be 29 76 b4 bd d4 a2 84 bd 92 4b 9c bc
       -0.13039578 -0.088116 -0.064763695 -0.019079003
0001d0 21 6e 24 3e af 4a 13 3c a5 24 64 3c 23 82 5a be
       0.16057636 0.008989974 0.013924752 -0.21338706
0001e0 1a ac 89 3c 6b a7 39 3d f5 87 33 3e fa 72 d1 3d
       0.016805697 0.045325678 0.17532332 0.10227008
0001f0 1b ed cd bd cc c9 e9 3d 2c fa 1d bb a9 c9 9b 3e
       -0.1005499 0.11415443 -0.0024105413 0.30427292
000200 fd 0e 59 3d 58 16 13 be 6a a4 1b be 76 f1 04 be
       0.05299281 -0.14363992 -0.15199438 -0.12982735
000210 bf 40 4b 3e e2 64 e8 bc 26 fc 20 3e 5e 86 37 be
       0.19848917 -0.028368417 0.15721187 -0.17922351
000220 86 84 43 be 3a 11 da 3d c6 71 65 be 84 20 8f bd
       -0.19093522 0.10647817 -0.22406682 -0.06988624
000230 c9 4c 0c bc 2c e0 e4 3d 18 46 31 bd 44 21 17 be
       -0.008563229 0.1117557 -0.043279737 -0.14758784
000240 be 22 8f bd 90 f0 5c be 40 0b 6e bd cd fb 41 be
       -0.069890484 -0.21576142 -0.058116198 -0.1894371
000250 70 88 98 be c2 b2 af be 54 49 33 be d9 a3 3e be
       -0.29791594 -0.3431607 -0.17508441 -0.1861719
000260 f7 36 3b be ac ef 38 3e 5d a8 b3 3d ae 2b e3 3d
       -0.18282686 0.18060178 0.08772347 0.110923156
000270 e9 82 b0 3d f5 d2 b9 3c d6 45 77 bd 23 14 01 3e
       0.08618719 0.0226836 -0.060369335 0.12605338
000280 bd 09 33 be 79 6c fe bd 23 fc a8 3d b3 b3 93 bd
       -0.17484184 -0.12423033 0.08251216 -0.07212009
000290 c5 57 c8 bd 10 bd e8 bd 39 62 15 3e 4c 8c 9d bd
       -0.09782366 -0.11364186 0.1458825 -0.07692775
0002a0 06 57 67 be d7 03 a2 3d 21 79 63 bd 7d 14 3f 3e
       -0.2259179 0.07910889 -0.05553544 0.1866016
0002b0 93 a3 12 3e 62 f9 a3 3d 14 ed 81 bd 85 65 8d be
       0.14320211 0.0800655 -0.06344047 -0.27616516
0002c0 0b af 1a 3e c4 2d 40 be 27 3c 4d bd a3 16 be bc
       0.15105836 -0.18767458 -0.050106194 -0.023204153
0002d0 71 a6 34 bd 7a 9e ed ba 1d e7 22 be 96 fa 90 3c
       -0.044104043 -0.0018128895 -0.15908475 0.017697614
0002e0 03 48 ed 3d 44 3a 67 3e c8 32 07 3e 56 44 86 be
       0.11586001 0.2258082 0.13202965 -0.2622401
0002f0 58 12 0c be 8e 71 13 3d ff 25 e3 3c 2d 73 48 bb
       -0.13678873 0.035996966 0.027728079 -0.0030586228
000300 78 c9 69 3d ac c1 e3 bc ae 3e a2 3e d8 90 4f be
       0.0570769 -0.02780231 0.31688446 -0.20270097
000310 b4 a1 4f be 7d 91 7d be 7b 0b c4 3c c2 63 43 be
       -0.20276529 -0.2476253 0.023931256 -0.19081023
000320 31 a2 5a be 68 1a 46 bd b8 0c 41 be 15 fd 22 3e
       -0.21350934 -0.048365027 -0.18852508 0.15916856
000330 ed 91 5b 3d 08 a0 f6 3d f1 94 9d be 36 2c 8d 3c
       0.053605963 0.12042242 -0.30777696 0.017232995
000340 17 e6 62 3e 8c 1d a7 3d f1 8a 19 3e 73 3c 24 3d
       0.22158085 0.081599325 0.14994408 0.04009671
000350 f2 c9 9c bd 6d 2c 49 3e 25 5a 37 3e 0f d3 77 3e
       -0.076557055 0.19645853 0.17905481 0.24201606
000360 b6 23 31 3e 90 5f 5b be 0f e9 37 be 00 35 f0 bd
       0.17298779 -0.21423173 -0.17959999 -0.11728859
000370 93 40 88 bd 5c 65 39 bb fa 3c 6d 39 39 b3 46 bd
       -0.066529416 -0.0028289175 0.00022624797 -0.048510764
000380 20 9e f8 bc de a4 38 be 15 9d 07 3e c0 63 f1 bd
       -0.030348837 -0.18031642 0.13243516 -0.11786604
000390 c9 59 14 be 98 a2 f2 3d 53 2b 2e be bb 85 53 be
       -0.14487375 0.118474185 -0.17008714 -0.20656483
0003a0 90 52 3b 3e 16 4e fb bd c2 57 14 ba 10 69 1b be
       0.18293214 -0.12270753 -0.0005658829 -0.15176797
0003b0 c0 23 01 bd eb 14 fc bd 60 27 06 bd fb 6c d1 bd
       -0.031528234 -0.12308677 -0.032752395 -0.102258645
0003c0 94 68 6d 3d 4e 1e ee bc 74 37 31 3e 7b 3d 01 be
       0.05796106 -0.029067185 0.1730631 -0.12621109
0003d0 a7 04 68 3d 19 32 2c 3e 94 86 b0 3d 73 a9 c7 3d
       0.05664506 0.16815986 0.08619419 0.09749117
0003e0 32 a9 ea bd 60 c9 05 3c 3c 50 2a 3e 20 62 32 3e
       -0.11458053 0.008165687 0.1663217 0.17420244
0003f0 58 d8 b0 bb 7d 90 7b 3e 3d fb 1e be 70 34 9b 3e
       -0.005396884 0.24566837 -0.15525527 0.30313444

fc1.bias f4 [16]
000000 5e fe ab 3d 79 eb 3e 3d 7e 2d 9c bc 61 f7 2b 3d
       0.08398126 0.046611283 -0.019064661 0.041983966
000010 32 86 54 3d 6c ef 91 be f9 1a 81 3e 8e 67 3e bd
       0.05188579 -0.28502977 0.2521589 -0.046485476
000020 b9 62 68 be be 6f 1f bd 15 8c 94 be ff 60 f4 3d
       -0.2269391 -0.038924925 -0.29013124 0.11932563
000030 1f ad 35 3e 02 4a 11 be 95 c1 36 3e b7 21 50 3c
       0.17741822 -0.14188388 0.17847283 0.012703351

fc2.weight f4 [12, 16]
000000 8d a9 20 3e 30 1b 50 bd 37 41 0e 3e de 2b 84 be
       0.15689678 -0.050807178 0.13892065 -0.25814718
000010 0e 64 42 3d 35 c9 76 3d c8 2e c7 bd c9 db 13 bc
       0.0474587 0.06025048 -0.0972572 -0.009024569
000020 f4 bd 79 be f2 db 26 be 4d e8 84 3c 9b 05 28 be
       -0.24388868 -0.1629484 0.01622405 -0.16408388
000030 d9 0e a7 be 3d ec 3d bd a8 a6 27 3e 28 47 f6 bc
       -0.32628515 -0.046367873 0.16372168 -0.030063227
000040 39 9a 3b bd 95 b0 0d 3e ae a2 11 3d fb cb 91 3e
       -0.045801375 0.13836892 0.035555534 0.28475937
000050 50 6e 40 3e a4 fe 4c be 4a a0 0f 3e 35 08 fa bb
       0.18792081 -0.20019013 0.14025989 -0.007630373
000060 57 96 60 3e 4e 90 3b bd 61 e0 43 be 32 d4 98 3d
       0.2193235 -0.045791917 -0.19128563 0.07462348
000070 bf 5b 2d 3d e1 fd 65 3e 17 60 16 be b7 a3 8b 3e
       0.042323824 0.22460128 -0.14685093 0.27273342
000080 3f b2 9e 3d 9e 45 b7 bc 69 24 8d bd 35 97 e0 3d
       0.077488415 -0.022372063 -0.0689171 0.109663405
000090 aa c1 27 be 02 c3 3d be 1e 89 2a be 3f 25 44 3d
       -0.1638247 -0.18531421 -0.16653869 0.047887083
0000a0 75 1d 00 3e 2c df 82 3d fe aa 0f be 87 c4 81 3e
       0.12511237 0.06390223 -0.14030072 0.2534525
0000b0 93 70 6f be 21 a2 0e be 14 8a 59 3e d2 5c fe bd
       -0.23382787 -0.13929035 0.21244079 -0.12420048
0000c0 96 4d 49 be 33 b7 81 3e ee ed 0f 3e 5f 10 a9 3e
       -0.19658503 0.25335082 0.14055607 0.33020303
0000d0 12 56 37 3e 1a 59 a8 bd 5e bb 75 3d a4 38 4e 3e
       0.17903927 -0.0822012 0.05999314 0.20138794
0000e0 16 d1 48 3e 55 db 1d bd 42 56 c9 bd df 8a 99 3d
       0.1961101 -0.03853925 -0.098309055 0.07497191
0000f0 93 7a de bd 1e 23 b2 3d 2f dc 2d be 6a 2e 36 3e
       -0.10863223 0.08698104 -0.16978525 0.17791143
000100 33 29 2a be 06 45 d4 3c 5b 53 90 3e 46 b6 25 be
       -0.16617279 0.02591182 0.28188595 -0.16182813
000110 e9 c6 d5 be 22 be 05 3e cf 44 8a be f0 4e d7 bd
       -0.4175332 0.13060811 -0.27005622 -0.10513103
000120 86 1c 0b 3e 98 31 c8 be 7a 62 00 bd a0 9a ee bd
       0.135851 -0.39100337 -0.031343915 -0.11650586
000130 e2 78 ca bd 62 72 25 bd 03 c1 9f 3b e4 46 5a 3e
       -0.09886338 -0.040392287 0.0048753037 0.21316105
000140 ec 24 b7 3d e7 20 3b bd 00 26 8e 3e e6 63 b4 3d
       0.08942589 -0.045685675 0.27763367 0.088081166
000150 70 a1 9a 3d e0 7d d1 bd 8e e1 0d 3e 36 85 3b 3e
       0.07550323 -0.10229087 0.13855574 0.18312535
000160 92 8f 89 be 0f 21 18 be 96 8c 88 3d e0 24 9b bd
       -0.26867348 -0.14856361 0.0666744 -0.07575393
000170 e8 b1 e4 bd b8 e6 54 3d 26 ae 24 3e 8f 35 2b 3e
       -0.111667454 0.051977843 0.16082057 0.1671965
000180 14 58 87 3d 48 29 55 3e 92 53 d1 3d ae 13 8a 3e
       0.066085964 0.20816529 0.10221018 0.2696814
000190 89 67 52 bd d5 2e 4c 3c 56 8d 8a 3e cd 55 5e 3e
       -0.05136827 0.0124623375 0.27060956 0.21712418
0001a0 04 33 b1 bd ac 58 ee 3c cf d4 26 be a8 1c 63 3e
       -0.086523086 0.029095016 -0.16292118 0.221789
0001b0 9e ed 7e 3e 1e 2b 32 3e ab 39 5e 3e 4e 14 fb bb
       0.24895331 0.1739926 0.21701686 -0.0076623326
0001c0 72 e2 7a 3e 9c ae 90 bc 07 2d 8b 3d 12 a5 d8 3d
       0.24500445 -0.017661385 0.06795698 0.1057836
0001d0 47 9d 23 be 1d ea 46 bd bf 69 d5 3d 6a 27 83 3d
       -0.15977965 -0.04856311 0.1042056 0.06404002
0001e0 bd ca 0f bd 9b 06 2a 3e 80 90 50 3e 6e 61 ac 3d
       -0.035105456 0.16604082 0.20367622 0.08417021
0001f0 94 ba e7 3d be 6e cc 3d e9 25 41 be a2 04 5d 3d
       0.11314884 0.0998206 -0.18862118 0.053959496
000200 b4 cd 92 bb 54 34 69 3e b7 d0 dc bd 2e ea 64 bc
       -0.004480088 0.22773868 -0.10781997 -0.013971848
000210 65 91 96 3d 30 c8 29 be 7c 5a 5f bd a7 81 32 bd
       0.073519506 -0.16580272 -0.054529652 -0.043580677
000220 e2 69 74 bd 9c b2 ce 3c ef 55 0d 3d f0 06 89 3d
       -0.05967129 0.025231652 0.03450578 0.06690776
000230 58 7a ce 3d 20 54 e0 bd 0b 51 33 be eb 34 25 3e
       0.10081929 -0.109535456 -0.17511384 0.16133468
000240 92 8b 77 be c1 c3 e9 bd 41 f8 bb 3d 40 dd 96 3c
       -0.24174336 -0.1141429 0.0917821 0.018416047
000250 f1 62 2f be 86 f0 9b bd b6 74 db 3d 16 ae 1f bb
       -0.17127587 -0.076142356 0.1071562 -0.0024365238
000260 db 9d 10 be f8 6e c0 3d e3 fc 70 3c 93 7d 8f 3c
       -0.14122717 0.093961656 0.01470873 0.017515933
000270 03 1c a0 3e d0 a7 49 be f9 88 d7 3d ef a6 b1 3d
       0.3127137 -0.19692922 0.10524172 0.08674418
000280 8e 2e b7 3e e8 5a c8 3d b7 bd 76 3d e5 08 88 bd
       0.35777706 0.09782964 0.06023952 -0.066423215
000290 46 a3 42 3c ac ac 00 be 7a 41 9c 3d 55 9d 10 3e
       0.011879748 -0.12565869 0.07629676 0.14122517
0002a0 d5 16 b1 bd cc 38 4c 3e bd cc 7a 3d 66 6d a1 3d
       -0.08646933 0.19943541 0.06123041 0.07882194
0002b0 b7 a9 ff bd f5 9f 7a 3e b8 72 92 3d f7 cc 61 3d
       -0.124835424 0.24475081 0.07150787 0.05512711
0002c0 eb 65 02 3d 45 cc a2 bd cc 56 34 be fd bd 2d be
       0.031835478 -0.079491176 -0.17611235 -0.16967006
0002d0 27 f5 d9 bd 59 48 e5 3d ef 1a 57 be aa 58 a3 3d
       -0.10642462 0.1119544 -0.21006368 0.07975896
0002e0 b3 8c 17 be f5 b9 cb bd f4 0e fa bd ca 06 2e be
       -0.14799766 -0.09947578 -0.12209883 -0.16994777
0002f0 36 8f 83 be cf 06 d0 bd 82 f4 3e 3e 82 a5 a6 bc
       -0.256952 -0.10157549 0.1864796 -0.020342592

fc2.bias f4 [12]
000000 3d 05 87 3d a6 ee 39 3e 04 9b ec 3d c0 e6 c6 3d
       0.06592796 0.18157443 0.115530044 0.09711981
000010 fc ee dd 3a 82 cb 20 be c9 0b 93 3d 8e 6c 59 3e
       0.0016932185 -0.15702632 0.07179982 0.21232817
000020 7e fb d1 3c 67 dc 78 bd 78 7f c5 3d 33 52 85 be
       0.025632616 -0.060757067 0.09643453 -0.26039276

fc3.weight f4 [10, 12]
000000 94 0b 89 be f4 9c 94 b7 81 27 9e 3e c1 83 f9 3d
       -0.26766646 -1.7716062e-05 0.30889514 0.12183333
000010 55 8e aa bd 29 9d 4d 3d c1 86 99 bd 5b 89 a3 3d
       -0.08327929 0.050198708 -0.074964054 0.07985183
000020 fa ae 99 3d 77 2f 32 3e 4b c9 a9 3e 64 30 24 bb
       0.07504077 0.17400919 0.33161387 -0.0025053257
000030 60 af 4a 3e b2 49 90 3e c8 8e ec 3d 6a 93 4d 3d
       0.19793463 0.28181225 0.11550671 0.050189413
000040 07 60 84 be 54 32 25 be 2c cc c1 bd 35 89 a8 bd
       -0.25854513 -0.1613248 -0.09462771 -0.08229295
000050 22 b9 5a 3e 67 d3 85 3e 6e a4 28 3e e3 34 17 be
       0.21359685 0.2613785 0.16468975 -0.14766268
000060 d2 e8 66 3d 4a 55 61 3e be f4 c4 bd 68 03 66 3d
       0.05637438 0.22005191 -0.09616993 0.056155592
000070 20 50 70 be 2b 71 cc bd bc c0 51 3e 6f b4 3f be
       -0.23468065 -0.099825226 0.20483679 -0.18721174
000080 64 9f 5a be 25 17 88 3e 15 16 4c 3e 83 68 ea bd
       -0.21349865 0.26580158 0.19930299 -0.11445715
000090 cb 5c 0d 3d c7 15 7f bd 9d 30 9e 3e ef 87 2c 3e
       0.034512322 -0.062276628 0.30896464 0.1684873
0000a0 d1 ec 81 be 47 48 14 bd 11 e8 08 3e 63 48 1d 3e
       -0.2537599 -0.03620174 0.13369776 0.15359645
0000b0 41 ef cc 3d e4 c4 ff bd f7 1a 2d 3d 6a 9c 83 be
       0.100065716 -0.12488726 0.042262044 -0.25705272
0000c0 05 9a 7b be 6a fa 62 3e 09 32 71 3e b1 0e 24 3e
       -0.24570473 0.22165838 0.23554243 0.1602123
0000d0 28 2d 4a be 0e bb 15 3d 89 5b 91 bd 11 58 63 bd
       -0.19743788 0.036555342 -0.07097537 -0.05550391
0000e0 cd fc 17 be a5 88 11 be da 07 75 3e 4d 9a 4e be
       -0.1484253 -0.14212282 0.23928776 -0.20176049
0000f0 65 ea b8 be df 77 8c 3d 18 69 73 3e 3b 28 33 be
       -0.3611633 0.06858801 0.23770559 -0.17495815
000100 a5 bd 31 be 59 47 64 3e 09 d2 80 3e 3e 25 6b 3c
       -0.173575 0.22292842 0.25160244 0.014352141
000110 55 61 62 3e 1d 79 29 be 70 54 ae 3c 0f a9 04 3e
       0.22107442 -0.16550107 0.021280497 0.12955116
000120 8d 52 eb 3c 7c fd eb 3d 61 1e ca 3c d9 4d 87 3e
       0.028725887 0.11522958 0.024672689 0.2642658
000130 c0 7a 62 be 77 68 48 be 03 49 7a bd c2 84 77 bd
       -0.22117138 -0.195711 -0.061104786 -0.060429342
000140 5a 7a 16 3e 07 ce 4e bc 4c aa 85 3e b6 e7 46 3e
       0.14695111 -0.012622363 0.2610649 0.19424328
000150 50 db ab 3e aa c8 93 3e bd d0 25 3e 29 ad 90 3c
       0.3356576 0.28864032 0.16192909 0.017660694
000160 ec f2 a5 be 20 22 b8 bd a7 cf 87 3e a9 8c 82 3e
       -0.32411897 -0.08990884 0.26525614 0.2549794
000170 06 2f 28 be 16 fb 0b 3e d5 9a 22 be 69 b5 66 bd
       -0.16424188 0.1367 -0.15879376 -0.05632535
000180 45 25 b4 3d 52 2d f6 3d 21 f7 69 bd c8 5c 7a 3e
       0.08796171 0.12020363 -0.057120446 0.24449456
000190 e4 8f 84 be 60 03 13 3e da 80 7e 3e 7f c9 4a be
       -0.2589103 0.14356756 0.2485384 -0.19803427
0001a0 4f 6c 2f 3e 48 fb 7e 3b 5a d1 b6 3c e2 a7 33 3c
       0.1713116 0.00389071 0.022316623 0.010965319
0001b0 75 bf 8f 3d db ce 16 3e 4b fc c4 3c d3 87 89 bd
       0.070189394 0.14727347 0.024046084 -0.067153595
0001c0 bb c5 8f be bd 45 ee 3c 3a 7d 19 3e 46 b5 91 3e
       -0.28080544 0.029085988 0.14989176 0.28458613
0001d0 75 19 5c bd 85 25 2e 3e 5e dc 79 bc 11 40 3f be
       -0.053735215 0.170065 -0.015250294 -0.18676783

fc3.bias f4 [10]
000000 d6 73 54 bd 2b f9 80 3e 94 52 ea 3d 80 b6 21 3e
       -0.051868282 0.251901 0.11441532 0.15792274
000010 87 2a 8d 3d 54 f7 46 3e e1 f5 32 3e b2 3a 80 bc
       0.06892877 0.19430286 0.17476608 -0.015652988
000020 e6 2e 1f be 0c 8b b8 3d
       -0.15545234 0.09010896
