paths/0.5_1_0.1_True.pth (torch, 5006 bytes, 6 tensors)

fc1.weight f4 [16, 16]
0.06938049 -0.0054319855 0.18004811 -0.12889023 -0.2377847 -0.22924091 0.015143787 0.18937244
-0.26529294 -0.06407168 -0.082133286 -0.06313008 0.019492103 -0.22201669 0.023889286 0.057852745
0.069914505 0.1127293 0.17977479 -0.030770414 -0.25307995 -0.050754484 0.049790177 -0.118005924
0.15526575 0.15566055 0.11377598 -0.22878517 0.031775333 0.081165224 0.19873187 -0.046457693
-0.046048287 0.12864272 -0.010318977 0.025152644 0.027711323 0.09503693 -0.10349867 -0.17631744
-0.10576534 -0.20513898 -0.3188902 -0.37783805 0.13410896 0.20418786 -0.17528191 0.05968497
-0.041737735 -0.1032497 -0.11679274 -0.05565998 -0.028298765 -0.02733612 -0.11285788 -0.1133894
-0.011140913 -0.11906943 -0.09362689 0.12106848 -0.17024127 -0.021508217 0.15046763 -0.13920948
-0.35295326 0.075234614 -0.1390894 -0.036796693 -0.14040352 -0.0054696174 -0.11249914 0.11895797
-0.32840356 0.008862359 0.15207402 0.06359831 0.02983334 0.06601414 0.04752945 -0.1885949
0.048347235 0.13732706 -0.15253316 0.074575186 -0.21220756 -0.106367685 -0.25747013 0.006186182
-0.28494912 0.19796887 0.1947279 -0.24096444 0.14415334 -0.23520845 -0.12918016 0.059531752
0.08528631 0.062319834 -0.30381727 0.0050330013 0.21422245 0.019658828 -0.17101815 0.057992555
0.040408403 0.06609511 -0.18867329 -0.10511924 -0.22529796 -0.16907692 -0.12647587 -0.04932459
-0.07355737 -0.46162924 0.050557755 -0.01270419 -0.13323706 0.13793865 0.17120486 -0.06649476
-0.1591153 0.14224556 0.12860465 -0.0035336006 -0.17423232 0.24766035 -0.3286313 -0.19023825
-0.056557223 -0.25746357 -0.15086895 -0.16239762 -0.17241295 -0.11420654 -0.23179035 -0.046985127
-0.040716976 0.16388772 0.1616935 0.19735518 -0.08773278 -0.04465661 0.023657111 0.17801826
0.014143169 -0.07904568 0.014661312 -0.16602951 0.05837208 -0.19513899 -0.077408105 -0.019561827
-0.15096301 -0.1989674 0.08210418 -0.19864282 -0.061885387 -0.15646514 0.15120554 0.07690695
-0.2150181 -0.13752498 -0.16349372 -0.34503248 -0.24575882 -0.18996255 -0.22365266 -0.29283792
-0.08289602 0.18751396 0.2957855 -0.061018568 0.19311154 0.063407786 0.08084316 0.11772988
-0.021361277 -0.04524696 0.08825496 0.11580492 0.32718647 -0.09344494 0.13972504 0.152786
0.1749603 -0.08873723 0.019299282 0.13332105 -0.18026319 0.14952768 -0.075459294 0.07420478
-0.077994466 -0.08603158 0.042785905 -0.04361613 -0.18694559 0.06677396 0.064917915 0.09973227
0.042714223 0.2531032 0.08588312 0.18126859 0.1608305 -0.041081876 0.05489717 -0.04880441
0.043041304 0.114101864 0.09608692 -0.03646764 0.06724851 -0.1868216 -0.0037347756 0.2736228
-0.06543834 -0.18885121 0.17576389 -0.11979601 -0.14567623 -0.09421027 -0.11651673 0.21742766
-0.3645098 -0.107796565 -0.22982311 -0.18058078 -0.295555 -0.2255818 -0.047105666 -0.20154029
-0.36880258 0.22975223 0.14386678 0.30382803 -0.053780235 -0.029470667 -0.27642196 0.16188213
0.10899549 0.20399287 0.37817693 0.14562245 0.0011992384 0.1756751 0.27868804 -0.10071163
-0.085175335 0.24644664 0.12210518 -0.23040394 0.19151466 0.052439988 0.22873911 0.02483337
00000000: 5c17 8e3d ccfe b1bb 885e 383e cdfb 03be
00000010: d57d 73be 21be 6abe a51d 783c d9ea 413e
00000020: 7ad4 87be 0338 83bd 7f35 a8bd 584a 81bd
00000030: e7ad 9f3c 5858 63be 77b3 c33c 00f7 6c3d
00000040: 562f 8f3d 9fde e63d e216 383e 3c12 fcbc
00000050: b293 81be efe3 4fbd c9f0 4b3d 17ad f1bd
00000060: fcfd 1e3e 7b65 1f3e 6203 e93d a946 6abe
00000070: da26 023d f439 a63d 5e80 4b3e 6c4a 3ebd
00000080: 219d 3cbd ebba 033e ed10 29bc eb0c ce3c
00000090: db02 e33c b9a2 c23d 1cf7 d3bd 8f8c 34be
000000a0: 809b d8bd f40f 52be 9445 a3be fd73 c1be
000000b0: dc53 093e 9f16 513e 1a7d 33be 3a78 743d
000000c0: 30f5 2abd 9474 d3bd 0831 efbd b8fb 63bd
000000d0: d0d2 e7bc 00f0 dfbc 0822 e7bd b438 e8bd
000000e0: 6088 36bc acda f3bd 74bf bfbd c0f2 f73d
000000f0: ba53 2ebe 0032 b0bc 3014 1a3e ee8c 0ebe
00000100: 4ab6 b4be 9b14 9a3d 746d 0ebe 21b8 16bd
00000110: f1c5 0fbe 7a3a b3bb f365 e6bd 3ca0 f33d
00000120: 8324 a8be 6e33 113c 4bb9 1b3e d53f 823d
00000130: 0c65 f43c 6c32 873d 3eae 423d 051f 41be
00000140: c007 463d 779f 0c3e a731 1cbe e0ba 983d
00000150: f04c 59be 4dd7 d9bd 20d3 83be 75b5 ca3b
00000160: dae4 91be 5ab8 4a3e c066 473e 62bf 76be
00000170: ef9c 133e 7cda 70be ce47 04be 91d7 733d
00000180: 97aa ae3d 1543 7f3d f08d 9bbe e0eb a43b
00000190: 215d 5b3e 8d0b a13c 621f 2fbe 9a89 6d3d
000001a0: 4883 253d df5c 873d 9233 41be c248 d7bd
000001b0: 82b4 66be 8022 2dbe e482 01be 9508 4abd
000001c0: 3fa5 96bd ab5a ecbe a615 4f3d 3c25 50bc
000001d0: 4c6f 08be ca3f 0d3e 5450 2f3e 682e 88bd
000001e0: 1fef 22be d2a8 113e f0b0 033e fb93 67bb
000001f0: f569 32be ad9a 7d3e 5d42 a8be d1cd 42be
00000200: 8ca8 67bd 44d2 83be 647d 1abe 904b 26be
00000210: 058d 30be 1ee5 e9bd 735a 6dbe 7a73 40bd
00000220: d8c6 26bd 2fd2 273e fb92 253e 7a17 4a3e
00000230: 3ead b3bd d9e9 36bd 8fcc c13c 6b4a 363e
00000240: c0b8 673c b4e2 a1bd 0036 703c a403 2abe
00000250: 9017 6f3d 84d2 47be 2488 9ebd 2040 a0bc
00000260: 0c96 1abe 1cbe 4bbe 3c26 a83d 0669 4bbe
00000270: 887b 7dbd 6638 20be a0d5 1a3e 6481 9d3d
00000280: b42d 5cbe 59d3 0cbe e66a 27be 19a8 b0be
00000290: 33a8 7bbe 8b85 42be 3405 65be daee 95be
000002a0: 63c5 a9bd a903 403e 3271 973e 9bee 79bd
000002b0: 08bf 453e f1db 813d 1991 a53d 5d1c f13d
000002c0: d8fd aebc e054 39bd 04bf b43d 212b ed3d
000002d0: fc84 a73e 1060 bfbd 1514 0f3e ef73 1c3e
000002e0: cb28 333e ddbb b5bd 8719 9e3c 5085 083e
000002f0: ea96 38be c91d 193e 678a 9abd adf8 973d
00000300: 90bb 9fbd 5331 b0bd 4640 2f3d d4a6 32bd
00000310: aa6e 3fbe c9c0 883d aff3 843d 6f40 cc3d
00000320: 1cf5 2e3d be96 813e 7de3 af3d 799e 393e
00000330: c0b0 243e 7845 28bd dbdb 603d 22e7 47bd
00000340: 144c 303d 3dae e93d 38c9 c43d 185f 15bd
00000350: 96b9 893d 294e 3fbe 23c3 74bb 4a18 8c3e
00000360: 8904 86bd 3662 41be 73fb 333e 9c57 f5bd
00000370: 262c 15be 50f1 c0bd 53a0 eebd 5ba5 5e3e
00000380: 07a1 babe 72c4 dcbd c056 6bbe 2bea 38be
00000390: fc52 97be eafe 66be dff1 40bd 9460 4ebe
000003a0: b1d3 bcbe 2b44 6b3e d051 133e 598f 9b3e
000003b0: aa48 5cbd 786c f1bc 2e87 8dbe 6ec4 253e
000003c0: 0739 df3d 82e3 503e 68a0 c13e 0d1e 153e
000003d0: c32f 9d3a 2ce4 333e 33b0 8e3e e641 cebd
000003e0: 6870 aebd 825c 7c3e 4812 fa3d 03ef 6bbe
000003f0: 6b1c 443e 50cb 563d 963a 6a3e 5a6f cb3c

fc1.bias f4 [16]
-0.25698587 -0.20366359 -0.16771828 -0.039665937 0.091097385 -0.19035502 0.022516523 -0.07346164
0.13070819 -0.12615615 0.110899866 -0.049772624 0.36380926 0.0050272197 -0.14152886 0.13090676
00000000: a793 83be 308d 50be 57be 2bbe c078 22bd
00000010: 4491 ba3d 6dec 42be 9274 b83c 0e73 96bd
00000020: 5ed8 053e 142f 01be 781f e33d 61de 4bbd
00000030: 3545 ba3e 60bb a43b f1ec 10be 6c0c 063e

fc2.weight f4 [12, 16]
0.03210672 0.07619744 0.17981677 -0.18815812 -0.20794131 0.13331854 -0.11869687 -0.028028501
0.15560357 -0.23436362 0.2922445 -0.05528718 -0.008959838 0.121129975 -0.25150988 -0.1346491
-0.0862758 -0.098987624 0.09572113 -0.1404688 0.1476133 0.18634339 -0.05290993 0.041466508
-0.004636561 -0.105778635 -0.077635214 0.04692961 0.16001196 0.20400406 0.08591968 0.059438486
-0.06843808 -0.1611306 0.22233734 -0.2355555 -0.0029931068 0.14453655 0.23443848 0.20242572
-0.19353107 0.21109366 0.2333585 -0.094346374 -0.22577977 -0.17395946 -0.056907415 -0.19860852
-0.052748546 -0.19950023 0.047675148 0.040578067 -0.10599967 -0.119976886 0.13073745 0.041021
0.17388517 0.22175717 -0.015468697 0.10375785 0.1474014 0.09287018 0.02287866 0.19359213
-0.10085521 -0.12335125 0.14944793 -0.14143258 -0.09115397 0.14065988 0.084826596 -0.07657751
0.13781017 0.18467852 0.26316413 0.11448721 0.16548519 0.18912536 0.30637535 -0.027017046
0.16216902 0.009573725 -0.004251188 -0.032729506 -0.1314433 0.1422718 0.0663569 -0.008688635
-0.03477508 -0.07864329 0.2477343 0.15869293 -0.25538874 -0.26732957 0.121808276 -0.12193303
-0.20489475 0.056646537 0.07271063 -0.05944264 0.21601194 0.0006332691 -0.07137406 -0.21879181
0.04282681 0.16065323 0.11470241 0.108148135 -0.15076214 -0.21747532 -0.17406015 -0.21557078
-0.061174862 -0.0429723 -0.17076075 0.14947605 0.15131184 0.15862136 -0.09532408 0.18526757
0.27494702 0.19860265 0.22004274 -0.19400513 -0.124306954 -0.11559535 0.1775378 -0.15583254
-0.12788028 -0.10834511 -0.1890877 -0.23262516 -0.13238499 -0.18251431 0.061662342 0.14239958
0.120319545 -0.18903863 -0.08222346 0.11703768 -0.006522761 -0.004700469 -0.27908313 0.13301052
0.23362295 0.085129775 -0.09788309 -0.21264842 0.10015869 0.044008553 0.18306462 0.22263998
0.22126663 -0.1815936 0.22692391 -0.15792874 0.12721081 0.15144113 0.119414076 -0.14268605
0.18565333 0.057354644 -0.08788335 -0.2034483 0.14752601 0.046922676 -0.16022468 0.09979184
-0.0812872 0.18578976 0.04993416 -0.11775106 -0.18259414 0.07384515 0.1417588 -0.10986733
0.0248411 -0.18022755 0.027675152 0.20751652 -0.0073422436 0.07204157 0.11832525 0.19306841
-0.107416615 0.0024033189 0.067991704 -0.11010178 -0.09559104 0.07077564 -0.099438235 -0.2092106
00000000: 5682 033d 670d 9c3d e321 383e 86ac 40be
00000010: 91ee 54be a884 083e 5817 f3bd 079c e5bc
00000020: 8b56 1f3e 04fd 6fbe 12a1 953e cf74 62bd
00000030: 49cc 12bc fe12 f83d e7c5 80be 74e1 09be
00000040: 5eb1 b0bd 06ba cabd 7109 c43d 0ed7 0fbe
00000050: f127 173e cdd0 3e3e 15b8 58bd c9d8 293d
00000060: 4bee 97bb 78a2 d8bd 36ff 9ebd 4339 403d
00000070: 2dda 233e 71e6 503e a8f6 af3d c575 733d
00000080: 4429 8cbd 6cff 24be 66ac 633e 7635 71be
00000090: 0028 44bb 6401 143e a410 703e b048 4f3e
000000a0: 022d 46be f028 583e 88f5 6e3e ac38 c1bd
000000b0: d032 67be 6e22 32be c017 69bd 0860 4bbe
000000c0: dc0e 58bd ca49 4cbe 0447 433d 3035 263d
000000d0: 5b16 d9bd 71b6 f5bd 0ae0 053e a305 283d
000000e0: f40e 323e 5014 633e 6b70 7dbc ff7e d43d
000000f0: 65f0 163e b932 be3d 076c bb3c 043d 463e
00000100: 2d8d cebd 959f fcbd e108 193e b4d3 10be
00000110: efae babd 2509 103e 91b9 ad3d abd4 9cbd
00000120: 1c1e 0d3e 5e1c 3d3e 73bd 863e 4578 ea3d
00000130: f374 293e 14aa 413e 3bdd 9c3e da52 ddbc
00000140: a30f 263e 1ddb 1c3c 8d4d 8bbb 600f 06bd
00000150: 1399 06be b3af 113e 20e6 873d c75a 0ebc
00000160: 5070 0ebd bc0f a1bd 0fae 7d3e 6680 223e
00000170: 50c2 82be 6cdf 88be 9e76 f93d 06b8 f9bd
00000180: eecf 51be 3306 683d 50e9 943d 207a 73bd
00000190: 3c32 5d3e f801 263a 902c 92bd f60a 60be
000001a0: 2a6b 2f3d 4882 243e 19e9 ea3d c57c dd3d
000001b0: 6461 1abe dab1 5ebe d33c 32be 96be 5cbe
000001c0: 7e92 7abd b903 30bd e8db 2ebe 4010 193e
000001d0: 7ef1 1a3e a36d 223e 4539 c3bd c8b6 3d3e
000001e0: dbc5 8c3e 7e5e 4b3e e252 613e 48a9 46be
000001f0: a594 febd 41bd ecbd 78cc 353e 9192 1fbe
00000200: 0cf3 02be 0be4 ddbd 35a0 41be 4a35 6ebe
00000210: ee8f 07be 08e5 3abe a791 7c3d 32d1 113e
00000220: 186a f63d 5893 41be c664 a8bd 73b1 ef3d
00000230: e3bc d5bb 6406 9abb fce3 8ebe e933 083e
00000240: db3a 6f3e 8558 ae3d ee76 c8bd 82c0 59be
00000250: 0020 cd3d 5042 343d 4b75 3b3e bcfb 633e
00000260: b893 623e acf3 39be be5e 683e 12b8 21be
00000270: 8d43 023e 6213 1b3e 5e8f f43d 4b1c 12be
00000280: e81b 3e3e b4ec 6a3d 30fc b3bd c054 50be
00000290: 0f11 173e fe31 403d f011 24be aa5f cc3d
000002a0: e779 a6bd ac3f 3e3e c387 4c3d 7827 f1bd
000002b0: f5f9 3abe 203c 973d 3829 113e 1f02 e1bd
000002c0: 907f cb3c 928d 38be 00b7 e23c 367f 543e
000002d0: 3497 f0bb 888a 933d 8254 f23d bab3 453e
000002e0: 3efd dbbd 0081 1d3b 3c3f 8b3d 0b7d e1bd
000002f0: 3cc5 c3bd d2f2 903d 46a6 cbbd 4e3b 56be

fc2.bias f4 [12]
0.03793962 0.19976693 -0.0499855 -0.0016780689 0.17987402 0.09913341 -0.103340365 -0.38874593
0.14145173 0.025816247 -0.19242814 0.18029675
00000000: 9366 1b3d b48f 4c3e 98bd 4cbd a6f2 dbba
00000010: e530 383e 7506 cb3d 1da4 d3bd b509 c7be
00000020: b9d8 103e 987c d33c e20b 45be b69f 383e

fc3.weight f4 [10, 12]
-0.017126553 -0.087123126 0.11993167 0.046983097 0.117079064 -0.0034185369 -0.13909943 -0.10970132
-0.1380235 0.19814672 -0.08672858 0.09055567 0.105203606 0.17083406 0.15755156 -0.11112518
0.24277356 0.2624585 -0.064834565 -0.03239307 -0.19018887 -0.042518284 -0.2187638 -0.15619704
-0.013530479 0.22012377 -0.16787612 0.04524224 -0.023739723 -0.18830466 0.027063817 -0.22327094
-0.026123732 0.25386703 -0.26583886 0.24610007 0.3901156 0.20148605 -0.09585759 0.16791669
0.16149125 0.2700246 0.20198303 0.00043394166 -0.2488462 -0.1366299 0.1979158 -0.305593
0.23274429 -0.06984584 0.13219762 0.17307764 0.19742301 -0.100624695 -0.16810006 -0.23316278
-0.062310167 0.049027737 -0.1833287 -0.19900057 0.29058102 -0.066759884 0.14483693 -0.025125407
0.098137505 -0.17199154 -0.1654556 -0.27491114 0.022023495 0.28861037 0.17551841 0.078145
0.0019476339 0.19833533 0.059167713 0.17587495 -0.055790104 0.18206383 -0.13049723 -0.32128263
-0.32494196 0.24254064 -0.016991103 0.055631336 0.17635337 0.25187877 0.21209955 0.031148352
-0.043336283 -0.14606817 -0.22920686 -0.22718075 -0.20613582 0.29367346 0.17222688 0.23729452
0.1122631 -0.07118608 0.26871842 0.056696285 0.2758648 -0.22180806 0.08704111 -0.28851247
-0.17061113 0.037107658 -0.13729589 0.20087409 0.060416423 -0.12522647 -0.0831141 -0.1305006
0.24160987 0.09514591 -0.008389801 -0.3268067 -0.11747624 0.2246456 0.20818311 0.18580768
00000000: fc4c 8cbc 9c6d b2bd bc9e f53d 5971 403d
00000010: 26c7 ef3d 8809 60bb 1570 0ebe 16ab e0bd
00000020: 0856 0dbe f9e6 4a3e c19e b1bd 4075 b93d
00000030: fd74 d73d 20ef 2e3e 3255 213e 9995 e3bd
00000040: a299 783e f660 863e fcc7 84bd 99ae 04bd
00000050: dfc0 42be a727 2ebd 9e03 60be 1ef2 1fbe
00000060: f1ae 5dbc 2068 613e b8e7 2bbe ed4f 393d
00000070: cf79 c2bc f0d2 40be f0b4 dd3c 23a1 64be
00000080: 7001 d6bc dcfa 813e 081c 88be a801 7c3e
00000090: 3bbd c73e 5c52 4e3e fc50 c4bd 5af2 2b3e
000000a0: f65d 253e aa40 8a3e a4d4 4e3e aa82 e339
000000b0: 8ad1 7ebe b5e8 0bbe 71aa 4a3e b076 9cbe
000000c0: 8554 6e3e 560b 8fbd d05e 073e 443b 313e
000000d0: 4229 4a3e 5214 cebd 6c22 2cbe 39c2 6ebe
000000e0: f238 7fbd 4fd1 483d 85ba 3bbe cec6 4bbe
000000f0: 09c7 943e 68b9 88bd 2250 143e ccd3 cdbc
00000100: 51fc c83d 8d1e 30be 316d 29be 27c1 8cbe
00000110: 9e6a b43c bdc4 933e 19bb 333e 7c0a a03d
00000120: c047 ff3a 6b18 4b3e d859 723d 9018 343e
00000130: 2a84 64bd f16e 3a3e 11a1 05be 287f a4be
00000140: cb5e a6be 935c 783e ed30 8bbc afdd 633d
00000150: fa95 343e 41f6 803e a030 593e d42a ff3c
00000160: 6381 31bd e592 15be 34b5 6abe 12a2 68be
00000170: 4515 53be 5e5c 963e 3e5c 303e 56fd 723e
00000180: 32ea e53d 02ca 91bd 7695 893e 5d3a 683d
00000190: 273e 8d3e a721 63be 9c42 b23d e8b7 93be
000001a0: afb4 2ebe 33fe 173d 4b97 0cbe f0b1 4d3e
000001b0: 3677 773d 5e3b 00be ba37 aabd f3a1 05be
000001c0: 9468 773e dcdb c23d 6075 09bc 3553 a7be
000001d0: 6297 f0bd 7f09 663e f42d 553e 5e44 3e3e

fc3.bias f4 [10]
0.11755714 0.003673295 -0.026499566 -0.16145596 -0.05884803 0.13746896 0.035210054 0.047861617
0.003070046 0.17144112
00000000: ccc1 f03d aabb 703b 9e15 d9bc b654 25be
00000010: a20a 71bd aac4 0c3e 6b38 103d 8b0a 443d
00000020: d332 493b 438e 2f3e
