paths/0.5_1_0.1_False.pth (torch, 5016 bytes, 6 tensors)

fc1.weight f4 [16, 16]
0.009410367 -0.025827225 0.005903642 0.2008207 0.19837981 0.26409268 0.20378268 0.09179607
0.01068284 -0.043536585 0.13380969 -0.039582573 0.15281098 0.3151999 -0.0061668614 -0.21115924
-0.21188939 -0.21737957 -0.20910168 0.09277589 0.22277942 0.12468013 -0.18306151 -0.0913082
-0.1271701 -0.0915886 -0.05975934 0.07590526 0.1551699 0.13062273 0.0025372661 -0.08993577
0.18631743 -0.09198994 0.029404134 0.119766615 0.058639593 0.18244688 0.17465661 0.12164384
0.16957967 0.13354136 -0.24141128 -0.11001775 0.15741442 -0.03699154 0.062756166 0.0696108
0.14292079 -0.15004763 -0.018531637 0.0012786785 -0.024929397 -0.08331856 0.17446302 0.22657418
0.075078055 0.1463852 0.1790894 -0.08371422 -0.129423 0.17518805 -0.14626083 0.0046247714
-0.20175225 -0.08722487 0.24676359 -0.11836559 -0.07978674 -0.19629666 0.0658854 -0.27102965
-0.29754195 -0.18349321 -0.2266635 0.10422068 0.14147191 0.17519644 0.06356603 -0.25191998
-0.16545954 -0.14993472 -0.13484041 -0.07509608 0.11153814 0.016202215 -0.13670306 0.28047362
-0.34101504 0.12388833 -0.12581164 0.03795122 0.21558197 0.09980319 0.14540605 -0.21459287
-0.051513672 -0.12321658 0.19064544 -0.12448467 0.05727736 0.033500712 -0.11520667 -0.115441084
0.06792418 -0.15550585 0.015363962 0.29089016 -0.09073932 -0.19782086 -0.026694303 0.39776027
0.044837367 -0.021412253 -0.21455395 0.012946431 -0.04968603 -0.05414295 -0.16481785 -0.3160809
0.15561274 0.074085 -0.16052842 -0.2344648 0.22145773 0.23970291 -0.07604575 -0.19660723
-0.10226763 -0.075632304 -0.105217375 0.051233042 0.10640051 -0.07790093 -0.17339459 -0.016297802
0.24427414 -0.17798962 0.11172442 0.09851154 0.12260191 0.122445695 -0.069142595 0.093965314
-0.16219123 -0.20555371 -0.0510534 0.17892277 -0.165359 -0.10631367 0.093629636 -0.14207919
0.16769817 0.118852876 0.09713234 0.04115309 0.2955794 0.10949783 -0.10321195 0.14255516
0.22025111 0.16503933 0.06802265 0.26877022 0.4244703 -0.1688714 0.26481083 0.171405
0.31421605 -0.016915623 -0.25820574 0.013500635 -0.04818778 -0.1333837 0.039376043 0.047265418
-0.09438191 -0.17857234 -0.14279458 -0.12943232 0.01953811 0.027506888 0.117732994 0.12185891
-0.22777556 -0.042112302 -0.14301075 0.16664812 0.16958061 0.1551978 -0.052800674 0.09554007
-0.044068363 -0.06966274 0.12531029 -0.0762206 -0.055790942 -0.2546607 0.1303996 -0.17628425
0.034162838 0.093933105 -0.011843431 -0.10729897 0.15150887 0.19073895 -0.009282702 -0.1294598
-0.057453364 0.08503675 0.27552626 -0.17330283 -0.03261388 0.09770498 0.14005515 -0.31828263
0.060807627 0.17043237 -0.10047519 -0.044966772 -0.1014668 -0.16305774 0.20083927 0.076615356
0.21358648 0.19954215 0.27029493 0.12655264 0.18965238 0.23547046 0.14883868 0.30184484
0.44056293 -0.19986835 -0.17822678 -0.16874234 -0.001794131 0.11113426 -0.03301019 0.026993968
0.124876365 -0.12924409 -0.23579054 -0.13060966 -0.18171047 -0.06636563 -0.116455026 0.11487081
-0.04314923 0.06302136 -0.039063696 -0.11424147 0.19671968 -0.09946139 -0.10194131 0.13548009
00000000: f12d 1a3c 9e93 d3bc 5773 c13b f1a3 4d3e
00000010: 1424 4b3e 2837 873e 68ac 503e 94ff bb3d
00000020: 1407 2f3c 6b53 32bd 6805 093e 5621 22bd
00000030: 7b7a 1c3e e261 a13e 6213 cabb 213a 58be
00000040: 88f9 58be c098 5ebe c01e 56be 4901 be3d
00000050: 4a20 643e 4c58 ff3d 7a74 3bbe cbff babd
00000060: e138 02be ce92 bbbd 36c6 74bd 3874 9b3d
00000070: dce4 1e3e f7c1 053e 4348 263b 3f30 b8bd
00000080: ffc9 3e3e 3965 bcbd f0e0 f03c 3348 f53d
00000090: 1230 703d 5bd3 3a3e 2fd9 323e 6820 f93d
000000a0: 4ba6 2d3e 11bf 083e 8534 77be fc50 e1bd
000000b0: 3f31 213e 7184 17bd 4e86 803d 1b90 8e3d
000000c0: d459 123e 16a6 19be a9cf 97bc 5599 a73a
000000d0: bc38 ccbc eca2 aabd 6fa6 323e 1003 683e
000000e0: 86c2 993d 00e6 153e 3663 373e 5c72 abbd
000000f0: 7787 04be 7f64 333e 66c5 15be 658b 973b
00000100: 2498 4ebe f4a2 b2bd 98af 7c3e a969 f2bd
00000110: 3b67 a3bd fe01 49be edee 863d 66c4 8abe
00000120: 6b57 98be a5e5 3bbe 7a1a 68be a771 d53d
00000130: 03de 103e b266 333e e82e 823d a8fb 80be
00000140: 3a6e 29be 7d88 19be 9b13 0abe f9cb 99bd
00000150: 1c6e e43d 82ba 843c e3fb 0bbe 3d9a 8f3e
00000160: 8699 aebe 2ab9 fd3d c4d4 00be bd72 1b3d
00000170: 85c1 5c3e 9d65 cc3d 53e5 143e 3cbe 5bbe
00000180: 0000 53bd f958 fcbd 8f38 433e d2f1 febd
00000190: aa9b 6a3d 0b38 093d 79f1 ebbd 606c ecbd
000001a0: d51b 8b3d ed3c 1fbe 21b9 7b3c 8eef 943e
000001b0: 89d5 b9bd 8d91 4abe 03ae dabc 3ca7 cb3e
000001c0: 63a7 373d c068 afbc 08b4 5bbe 441d 543c
000001d0: 9483 4bbd ffc4 5dbd 03c6 28be 5bd5 a1be
000001e0: f258 1f3e e0b9 973d 9061 24be 8a17 70be
000001f0: d1c5 623e ae74 753e e0bd 9bbd 6853 49be
00000200: b171 d1bd 1ce5 9abd 357c d7bd bdd9 513d
00000210: 83e8 d93d 868a 9fbd 5a8e 31be f882 85bc
00000220: 0023 7a3e e942 36be c6cf e43d 6bc0 c93d
00000230: b616 fb3d cfc4 fa3d a29a 8dbd e370 c03d
00000240: 7515 26be ac7c 52be 5f1d 51bd 8837 373e
00000250: df53 29be fbba d9bd e5c0 bf3d 357d 11be
00000260: 12b9 2b3e 2369 f33d 52ed c63d 2490 283d
00000270: 2f56 973e 6640 e03d c960 d3bd fbf9 113e
00000280: 8289 613e 1200 293e 764f 8b3d 409c 893e
00000290: 2c54 d93e a0ec 2cbe 4995 873e cb84 2f3e
000002a0: ede0 a03e a292 8abc 8b33 84be c431 5d3c
000002b0: 8d60 45bd bd95 08be c648 213d 6299 413d
000002c0: 4e4b c1bd abdb 36be be38 12be e889 04be
000002d0: 630e a03c 2056 e13c ff1d f13d 2a91 f93d
000002e0: ff3d 69be f37d 2cbd 6971 12be cea5 2a3e
000002f0: 8aa6 2d3e 2cec 1e3e 8545 58bd 83aa c33d
00000300: 0781 34bd 57ab 8ebd 5751 003e 8c19 9cbd
00000310: 0b85 64bd e362 82be 7987 053e dc83 34be
00000320: 55ee 0b3d 0060 c03d f30a 42bc 90bf dbbd
00000330: 2425 1b3e 1251 433e 7916 18bc 1c91 04be
00000340: 3854 6bbd bf27 ae3d c711 8d3e 4c76 31be
00000350: 2296 05bd 8c19 c83d 9e6a 0f3e f1f5 a2be
00000360: 6b11 793d d385 2e3e f0c5 cdbd 142f 38bd
00000370: d3cd cfbd 9cf8 26be cfa8 4d3e 83e8 9c3d
00000380: 6ab6 5a3e c754 4c3e 1964 8a3e 0497 013e
00000390: 3c34 423e 2b1f 713e 2b69 183e 688b 9a3e
000003a0: 7791 e13e 4aaa 4cbe 1581 36be cbca 2cbe
000003b0: 0c29 ebba 5c9a e33d b135 07bd 7422 dd3c
000003c0: 2ebf ff3d 9058 04be 1373 71be 8abe 05be
000003d0: 4f12 3abe b4ea 87bd f97f eebd 6341 eb3d
000003e0: 3fbd 30bd 5811 813d 4101 20bd 6ff7 e9bd
000003f0: e270 493e 6ab2 cbbd 9bc6 d0bd 4bbb 0a3e

fc1.bias f4 [16]
-0.2136104 0.14257789 0.066372305 0.16020137 -0.002761415 -0.08096117 0.18902229 0.019550122
0.046548888 -0.0017230356 -0.11246218 0.1016163 -0.22378191 0.2043373 0.1154352 0.23974632
00000000: afbc 5abe f0ff 113e 34ee 873d d40b 243e
00000010: dbf8 34bb f8ce a5bd 0f8f 413e 9427 a03c
00000020: 0caa 3e3d 7bd7 e1ba 9252 e6bd 351c d03d
00000030: 1627 65be cc3d 513e 4a69 ec3d 0f80 753e

fc2.weight f4 [12, 16]
-0.28642106 0.20616047 -0.078457996 0.17281888 -0.13207701 -0.03753775 0.093464516 -0.0972216
-0.13007827 0.24451064 -0.16819851 0.23516159 0.24890676 0.011508926 -0.27419955 -0.06828383
0.24819154 0.12614727 -0.109521985 0.19297485 0.094725996 -0.21253051 0.035420757 0.1863484
-0.09053093 -0.23420595 -0.2897854 -0.022605726 -0.13939117 -0.00900867 -0.08905006 0.09004692
0.2981617 -0.103567906 0.014859438 -0.24020056 0.03900553 -0.029058896 -0.14756073 0.40282914
-0.111232236 -0.15943135 -0.00026091337 0.117208116 0.09718035 0.11909645 -0.20105238 0.1886372
-0.11006077 -0.08915439 -0.16617551 0.19441351 -0.15270698 0.26532844 -0.14369634 -0.014924657
0.0061984533 0.07379357 -0.07356862 0.038958423 0.025421727 -0.0110367285 -0.14102548 -0.02441443
0.13015164 -0.036300197 -0.058287077 -0.28652132 -0.20655014 -0.22857016 0.12344065 -0.18697858
-0.1802082 0.10037693 -0.14189884 0.12948042 -0.072204255 0.063503474 0.0036404403 0.2525413
-0.25221482 0.085362434 -0.0070283464 -0.07709892 -0.2195155 0.1097877 0.16616331 -0.19331288
0.041720223 -0.13878298 -0.100566044 -0.035106767 -0.21962486 -0.23469344 -0.22281237 0.17344525
-0.10676449 -0.020174582 -0.087626316 0.081887186 -0.052714463 0.23542283 0.26782778 0.2875399
0.080373764 0.23912604 -0.19923696 -0.06461739 -0.04022432 0.13211294 -0.5800126 0.31626397
-0.05182906 -0.04653451 -0.18512675 -0.22843364 -0.1854243 -0.080700964 -0.24546617 -0.21128818
-0.2548833 0.19380923 0.037842542 -0.20247467 0.15105446 0.006458732 -0.10405588 -0.094732426
-0.16174038 -0.11752828 0.25960815 0.16053827 0.14536731 -0.18480133 0.13109455 0.34483767
0.05723124 -0.019219678 -0.1759487 0.17250185 0.0059697065 0.27321005 -0.31566957 -0.06477022
0.08774053 0.23263864 0.1198267 -0.189566 -0.06436665 0.084149614 0.15163517 -0.09410691
0.051339183 -0.04757174 -0.04365922 0.116871595 -0.16928102 -0.14311597 -0.06743839 -0.002129646
0.115671374 -0.18225357 0.166106 -0.124338575 -0.1586219 0.15165581 -0.05257609 -0.146286
-0.19062626 -0.23863976 -0.06403453 0.12196558 -0.16642727 -0.23136327 -0.028959684 0.1168792
-0.10726276 -0.14910659 -0.19429496 -0.18388334 0.24240938 -0.20079404 0.0109576285 -0.09634644
0.06473839 -0.1423558 -0.24755901 -0.23770148 -0.17651823 -0.011648476 0.1608882 0.12705705
00000000: c8a5 92be bb1b 533e 96ae a0bd 6ff7 303e
00000010: 323f 07be 2fc1 19bd 536a bf3d 1e1c c7bd
00000020: 3d33 05be ff60 7a3e 3b3c 2cbe 33ce 703e
00000030: 6ae1 7e3e ef8f 3c3c e263 8cbe 65d8 8bbd
00000040: ec25 7e3e c02c 013e 104d e0bd 339b 453e
00000050: b4ff c13d 99a1 59be 5b15 113d 1dd2 3e3e
00000060: 4868 b9bd afd3 6fbe c05e 94be a52f b9bc
00000070: 8fbc 0ebe 1a99 13bc e15f b6bd 856a b83d
00000080: a6a8 983e 691b d4bd 0075 733c 23f7 75be
00000090: 43c4 1f3d ec0c eebc 291a 17be 9f3f ce3e
000000a0: bacd e3bd f941 23be 33cb 88b9 cf0a f03d
000000b0: 7e06 c73d d7e8 f33d ade0 4dbe 1c2a 413e
000000c0: 8a67 e1bd 9496 b6bd ea29 2abe 5614 473e
000000d0: 385f 1cbe 21d9 873e 2225 13be 8c86 74bc
000000e0: 651c cb3b 1521 973d 25ab 96bd de92 1f3d
000000f0: 3a41 d03c 65d3 34bc fc68 10be c500 c8bc
00000100: 7946 053e 84af 14bd 6ebe 6ebd ecb2 92be
00000110: e181 53be 4c0e 6abe 74ce fc3d 5077 3fbe
00000120: 8088 38be 6b92 cd3d ee4d 11be 8496 043e
00000130: d3df 93bd 1c0e 823d 7494 6e3b 184d 813e
00000140: 4d22 81be 80d2 ae3d 0b4e e6bb 0ae6 9dbd
00000150: acc8 60be 60d8 e03d b726 2a3e d0f3 45be
00000160: d3e2 2a3d 201d 0ebe 92f5 cdbd 1dcc 0fbd
00000170: 57e5 60be 7a53 70be ed28 64be a29b 313e
00000180: 57a7 dabd 2a45 a5bc 6d75 b3bd 78b4 a73d
00000190: 1feb 57bd af12 713e b920 893e 6e38 933e
000001a0: 009b a43d 75dd 743e c604 4cbe 1f56 84bd
000001b0: 42c2 24bd 9d48 073e b57b 14bf 5aed a13e
000001c0: b54a 54bd f89a 3ebd de91 3dbe 82ea 69be
000001d0: dedf 3dbe 8c46 a5bd 7c5b 7bbe ee5b 58be
000001e0: 1080 82be ed75 463e c800 1b3d 8555 4fbe
000001f0: 05ae 1a3e c5a3 d33b 401b d5bd 1303 c2bd
00000200: 459f 25be abb2 f0bd 5ceb 843e 2564 243e
00000210: 2bdb 143e 8f3c 3dbe a63d 063e 908e b03e
00000220: 4e6b 6a3d 9672 9dbc e52b 34be 53a4 303e
00000230: 879d c33b 30e2 8b3e 719f a1be 40a6 84bd
00000240: 4fb1 b33d d338 6e3e b367 f53d 971d 42be
00000250: aad2 83bd a256 ac3d 4046 1b3e 20bb c0bd
00000260: 0949 523d 96da 42bd 03d4 32bd 605a ef3d
00000270: 0158 2dbe fe8c 12be 231d 8abd 8891 0bbb
00000280: 1de5 ec3d aea0 3abe b117 2a3e 39a5 febd
00000290: c86d 22be a94b 1b3e 075a 57bd ffcb 15be
000002a0: 8833 43be fb5d 74be 8924 83bd 17c9 f93d
000002b0: e96b 2abe 7eea 6cbe dc3c edbc 5d5e ef3d
000002c0: 94ac dbbd 66af 18be 42f5 46be ea4b 3cbe
000002d0: 2a3a 783e f49c 4dbe a087 333c 4851 c5bd
000002e0: 9095 843d b8c5 11be 1c80 7dbe 0468 73be
000002f0: 32c1 34be 40d9 3ebc e0bf 243e 3e1b 023e

fc2.bias f4 [12]
0.2960809 0.047246475 0.19868731 0.10733702 -0.14656986 0.016872114 0.28092355 -0.234692
0.09148193 -0.24586202 -0.18102035 0.22007063
00000000: ea97 973e 8585 413d b074 4b3e 83d3 db3d
00000010: 6916 16be 6337 8a3c 36d5 8f3e 1a53 70be
00000020: e15a bb3d 41c3 7bbe 665d 39be 325a 613e

fc3.weight f4 [10, 12]
-0.1335684 0.1706767 0.19289562 0.0483913 -0.009947144 -0.23447329 0.31609204 -0.06889035
0.35531473 0.059072327 -0.25183046 0.05709669 0.25852537 0.12192783 -0.082574606 0.046719346
0.05722437 -0.1951413 0.116602376 0.08854863 0.051705956 -0.10495797 -0.14051834 -0.23088306
0.07760669 0.097147636 -0.22413903 -0.09142712 -0.20998336 -0.3409287 0.31306186 0.1890108
0.024650322 0.15933093 0.29497862 -0.0016322434 -0.0101809185 -0.033399567 -0.03441486 0.2277886
0.20491819 0.14799502 0.2923148 0.043945253 0.095781 0.22746308 0.2681352 -0.18296124
0.2584385 0.31483945 0.11930122 -0.24389614 -0.118622944 0.08046038 0.23773219 0.016716242
-0.037792172 0.32211572 -0.06831523 0.025292456 0.37561253 0.3109108 -0.03905961 0.0066236733
-0.04094348 0.13538913 0.040233824 -0.086458296 -0.024469536 0.23561144 0.15948968 -0.27591318
0.13663751 0.047718357 -0.19023646 0.15115255 0.34622473 0.2238214 0.14068852 -0.107596844
0.22300762 0.13250138 -0.017855788 -0.020708293 0.08957094 0.22167245 0.2706559 0.25326663
-0.23816267 -0.09724682 0.2262361 -0.26889917 0.07301559 -0.021253314 0.2609741 0.030233353
0.27463564 0.027525231 -0.26953208 -0.13554448 0.25435507 -0.044970553 0.20792048 -0.16150843
-0.0041328743 -0.06823333 -0.0454744 0.02125886 0.12841144 0.14856216 -0.111798555 0.087939285
0.18509059 -0.111855105 0.19484076 0.14759871 0.05569347 0.33002323 -0.23978178 0.25205016
00000000: 28c6 08be dfc5 2e3e 6e86 453e f535 463d
00000010: 59f9 22bc c419 70be d1d6 a13e 6216 8dbd
00000020: d0eb b53e d3f5 713d ecef 80be 38de 693d
00000030: 705d 843e 4cb5 f93d e01c a9bd c95c 3f3d
00000040: 1a64 6a3d 1fd3 47be 3acd ee3d fc58 b53d
00000050: a0c9 533d 34f4 d6bd 0ae4 0fbe 9c6c 6cbe
00000060: 42f0 9e3d 57f5 c63d b484 65be 243e bbbd
00000070: e105 57be 358e aebe a549 a03e 0c8c 413e
00000080: 79ef c93c a627 233e 7007 973e 00f1 d5ba
00000090: decd 26bc fccd 08bd 99f6 0cbd 6a41 693e
000000a0: 13d6 513e 028c 173e 49aa 953e f0ff 333d
000000b0: d428 c43d 15ec 683e 0449 893e 315a 3bbe
000000c0: 0d52 843e a332 a13e 3354 f43d e9bf 79be
000000d0: 96f0 f2bd 69c8 a43d 1170 733e 80f0 883c
000000e0: f7cb 1abd 5aec a43e dbe8 8bbd 2032 cf3c
000000f0: 4950 c03e b32f 9f3e f8fc 1fbd 660b d93b
00000100: 5ab4 27bd 73a3 0a3e 39cc 243d 0c11 b1bd
00000110: 5674 c8bc 2044 713e 4351 233e 7e44 8dbe
00000120: b4ea 0b3e 5374 433d 59cd 42be bcc7 1a3e
00000130: 5e44 b13e 7031 653e a710 103e bc5b dcbd
00000140: 1c5c 643e 71ae 073e 4d46 92bc 70a4 a9bc
00000150: f870 b73d 1afe 623e 6993 8a3e 2aac 813e
00000160: eae0 73be 5729 c7bd 70aa 673e 27ad 89be
00000170: 3389 953d 6e1b aebc 669e 853e f0ab f73c
00000180: 0b9d 8c3e 987c e13c 1c00 8abe 2ccc 0abe
00000190: d43a 823e 0b33 38bd 1be9 543e 7762 25be
000001a0: 106d 87bb ebbd 8bbd 5d43 3abd 1027 ae3c
000001b0: 4a7e 033e ae20 183e a4f6 e4bd 8319 b43d
000001c0: 6388 3d3e 4a14 e5bd 5684 473e 1e24 173e
000001d0: d61e 643d cef8 a83e 5b89 75be b80c 813e

fc3.bias f4 [10]
0.041813087 0.058967587 0.05174018 0.06767475 0.051270574 0.04425788 0.038168352 0.07161233
0.054907896 0.044556484
00000000: 3344 2b3d ff87 713d 83ed 533d 0f99 8a3d
00000010: 1801 523d c047 353d 6b56 1c3d 7ca9 923d
00000020: 1ae7 603d dc80 363d
