paths/0.5_10_0.1_True.pth (torch, 4311 bytes, 6 tensors)

fc1.weight f4 [16, 16]
00000000: 3c9e 99bd 552a cbbd 10d1 d4bd ac63 2bbe
00000010: f421 ff3c 4163 7abe 24cb 3abe 7830 52be
00000020: 1aa5 4ebe c356 1a3e c5ea 6c3e 9eb3 123e
00000030: 286f 693d 7b2c 9dbd 8262 15be 761c fbbb
00000040: 54d5 c5bd c61b eabc a2c5 043e 9415 cb3d
00000050: 82bc 44be 1a07 543e acb6 72be e2ab d4bc
00000060: bf2d f03c caee 44be 5d55 89be ca60 003e
00000070: 5030 d6bd c6b7 39be 795f 213d 2b87 5dbe
00000080: 8cdc aabd 1f4a 36be bf2b 1dbd 8d42 adbe
00000090: cff6 60be 644b 1bbe a22f 6a3e 999b 62be
000000a0: d8c1 e6bd 1ca7 8c3e e68a 13be 6a99 0cbe
000000b0: c119 2f3e 2b1e 0e3e 8ea9 f13b 8eac 32be
000000c0: 1151 1e3c 4caa 253c c447 42be 886c 66be
000000d0: b28f 77be aed4 e5bd 1d63 3a3e 6c67 d5bd
000000e0: 9e06 58be bf1d 41be 6d28 03be 426a 1c3e
000000f0: a820 443e 4c48 86bc 8ea6 473e 1cb2 b33c
00000100: 07ee 293e a998 cd3d 26c4 b4bd 99b6 a03d
00000110: 18da 963e 85b2 973e c288 0abd 3c5e a63d
00000120: 8cf4 103e 0f8b fb3d 1a5f bd3d 19d5 0bbe
00000130: 0a2a 393e 5420 a6ba f349 8ebd 167a ab3e
00000140: 16b3 66bd 9294 00be 2ca8 0b3e 1fae 54be
00000150: 4f9b f2bc 7235 c6be 6d28 8a3d 4a2c fbba
00000160: b9c7 d13d a1f0 2bbe 941c de3d 5e1b 313e
00000170: 6674 93be b883 c3bd a408 6fbd a44f 1dbe
00000180: bc57 7abe f889 443e 7a16 373e 8e3c a23d
00000190: bc38 90bb ec5e 433e 1c22 1dbd af2a ecbd
000001a0: 46a4 32be 0095 d9bd 4aa0 64be fef0 7abe
000001b0: 92a7 0ebe ff3e 533e 78b6 ea3d a841 303c
000001c0: bd0b a9bb ed12 be3d 3cc4 cc3d 0c83 b2bd
000001d0: e437 ed3d de98 42be 604e 39be 34b8 9e3d
000001e0: 99ed 373e e798 9a3c 9544 a1bd 6024 3cbe
000001f0: 50ca e43d ce76 94bd 92be f8bd 686e 9c3d
00000200: 4e01 223d f84c 1cbd 7c9f 7ebe 9131 123e
00000210: a1c8 26be 8dbf 163e 2ecf 37be 6a7d 873e
00000220: 8fd8 71be 570a 23bd d983 513e f53a 1bbe
00000230: d974 2cbd 0eea a73c b822 803e 27a2 f0bd
00000240: 8b45 cc3d 3caa f03d 0ace 86be 5e6a 41be
00000250: 6b36 debd 73dc ecbd 8e2d 873e a7ea a53e
00000260: c94c 35bc 692c 393e b667 f23d 1f5d 993e
00000270: a3a2 d1bd a6cb 08be 5890 6abd 8847 db3d
00000280: ff54 f03d 2fb9 3f3e 505c 9d3d f875 d9bd
00000290: 2c21 70be 2eab 32be ab67 38bc 5b4d 493d
000002a0: dd8a 7cbe c13b 4bbe 4c47 673d d105 54be
000002b0: c334 86be b44b c63d c8e3 123d 93e2 b63d
000002c0: d4e9 91be b5aa 11be d558 28be 74a2 55bd
000002d0: 07a9 50be fc3a 043d ac6c a3bd ef34 02be
000002e0: 60d0 1cbe 7653 0d3e 72fd 2b3d 05af 283d
000002f0: 7dea c33c 7545 87bd fffc ddbd 347e fd3d
00000300: 9eb3 a4be e6a3 463e be67 903e 7e33 38bd
00000310: f7e1 95bd c991 3cbe 7e0a 20be d1ee 793d
00000320: 3ce7 1b3a f75f 92bd f078 843e 944d 9fbd
00000330: 0699 b83b ad96 813c cea8 0c3d b707 52bc
00000340: a7a6 8fbe 45dc 88be 297d a5be 8d86 3fbe
00000350: 03a2 93be eace 64be f436 15be 1f28 97bd
00000360: 77ff 85bd a3fe 133e 56fd ce3d 5724 1a3d
00000370: f8e4 4c3d 8009 a03d 5fe0 36bd 642f 1a3e
00000380: 60a0 0dbc 1816 7b3e 22d7 73be 18db 31bd
00000390: 847e d8bd bc47 f13d 0c78 6dbe 80fa 413b
000003a0: 2c28 5dbe 86de 4cbe 726f 76be c0bc cebd
000003b0: 8055 be3d a8f0 5fbe b486 55be 4252 173e
000003c0: fdc8 0ebe 370c 71be e967 643d a6dd 7ebd
000003d0: 18d6 b1bc 35a9 a5bd 79f4 8abd 718f 07be
000003e0: 1a4d 413d aa53 56bd 5e94 a9bd 1715 d63d
000003f0: 8b3d 24ba 9131 3a3d 43b5 25be 0e3a 9f3e
-0.07500884 -0.099201836 -0.10391438 -0.1673724 0.03114412 -0.24451925 -0.18241554 -0.20526302
-0.20180169 0.1507216 0.23136432 0.14326331 0.056990772 -0.076744996 -0.14588359 -0.007663305
-0.0965983 -0.028577697 0.12966016 0.09916225 -0.19212535 0.20705834 -0.23702496 -0.025960866
0.029318688 -0.19231716 -0.2682294 0.12536922 -0.10458434 -0.1813651 0.03939769 -0.21633594
-0.08342847 -0.17801712 -0.038371798 -0.33839837 -0.2196915 -0.15165478 0.22869733 -0.22129668
-0.112674415 0.27471244 -0.14408454 -0.13730398 0.17099668 0.13878696 0.007374949 -0.17448637
0.009662882 0.010111403 -0.18972689 -0.22502339 -0.24175909 -0.11222206 0.18201871 -0.10420117
-0.21096274 -0.18859003 -0.1280839 0.15274909 0.19153082 -0.016391896 0.1949713 0.021935515
0.16594706 0.10038883 -0.08826475 0.07847328 0.29463267 0.29628387 -0.03382183 0.081234425
0.14155787 0.12282383 0.09246655 -0.13655509 0.18082443 -0.001267443 -0.069476984 0.33491582
-0.056323133 -0.12556675 0.13638371 -0.20769547 -0.029615073 -0.3871265 0.06745992 -0.001916298
0.10243172 -0.16791011 0.108452946 0.17295596 -0.28799742 -0.09546608 -0.05835785 -0.15362412
-0.2444753 0.19193256 0.17879668 0.07921706 -0.0044012945 0.19079179 -0.038362607 -0.11531579
-0.17445478 -0.106241226 -0.2232677 -0.24505994 -0.1393111 0.206295 0.114605844 0.010757841
-0.00515887 0.092809536 0.09998366 -0.087164015 0.11582926 -0.19003627 -0.18096304 0.07749978
0.1796173 0.018871738 -0.07874409 -0.18373251 0.111714005 -0.07249223 -0.121457234 0.07638246
0.039552025 -0.03815934 -0.24865526 0.1427672 -0.16287471 0.14721508 -0.17950127 0.2646287
-0.23617767 -0.039804783 0.20460452 -0.15159209 -0.042103622 0.020497348 0.25026488 -0.11749678
0.09974202 0.1175122 -0.2632907 -0.18888232 -0.10850223 -0.11565485 0.26401943 0.32405588
-0.01106567 0.18083347 0.118361875 0.29953858 -0.102360986 -0.13358936 -0.057266563 0.10707003
0.11734962 0.18722986 0.07683623 -0.10618204 -0.23450154 -0.17448112 -0.011255185 0.049146038
-0.24662347 -0.19847013 0.05646448 -0.20705344 -0.2621213 0.09682408 0.03586176 0.08929934
-0.2849871 -0.14225276 -0.16440137 -0.05215688 -0.20376979 0.032282814 -0.07979712 -0.12715505
-0.15313864 0.13801369 0.04198975 0.041182537 0.023915524 -0.06605045 -0.10839271 0.12377587
-0.32168287 0.1939846 0.2820415 -0.04497098 -0.0731849 -0.18414988 -0.15629002 0.06101877
0.00059472374 -0.0714721 0.25873518 -0.07778469 0.005633476 0.015818918 0.034340672 -0.012819222
-0.28056833 -0.26730552 -0.32322052 -0.18703671 -0.28834543 -0.22344556 -0.14571744 -0.07380699
-0.06542867 0.14452605 0.10106914 0.037632313 0.05002305 0.07814312 -0.04464757 0.1505714
-0.008644193 0.24520147 -0.23812535 -0.043421835 -0.10571006 0.1178126 -0.23190325 0.0029598773
-0.21597356 -0.20006761 -0.2406595 -0.10094595 0.092936516 -0.21869147 -0.20852166 0.14777473
-0.13943858 -0.23539816 0.05576316 -0.0622231 -0.021708533 -0.08088914 -0.06784911 -0.13238312
0.04719267 -0.052325882 -0.08280252 0.10453241 -0.0006265274 0.045457426 -0.16182427 0.3109898

fc1.bias f4 [16]
00000000: 2f73 2ebd e62a e63d b219 243e bf3f 1abe
00000010: 5e11 5d3e 3200 92be c446 0dbc 7c0b a8bd
00000020: 04d1 823e 6f40 683e a91e 283e e4fe cd3d
00000030: 87f3 c7bc 2bb1 2cbe b038 e2bc ee46 7bbc
-0.042590316 0.11238651 0.16025427 -0.1506338 0.21588656 -0.28515774 -0.008622829 -0.082053155
0.2555009 0.2268083 0.16417946 0.10058382 -0.024408115 -0.16864459 -0.027614921 -0.015336735

fc2.weight f4 [12, 16]
00000000: 261d 9f3c 303d 7dbe ae10 053c 0c90 c73d
00000010: 656b 163e 66ad 3fbe 5040 773d 265b 46be
00000020: 2885 f3bd d238 1abe e836 72be 6425 8dbe
00000030: e9d7 9abe 4e2e 2cbe 50fc 6d3d 4fba 9b3e
00000040: 8eab a33d 2a1b 71be 182a 74bc 56e3 1ebe
00000050: 38db 073e 49c6 ee3d 3bfe b9bd a9f6 033d
00000060: 6f0b 863d 47b3 2ebe d038 33be e014 fc3d
00000070: ba20 393d 729a f6bd 5050 bebc 26c3 0d3e
00000080: bdce 483d 72a5 473e b180 c4bc 90e9 623e
00000090: 0aa4 4c3e 02f7 94bd 99e2 6abd bb97 033e
000000a0: c627 b2bc 3593 513e cf57 5cbe 3184 8cbd
000000b0: 15da 35be 9825 a63d f86b dabd 86f5 0c3e
000000c0: 734e a4be 6295 233b aa6e e0bd 4da8 a9bc
000000d0: e214 363e 8240 06be 9e75 313e 8921 14be
000000e0: 2c2b 81be ac18 b53d eabb 55be 93eb d2be
000000f0: 9ab3 d73b 8fa4 91be 240e 583e f57b 9bbd
00000100: c04a 443c bcdb c83d 3088 d2bc a0a6 833c
00000110: 3c05 4d3d fa7a 0cbe be66 363e 984f 69be
00000120: bdba 2b3e 0623 8bbe 308a 973c a09d 423c
00000130: 6fff fe3d 4a8e 7cbe 2a78 63be 02f6 2bbe
00000140: 214e 6a3e c3df 473e 0036 023e 7f96 a6bc
00000150: 6344 a83d 5ba1 2abe 7830 a63d 37e4 40bd
00000160: 4a63 b93e 695d 033e 43c8 ffbd 9a5f 063e
00000170: aee9 98bc 683e 9e3d e03b f8bd 7382 9e3e
00000180: cbe7 f8bd dc81 a5bd 9843 a23d 86be 87bd
00000190: b1db 96bd 5ec7 03be 5054 473e a996 e2bd
000001a0: 5803 79bd 65b2 7bbe 0c45 aebd fc86 12bd
000001b0: 468c b1bd 152f 393e d05e 6d3e 5271 2ebd
000001c0: 801d 31bd aee8 f8bd 099f 9d3e 9617 b23e
000001d0: fc80 d3bc 3ce8 cb3d a2b0 4a3d da38 65be
000001e0: 92b7 5a39 fe92 933d 835c 71bd ce0c 3a3e
000001f0: c8d0 4f3e 5a48 003e f835 2bbd 3cc1 f53d
00000200: 28ea 043e 6b7a ac3d 7a09 1fbe 8e6a 673e
00000210: a9e7 0a3d 4a93 f73d 6400 553e b407 c33d
00000220: b7a8 61be dd4e dd3a 0077 3c3e 3a5f 7abc
00000230: 58c6 b33c 8e32 00bd be59 0c3e bb3f 4c3e
00000240: 93a5 f93b 200d 843c b0f9 c5bb a811 03bd
00000250: 0a7f b1bc 3885 cfbd 4051 e9bc d9d4 1d3e
00000260: 1638 65be 2727 12be 30a3 623e 30f3 373e
00000270: dc29 923d d4d3 0cbe 18c7 e4bd 9520 40be
00000280: adc9 c5bd edcf 06be c0a7 f6bd e179 783e
00000290: d4d4 893d acf0 7f3d cbdb 9d3d 6528 e53d
000002a0: 6925 913d 34b0 1f3e a1ab 373e 4935 89be
000002b0: 7318 be3e b661 0e3e 78aa f6bd dc47 303c
000002c0: fb5a 463e d2fd 213e be5e 3d3d 6ee0 60bd
000002d0: ccfb 013b 0381 f43d 25b4 c3bd 6204 5b3d
000002e0: b8aa 193d 7854 eabd a646 1c3d 6f67 67be
000002f0: 75f4 853d 9f47 28be 2e7d 37be e388 3cbe
0.019423079 -0.24730372 0.0081216525 0.09744272 0.14689405 -0.1871849 0.060364068 -0.19370708
-0.11890632 -0.15060738 -0.23653758 -0.2756759 -0.3024285 -0.16814539 0.058101952 0.3041558
0.07991706 -0.23545519 -0.014902614 -0.1551641 0.13267219 0.11658914 -0.09081694 0.032217655
0.065451495 -0.17060576 -0.17502141 0.12308669 0.045197226 -0.12041177 -0.023231655 0.13843974
0.049025286 0.19496706 -0.023987146 0.2215941 0.19984451 -0.072736755 -0.057345007 0.1285085
-0.021747481 0.20466311 -0.21517871 -0.06861151 -0.17758973 0.08112639 -0.10665125 0.13765535
-0.32091102 0.0024960865 -0.109586075 -0.020710135 0.17781404 -0.13110545 0.17330024 -0.14465918
-0.2522825 0.088425964 -0.20872465 -0.41195354 0.0065826895 -0.2844586 0.21099144 -0.07592002
0.011980712 0.09807536 -0.025699705 0.016070664 0.05005382 -0.13718787 0.1781263 -0.22784269
0.16770454 -0.27175158 0.01849851 0.011878401 0.12451064 -0.24663654 -0.22213808 -0.16793063
0.22881366 0.19518952 0.12715912 -0.020335434 0.08216169 -0.16663115 0.081147134 -0.047092643
0.36208564 0.12828602 -0.12489369 0.13122407 -0.018666115 0.07726747 -0.12120795 0.309589
-0.12153586 -0.08081409 0.07923049 -0.06628136 -0.073661216 -0.12869021 0.19465756 -0.110638924
-0.060794204 -0.24579771 -0.085092634 -0.035773262 -0.08669333 0.18084367 0.231807 -0.04258854
-0.043241024 -0.12153755 0.30785397 0.3478362 -0.02581834 0.099564046 0.049484856 -0.22384968
0.00020858485 0.07205771 -0.058926117 0.18168947 0.20294487 0.125276 -0.041799515 0.11999747
0.12979949 0.08421787 -0.15530959 0.22599241 0.033912335 0.1208864 0.2080093 0.09522954
-0.22037016 0.0016884465 0.1840477 -0.015281493 0.021945164 -0.031298213 0.13706109 0.19946186
0.007618615 0.01611954 -0.006041728 -0.03199926 -0.021667022 -0.10132831 -0.028481126 0.15413226
-0.22384676 -0.14272748 0.22132564 0.17963862 0.0713689 -0.13752681 -0.111707866 -0.18762429
-0.09657607 -0.13165255 -0.120437145 0.24265243 0.06730047 0.062485382 0.07707938 0.11189345
0.070872135 0.1559456 0.17936565 -0.26798466 0.37128028 0.13904461 -0.12044233 0.01075932
0.19370644 0.15819481 0.04623293 -0.054901533 0.001983392 0.119386695 -0.09555844 0.053470977
0.037516326 -0.114418924 0.038153313 -0.2259805 0.06540767 -0.16433571 -0.17918846 -0.18411593

fc2.bias f4 [12]
00000000: 0164 343d 0568 8abe 6d80 b23e 789a ee3d
00000010: 03a2 74bd 940b 2e3e ad41 1ebe 4d32 28bd
00000020: b907 3abe b3f5 7cbe 39d8 753e 3fe8 8d3e
0.044040684 -0.27032486 0.34863606 0.11650556 -0.05972482 0.16996604 -0.15454741 -0.041063596
-0.18167008 -0.24703102 0.24008264 0.27716252

fc3.weight f4 [10, 12]
00000000: d487 54bc 1a69 283c 6f43 ec3d b113 d5be
00000010: 4343 a13c eef7 513e 356a 333d 60fb 80bd
00000020: 061d 2b3e 2b0c 98bc b1ee 903e 2884 8a3e
00000030: 06fa 3ebe c55b 423e 577b 053e 42b2 9cbe
00000040: 6fe1 c3bd 77c0 493d 0cc4 55be b928 663e
00000050: bd1c fb3c c165 853e 915c 1b3e 50bb 333e
00000060: 5716 31bd 5729 90bc 1a4d 8fbd 78e8 9abe
00000070: 5192 dabd c9b6 613e f2f3 b8bd 6ec2 433e
00000080: 4903 d3bd a77a cebd d642 853d cbe7 0fbe
00000090: 69c5 01be a723 efbd 7684 bebd 5d6b b1be
000000a0: 0398 eabd a197 723e 68b0 d3b9 48e2 e73d
000000b0: 8dfb 433e 6d17 14be f99c 553d efc0 4bbe
000000c0: 49a1 663b d003 473e 624e a53e 226b 00bf
000000d0: b9d3 79be 15f2 0bbd 8e89 713e 1143 a0bd
000000e0: 755a 833e 8e77 303e ef75 e53d 7962 c0be
000000f0: 08d2 97be 46b4 d73d d43d ecbc 8103 90be
00000100: e20a 1a3e 56f4 7b3e 8e73 dc3d a075 1abd
00000110: b8eb 223e be9e 843d 3cc7 933d 7aa8 69bd
00000120: 021f 2fbe 1daf 2bbe 12b9 b23d 8556 9abe
00000130: 3b74 36be a0a8 a93e 310f 06be 8723 48bd
00000140: ba52 52be 6fcc 9ebd 206e 9bbd d196 2a3e
00000150: 90b2 9ebd 5940 2e3c fde0 2dbd 304a d0be
00000160: ddaf 923e ee3f 583e 5fc2 433e c921 d93d
00000170: 7f2f dbbd cdfc ecbd 6121 763e 0c59 59bd
00000180: 922e a8bd 7ef2 afbd 6fe5 4c3e 4df1 a5be
00000190: 6b1d f33d 6390 273e 0d61 0abe 3b57 9a3d
000001a0: d220 413e 464c 2b3e 47fe 1c3c 022d cb3d
000001b0: fb14 bf3d 7783 2ebe e985 4a3e 41d0 0dbf
000001c0: 033d 92be b59a 513d ba69 54be e09d ba3d
000001d0: 8fdf 3ebe f0f7 6f3e b2d9 ee3d c254 f7bd
-0.012971837 0.010278964 0.115362994 -0.41616586 0.019685393 0.20504734 0.04380246 -0.06297946
0.1671029 -0.01856049 0.28307107 0.27053952 -0.18650064 0.1898032 0.13035332 -0.3060475
-0.095644824 0.049255814 -0.20875567 0.22476472 0.030653352 0.26054195 0.1517203 0.17551923
-0.043234196 -0.017597837 -0.06997128 -0.30255485 -0.10672439 0.22042383 -0.09030904 0.19117138
-0.10303361 -0.10081988 0.065068886 -0.14053266 -0.12672962 -0.11676722 -0.09302609 -0.34652224
-0.11454775 0.23690654 -0.0004037649 0.113224566 0.19138928 -0.14462061 0.052151654 -0.19897817
0.0035191348 0.19435048 0.32286364 -0.5016347 -0.24397172 -0.034166414 0.23587629 -0.07825292
0.2565495 0.17233106 0.11204135 -0.3757513 -0.2965243 0.10532431 -0.028838076 -0.28127673
0.15043214 0.24604926 0.10764228 -0.037709832 0.15910232 0.0647559 0.07215735 -0.057045437
-0.17101672 -0.16766019 0.087267056 -0.30144134 -0.17817776 0.33136463 -0.13091733 -0.048862007
-0.2053937 -0.07753836 -0.07589364 0.16659094 -0.07748902 0.010635459 -0.042450894 -0.406816
0.28649798 0.21118137 0.19117115 0.10602147 -0.107024185 -0.115716554 0.2403617 -0.053063437
-0.082120076 -0.085911736 0.20009397 -0.3241066 0.118708454 0.16363673 -0.13513584 0.07536169
0.18860176 0.16728315 0.009582109 0.09920694 0.093301736 -0.17042337 0.19777645 -0.55395895
-0.28562173 0.05117293 -0.20743456 0.091121435 -0.18639968 0.23434424 0.11662616 -0.12076713

fc3.bias f4 [10]
00000000: aba4 07be c1ea 223c 3881 843e 2b61 ab3e
00000010: 2d4a 503c 2c90 743e 94d2 bf3d 8860 393e
00000020: afde 72bd 383d ae3d
-0.1324641 0.009943665 0.25879836 0.3347257 0.012712997 0.23883122 0.093663365 0.1810323
-0.0592944 0.0850777
