0.5_10_0.1_False.pth (torch, 5026 bytes, 6 tensors)

fc1.weight f4 [16, 16]
-0.24900931 0.09023172 0.06554034 -0.183444 -0.12760252 0.11272478 -0.014465183 -0.00806278
-0.104518354 -0.24163672 -0.02826482 -0.10332349 0.127698 -0.043269843 0.20329824 -0.11457223
0.065843046 0.22957495 -0.0070228875 -0.17957309 -0.19629166 0.075241804 -0.06907755 -0.037210613
-0.022979826 -0.09473577 -0.2291311 -0.23011675 0.13868299 -0.21167508 0.09512496 -0.11730704
-0.27507433 -0.014805889 -0.34323436 -0.2635996 -0.2651849 0.030715413 -0.019659933 -0.095652014
-0.24177676 0.31510708 0.20135671 0.10763939 -0.07010909 0.1688443 -0.12532113 0.046846148
-0.022382349 -0.37343246 -0.16181445 -0.23654792 -0.02250314 -0.23031989 -0.13679498 0.07176879
0.0044238064 -0.092105 0.21802989 -0.19757684 0.0906414 -0.10245622 -0.14578977 0.34111002
-0.056313187 -0.1776729 0.006273061 0.20237967 0.121147275 0.108183175 -0.14127266 -0.2486201
0.028849721 -0.17884481 -0.1892227 -0.1206018 -0.21435648 0.016524345 0.21608868 -0.24062622
0.29719475 0.00306314 0.0030700625 -0.17609322 -0.09360523 -0.08962832 -0.065404534 0.06270092
-0.18835033 0.056216206 0.14000012 -0.10777849 0.050518606 0.07403987 -0.045309182 0.11512013
0.22578087 -0.19608024 -0.19369557 0.0955812 -0.10651305 -0.043933183 -0.10388279 -0.12506664
-0.15343982 -0.12696591 -0.042372942 0.044594884 -0.04782182 -0.21968597 0.089558035 0.24837032
-0.0454885 0.23863336 0.09623857 0.15427448 -0.017656472 0.018585531 0.19085716 0.023893505
-0.12148321 -0.09175277 0.05359089 -0.066753104 0.13170937 0.14623922 0.30167392 -0.08632567
-0.22096574 0.09466581 -0.2104724 -0.25311828 0.028265383 0.13503785 -0.22399835 -0.11721071
-0.12861413 -0.10890293 0.027202241 0.050226822 0.14651565 -0.20188485 0.019153392 0.10659888
-0.23704933 0.015457452 -0.027014483 -0.09163733 -0.033833053 -0.17763224 -0.1061749 0.007386243
-0.018602293 -0.013924044 -0.1440183 0.04571293 0.11878732 0.07542571 0.24912588 0.054919254
0.08479544 -0.22984913 0.046993967 -0.07731999 -0.2759842 -0.23820993 -0.18931375 0.04036235
-0.02397863 0.12379123 -0.19220142 0.12216557 0.13408345 0.27432224 -0.08837054 -0.15966201
-0.01856549 0.26291224 0.10709731 0.2581167 0.1254209 -0.039504457 -0.082866 0.19676243
0.21834244 -0.24288644 -0.051924337 -0.018023578 -0.044454932 0.0071704527 0.1474648 -0.064496644
0.09376584 -0.12857597 -0.013349456 0.060051903 0.0916642 -0.107704684 -0.115078986 0.12684807
0.14504948 -0.042649314 -0.17722017 0.15942249 0.09825872 -0.06237502 0.059492204 0.23180188
0.18830673 0.19414407 0.21039218 0.2077636 0.22476614 0.10991399 0.2539197 -0.06863533
0.2532218 -0.24052161 -0.09008922 -0.16816747 -0.027202616 0.040819492 -0.045596406 0.17832072
0.26410678 0.32215232 0.18457375 0.27911592 0.3149653 0.32546216 0.3111735 0.24803597
0.2811824 -0.12546933 -0.13267598 -0.1791707 -0.039429057 0.078935444 0.082495004 0.065893516
0.10127043 -0.32656917 0.20044565 -0.22263344 -0.04156279 -0.17297073 -0.029983291 -0.27949893
0.2952162 -0.10955623 -0.02884019 0.110461935 0.06674843 -0.09148312 -0.036798887 -0.030937001
00000000: 4cfc 7ebe 68cb b83d 043a 863d bed8 3bbe
00000010: 3caa 02be 40dc e63d 60ff 6cbc c019 04bc
00000020: b80d d6bd 9e6f 77be a08b e7bc 449b d3bd
00000030: 44c3 023e b83b 31bd 6a2d 503e d8a4 eabd
00000040: b8d8 863d b215 6b3e 4020 e6bb 02e2 37be
00000050: ae00 49be 6018 9a3d 8878 8dbd 286a 18bd
00000060: 3040 bcbc d404 c2bd 58a1 6abe baa3 6bbe
00000070: ea02 0e3e 5ac1 58be e0d0 c23d ac3e f0bd
00000080: 8bd6 8cbe 6694 72bc 6abc afbe 87f6 86be
00000090: 51c6 87be e49e fb3c de0d a1bc 34e5 c3bd
000000a0: 5494 77be b755 a13e 7430 4e3e 0a72 dc3d
000000b0: 5b95 8fbd 85e5 2c3e 2f54 00be bfe1 3f3d
000000c0: 305b b7bc 8a32 bfbe b0b2 25be 9e39 72be
000000d0: 8158 b8bc fad8 6bbe fc13 0cbe 84fb 923d
000000e0: 94f5 903b 8ca1 bcbd 3a43 5f3e 9551 4abe
000000f0: 33a2 b93d 91d4 d1bd ea49 15be f9a5 ae3e
00000100: a8a8 66bd e2ef 35be 408e cd3b 9e3c 4f3e
00000110: 101c f83d 248f dd3d c8a9 10be 4496 7ebe
00000120: 4056 ec3c 1823 37be 98c3 41be 14fe f6bd
00000130: 4480 5bbe 105e 873c 5a46 5d3e b866 76be
00000140: e929 983e f6be 483b 1a33 493b c851 34be
00000150: 19b4 bfbd 0d8f b7bd d0f2 85bd 5769 803d
00000160: e9de 40be f742 663d 315c 0f3e f8ba dcbd
00000170: 99ec 4e3d 37a2 973d 1f96 39bd 1ac4 eb3d
00000180: 1a33 673e 42c9 48be 2258 46be 14c0 c33d
00000190: 8423 dabd 48f3 33bd 80c0 d4bd 7811 00be
000001a0: 541f 1dbe 5a03 02be 408f 2dbd 20a9 363d
000001b0: d0e0 43bd 5cf5 60be 346a b73d ca54 7e3e
000001c0: 2652 3abd 4e5c 743e ba18 c53d 21fa 1d3e
000001d0: 4ea4 90bc af40 983c 0f70 433e 50bc c33c
000001e0: 30cc f8bd e0e8 bbbd 1f82 5b3d dab5 88bd
000001f0: d2de 063e bcbf 153e 0175 9a3e 83cb b0bd
00000200: d844 62be 26e0 c13d 1486 57be b898 81be
00000210: ce8c e73c 5d47 0a3e d35f 65be 2b0c f0bd
00000220: 6cb3 03be 8008 dfbd 3cd7 de3c a4ba 4d3d
00000230: 3308 163e e7ba 4ebe 93e7 9c3c 8350 da3d
00000240: 0fbd 72be 4141 7d3c 7a4d ddbc 5aac bbbd
00000250: 8794 0abd 3ae5 35be 3a72 d9bd 4c08 f23b
00000260: d663 98bc ac21 64bc 8979 13be 7b3d 3b3d
00000270: c446 f33d cb78 9a3d db1a 7f3e 03f3 603d
00000280: 3ba9 ad3d 925d 6bbe bf7c 403d f159 9ebd
00000290: cd4d 8dbe 4eed 73be 77db 41be fe52 253d
000002a0: d56e c4bc 4286 fd3d 73d0 44be f131 fa3d
000002b0: 2c4d 093e f773 8c3e 9dfb b4bd 707e 23be
000002c0: a816 98bc 6f9c 863e d655 db3d df27 843e
000002d0: 566e 003e 6dcf 21bd a6b5 a9bd 177c 493e
000002e0: 2995 5f3e 39b7 78be 9dae 54bd 2fa6 93bc
000002f0: 6016 36bd 1ef6 ea3b 0301 173e d116 84bd
00000300: 4e08 c03d 6ba9 03be adb7 5abc fcf8 753d
00000310: 71ba bb3d 4694 dcbd 88ae ebbd 76e4 013e
00000320: da87 143e 0cb1 2ebd 3479 35be a63f 233e
00000330: de3b c93d f37c 7fbd 19ae 733d 795d 6d3e
00000340: 7bd3 403e b4cd 463e 0c71 573e fbbf 543e
00000350: 1829 663e 961a e13d c301 823e ae90 8cbd
00000360: 4aa6 813e 4c4b 76be b280 b8bd 1834 2cbe
00000370: 05d8 debc 5732 273d 4cc3 3abd b599 363e
00000380: 0139 873e 26f1 a43e e700 3d3e 48e8 8e3e
00000390: 2243 a13e faa2 a63e 2252 9f3e 24fd 7d3e
000003a0: 24f7 8f3e 087b 00be 36dc 07be 8678 37be
000003b0: 5d80 21bd e8a8 a13d 24f3 a83d 2ef3 863d
000003c0: df66 cf3d 1334 a7be a041 4d3e 05fa 63be
000003d0: be3d 2abd 3d1f 31be 859f f5bc 7c1a 8fbe
000003e0: 9426 973e 045f e0bd 4342 ecbc de39 e23d
000003f0: 67b3 883d 815b bbbd 6eba 16bd 986f fdbc

fc1.bias f4 [16]
-0.09363952 0.12910503 0.03886551 0.04146167 0.19339845 -0.25442377 -0.17813691 -0.18847983
-0.15653005 0.31172547 0.09658234 0.010360407 0.047870066 -0.009883646 -0.2557967 0.028951176
00000000: 14c6 bfbd 1c34 043e 7131 1f3d b6d3 293d
00000010: 3e0a 463e d543 82be 8669 36be db00 41be
00000020: 6a49 20be 7b9a 9f3e f6cc c53d b2be 293c
00000030: 6713 443d 04ef 21bc c9f7 82be 042b ed3c

fc2.weight f4 [12, 16]
-0.08614442 0.077086836 0.17864908 0.11524416 -0.05829248 0.11572844 -0.034597665 -0.052321877
-0.07791841 0.15267983 -0.20701405 0.09958079 0.109980464 0.086868085 -0.053607695 0.11579854
0.24723613 0.009306788 -0.2052622 0.10884431 0.005943686 0.20727658 -0.15474513 -0.20386638
-0.18065053 -0.01265869 0.059862614 0.04210321 -0.07342133 -0.05050804 -0.07985974 0.17558888
-0.061400414 -0.15208703 -0.018511286 0.113884166 0.09356427 0.08508776 0.020335138 -0.14870235
0.08686391 -0.040613852 -0.010153103 -0.096443094 -0.20327851 -0.118678756 0.013480852 -0.23626478
-0.22234195 0.18977726 -0.05083297 -0.12748463 -0.15326628 -0.16745412 0.2183125 -0.067913115
0.15811706 0.15168469 -0.072995834 -0.050063256 -0.0024034383 0.07060345 -0.1314777 0.16189139
-0.09390637 -0.24989751 -0.13047226 0.070653975 -0.24596882 -0.02048299 -0.14782098 -0.050092954
0.22081374 0.17764169 -0.21901353 -0.30936605 -0.39725214 -0.20909481 0.0137463 0.09306241
0.23190969 0.16758463 -0.07596886 -0.024685731 -0.032652497 0.04797178 0.19115219 0.076625854
0.10903661 0.014231246 -0.14019395 -0.11588399 0.095710635 -0.29102296 0.3726811 -0.10708158
-0.23929423 0.050165802 -0.1737053 0.2370333 0.17219633 0.13480529 0.22891644 -0.07611196
0.049106967 -0.13247062 0.022858858 -0.2504153 -0.1422996 -0.22224753 -0.1727884 0.13243786
-0.17759693 0.048185796 -0.011318613 0.0014578538 -0.13489333 -0.24350002 -0.21763203 -0.070529826
-0.051431995 0.21426226 -0.2596645 -0.22091627 -0.0010098997 -0.11973062 -0.13257404 0.20309353
0.072341144 -0.22635514 0.19381765 0.18730092 0.18346125 0.007955406 -0.07531196 -0.044053994
-0.05878864 0.22362012 -0.002772486 -0.30917293 0.25734422 -0.21076436 -0.6247933 0.060230326
-0.03660679 -0.040201128 0.12753727 0.25495785 0.24369264 -0.0992034 -0.22823474 0.0543836
-0.08669677 0.05774288 -0.12103691 0.17167857 0.03528713 0.06261104 -0.12663177 0.3412916
-0.21602005 -0.06335178 -0.16561352 -0.3693558 0.15523827 0.17506611 -0.16397732 -0.21084592
-0.042311415 0.10120291 0.13646933 0.18639623 0.22399285 -0.17346558 -0.17301296 -0.008023489
-0.0560925 0.12783128 0.15896599 0.06523915 -0.073316574 -0.10140096 0.2378495 0.000274052
-0.17429571 0.16730079 -0.017811896 0.14213306 0.14156307 -0.2384494 -0.2856976 0.2050661
00000000: 7c6c b0bd b4df 9d3d c9ef 363e 2105 ec3d
00000010: 18c4 6ebd 0803 ed3d 48b6 0dbd 774f 56bd
00000020: b093 9fbd 1a58 1c3e 7efb 53be 03f1 cb3d
00000030: 703d e13d e5e7 b13d be93 5bbd c927 ed3d
00000040: 782b 7d3e 807b 183c 4130 52be c4e9 de3d
00000050: 40c3 c23b 5040 543e 8275 1ebe 59c2 50be
00000060: 74fc 38be 6566 4fbc 8032 753d 6a74 2c3d
00000070: ec5d 96bd 85e1 4ebd 818d a3bd 92cd 333e
00000080: 007f 7bbd b4bc 1bbe fba4 97bc 1a3c e93d
00000090: a09e bf3d 7e42 ae3d e095 a63c 6e45 18be
000000a0: b5e5 b13d b65a 26bd 3359 26bc f583 c5bd
000000b0: 3e28 50be d90d f3bd cbde 5c3c 65ef 71be
000000c0: 9cad 63be f854 423e 3b36 50bd 558b 02be
000000d0: d6f1 1cbe 1879 2bbe 508d 5f3e 0816 8bbd
000000e0: 70e9 213e 3b53 1b3e d77e 95bd 210f 4dbd
000000f0: 0183 1dbb 8b98 903d 17a2 06be dbc6 253e
00000100: fc51 c0bd 22e5 7fbe 859a 05be 08b3 903d
00000110: 40df 7bbe f2cb a7bc 625e 17be 452e 4dbd
00000120: ff1c 623e b4e7 353e 1545 60be 3a65 9ebe
00000130: a264 cbbe f31c 56be 2938 613c 8197 be3d
00000140: bc79 6d3e 4e9b 2b3e 9095 9bbd bb39 cabc
00000150: a0be 05bd 0f7e 443d 66bd 433e 04ee 9c3d
00000160: 964e df3d 2c2a 693c 018f 0fbe 9654 edbd
00000170: f003 c43d f600 95be 0fd0 be3e 964d dbbd
00000180: 8c09 75be a87a 4d3d cddf 31be dbb8 723e
00000190: 3c54 303e 660a 0a3e 1269 6a3e 96e0 9bbd
000001a0: 6324 493d 61a6 07be 8042 bb3c 6f36 80be
000001b0: fdb6 11be db94 63be 71ef 30be ca9d 073e
000001c0: f8db 35be 785e 453d b471 39bc 7515 bf3a
000001d0: 7a21 0abe 1258 79be eeda 5ebe f171 90bd
000001e0: 5baa 52bd 9167 5b3e bff2 84be e037 62be
000001f0: 9c5e 84ba 5435 f5bd 7dc1 07be c0f7 4f3e
00000200: 9827 943d a4c9 67be 2278 463e d0cb 3f3e
00000210: 44dd 3b3e 6457 023c 283d 9abd f671 34bd
00000220: 5bcc 70bd acfc 643e 99b2 35bb ea4b 9ebe
00000230: 9fc2 833e 9dd2 57be 74f2 1fbf 13b4 763d
00000240: 00f1 15bd f0a9 24bd 2199 023e d689 823e
00000250: 908a 793e 272b cbbd 5eb6 69be 56c1 5e3d
00000260: 138e b1bd cc83 6c3d 33e2 f7bd 82cc 2f3e
00000270: 3d89 103d 383a 803d c2ab 01be c6bd ae3e
00000280: 5c34 5dbe 94be 81bd 9796 29be 341c bdbe
00000290: c8f6 1e3e 8844 333e ace9 27be fee7 57be
000002a0: bc4e 2dbd 7943 cf3d 9ebe 0b3e a7de 3e3e
000002b0: 625e 653e f6a0 31be 4f2a 31be f474 03bc
000002c0: 40c1 65bd 34e6 023e fbc7 223e 1a9c 853d
000002d0: 0027 96bd 4eab cfbd d28e 733e a3ae 8f39
000002e0: 937a 32be e650 2b3e 41ea 91bc 548b 113e
000002f0: e9f5 103e 142c 74be f546 92be d9fc 513e

fc2.bias f4 [12]
0.17478022 -0.09896482 -0.14799236 -0.09815453 0.038121976 0.04641379 0.10149949 0.120815195
0.40669253 0.3393641 -0.11717582 0.04736394
00000000: 96f9 323e 11ae cabd 4f8b 17be 3e05 c9bd
00000010: ca25 1c3d 631c 3e3d f7de cf3d f56d f73d
00000020: 013a d03e 22c1 ad3e e0f9 efbd b100 423d

fc3.weight f4 [10, 12]
0.3060425 0.04249895 0.23628095 0.05929226 0.27510563 -0.28743303 0.17590259 -0.18803416
0.34292135 -0.09547175 0.21601358 -0.09375021 0.14982922 0.22339429 0.021127429 -0.048430443
0.10661142 -0.4239998 -0.15242925 -0.051812313 0.057187673 0.067375824 -0.30574563 0.28596714
0.16703099 -0.2690254 0.22995776 -0.08104286 -0.07470299 -0.2066454 0.37335637 0.26633808
0.079112165 -0.014529506 0.058048505 0.37124422 -0.00776211 0.20409127 0.02442356 -0.21665162
-0.0014525665 -0.25925416 0.03139893 0.29344183 0.27373514 0.21707602 -0.02990811 0.119290434
0.029238895 -0.06947562 0.25656587 -0.22303718 -0.042297915 -0.22465636 -0.150728 -0.035405256
0.3408824 0.23425242 -0.15578651 -0.12400864 -0.10162581 -0.193571 -0.3822602 0.25190848
-0.06894795 -0.0816814 -0.07237766 0.18915294 0.2723732 0.34027153 -0.001973444 0.039357785
0.2761399 -0.17265143 0.00051298336 -0.02048596 -0.104624085 -0.30109194 0.25206083 0.21677789
0.16445662 -0.05902958 -0.45888457 0.2972005 0.10745206 -0.33257532 -0.14269975 -0.116269
0.2730953 -0.22585686 -0.08441134 0.041283827 0.29909647 0.19635274 -0.19238982 -0.02662636
-0.059062466 -0.059159588 0.13775706 0.19144714 0.18057933 -0.1540657 -0.07055129 0.2340443
0.2791746 0.07116271 0.15775993 0.30292803 -0.02335362 0.036186952 -0.19271675 0.045829315
-0.06908847 -0.13157329 0.14798966 0.21544263 0.27467144 0.2781676 -0.0925857 0.14415923
00000000: 9ab1 9c3e 6113 2e3d a2f3 713e 71dc 723d
00000010: a5da 8c3e 6c2a 93be cf1f 343e 078c 40be
00000020: 6393 af3e b186 c3bd aa32 5d3e 1c00 c0bd
00000030: d56c 193e 79c1 643e 6e13 ad3c 005f 46bd
00000040: 1757 da3d 8016 d9be 6a16 1cbe 2639 54bd
00000050: 9f3d 6a3d 56fc 893d b18a 9cbe 496a 923e
00000060: 2c0a 2b3e b2bd 89be 0c7a 6b3e cdf9 a5bd
00000070: e2fd 98bd da9a 53be 9128 bf3e 775d 883e
00000080: 8f05 a23d 2a0d 6ebc 45c4 6d3d b913 be3e
00000090: 4c59 febb 4dfd 503e eb13 c83c ecd9 5dbe
000000a0: 0b64 beba f6bc 84be 2a9c 003d 023e 963e
000000b0: 0327 8c3e 2d49 5e3e da01 f5bc 8b4e f43d
000000c0: 6886 ef3c 3c49 8ebd 9a5c 833e dc63 64be
000000d0: 9440 2dbd 510c 66be 7158 1abe 1a05 11bd
000000e0: 2388 ae3e dedf 6f3e 8086 1fbe 3ef8 fdbd
000000f0: 3121 d0bd 7a37 46be 9cb7 c3be 26fa 803e
00000100: 9534 8dbd 9448 a7bd bd3a 94bd 4fb1 413e
00000110: 8074 8b3e 1238 ae3e e554 01bb a135 213d
00000120: 3562 8d3e 89cb 30be bb79 063a 2cd2 a7bc
00000130: 2745 d6bd b928 9abe 1e0e 813e 06fb 5d3e
00000140: 5167 283e 00c9 71bd ebf2 eabe aa2a 983e
00000150: d30f dc3d 5047 aabe e21f 12be 711e eebd
00000160: 26d3 8b3e 0547 67be dadf acbd 3b19 293d
00000170: 2c23 993e b110 493e d601 45be 861f dabc
00000180: 7ceb 71bd 5351 72bd 3010 0d3e b80a 443e
00000190: cae9 383e 66c3 1dbe 327d 90bd 4fa9 6f3e
000001a0: f9ef 8e3e c1bd 913d d28b 213e 6219 9b3e
000001b0: 1750 bfbc c538 143d 8a57 45be 85b7 3b3d
000001c0: 417e 8dbd 26bb 06be 9a8a 173e fe9c 5c3e
000001d0: bca1 8c3e fc6b 8e3e 929d bdbd 7a9e 133e

fc3.bias f4 [10]
0.15516262 0.2784376 0.15766636 0.18317117 0.13290101 0.10115926 0.17704786 0.12679717
0.19267657 0.05257661
00000000: f3e2 1e3e 608f 8e3e 4a73 213e 3991 3b3e
00000010: 3417 083e 962c cf3d 094c 353e 1ed7 013e
00000020: 024d 453e 925a 573d
