dqn_aggressive.pth (torch, 5006 bytes, 6 tensors)

fc1.weight f4 [16, 16]
000000 97 67 a2 be ed 9b 0e bf 2a 47 40 be 56 34 5b be
       -0.31719658 -0.55706674 -0.18777147 -0.21406683
000010 10 95 ad be 05 31 4c be 2a 3d 69 3b f1 04 dc bd
       -0.33902788 -0.19940574 0.0035589435 -0.1074313
000020 1e d1 8f be d0 0e bf 3e 6c 3c 81 3d 68 33 85 bd
       -0.2808923 0.3731599 0.06310353 -0.065039456
000030 52 8f a2 3c fb d4 e2 bd 4f 93 80 bc 68 7d c9 bd
       0.019843731 -0.11075779 -0.015695242 -0.098383725
000040 d6 14 07 be 9c e5 d6 3c d8 d2 97 bb 8f 80 c1 be
       -0.13191542 0.026232533 -0.004633289 -0.37793395
000050 6d 04 9c 3e d5 a0 b4 be 1b 3a f0 3d 88 8b e4 be
       0.30472127 -0.35278955 0.11729833 -0.44637704
000060 2f ad e9 3c b2 02 0c 3d 22 2e c6 bd 3e 10 22 3e
       0.028524963 0.034182258 -0.09676768 0.15826508
000070 40 bc fe bb 0b 1d 3e bd 08 44 dc 3c fa 86 17 3e
       -0.007773906 -0.046414416 0.026887909 0.14797583
000080 ce 6d 2b 3d 6d 45 c6 bd cd 88 42 be 14 3f 21 be
       0.041852765 -0.09681211 -0.18997498 -0.15746719
000090 60 d7 95 be 53 08 79 be e0 85 e0 be 4b 92 0e be
       -0.2926588 -0.24319582 -0.4385214 -0.13922994
0000a0 50 5f 87 be 44 fb 1b bb e9 2e a4 3e 9b ec 2d 3d
       -0.26439905 -0.002380089 0.3206704 0.042461973
0000b0 22 dd 18 bc a5 32 22 3e f7 75 3f be 4d 38 2c 3e
       -0.009330066 0.15839632 -0.18697344 0.16818352
0000c0 c1 e9 19 bf ae f3 90 be 8f 6d 25 be 3b 6a 9e be
       -0.60122305 -0.28310913 -0.16155075 -0.30940422
0000d0 da a3 5a be 30 98 6b be b3 54 98 be ad 27 81 be
       -0.21351567 -0.23007274 -0.2975212 -0.25225583
0000e0 11 21 7c be 4c c3 a8 3e 63 89 57 3e a8 b0 92 3e
       -0.24621989 0.329615 0.21048503 0.28650403
0000f0 88 3d 86 3e 50 61 ac 3d d2 1f 83 3c 06 c5 86 bd
       0.2621882 0.084169984 0.016006384 -0.06580548
000100 fa bf 5c 3e 34 f1 96 bd 5a 57 6c be f8 51 61 3d
       0.21557608 -0.073702246 -0.23080197 0.055009812
000110 24 f8 88 bd 50 5c 05 3e 38 df 71 bd 54 cd db bd
       -0.06687954 0.13023496 -0.05905077 -0.107325226
000120 e8 39 ee 3d d8 eb 2c bd 80 11 09 3c 0c 3a b7 bd
       0.116321385 -0.042217106 0.008365989 -0.089466184
000130 c8 fe 4c 3d 44 c8 cd bd 74 b5 71 3e b8 15 2c be
       0.050047666 -0.10047963 0.23604375 -0.1680516
000140 58 5a 57 3e 57 31 8b 3e 49 40 20 3e 34 04 a5 3e
       0.21030557 0.2718608 0.15649523 0.3222977
000150 0f b8 c3 3e 98 82 6f 3e a1 44 6b 3e a3 18 40 3d
       0.38226363 0.23389661 0.22975399 0.046898495
000160 98 34 b5 bd 11 9b 55 39 e8 f2 a6 be 88 10 4d bd
       -0.08847922 0.0002037103 -0.32607198 -0.050064594
000170 aa 04 08 be 97 9b a0 3d 0e d6 49 3e ee 27 cb 3e
       -0.13283029 0.078421764 0.19710562 0.396789
000180 f9 58 0f bd 1a a7 44 3e cc 29 a9 3e fb 6f 8e 3e
       -0.03499696 0.19204369 0.330397 0.2781981
000190 e5 de a7 3e d6 10 a6 3d 48 8b 91 3e 8f a6 67 3e
       0.32787243 0.0810868 0.28426576 0.22622131
0001a0 0d 8c 13 3e bf 35 4b 3d 02 25 31 bd 95 f6 a0 bd
       0.14408894 0.049611803 -0.043248184 -0.07859532
0001b0 76 92 26 3d 79 ce ad bc 5c 74 89 3e e5 56 06 3d
       0.04066702 -0.021216618 0.26846588 0.032797713
0001c0 99 ee 4c 3e 94 c5 39 bd 06 c1 b4 bd 03 c7 0a 3e
       0.20012893 -0.04535444 -0.08825879 0.1355248
0001d0 60 4a 40 be 2c ba 1b 3e af 3b cf 3d 7f 1e 80 be
       -0.18778372 0.15207738 0.101188056 -0.25023267
0001e0 71 ce 0d 3e 68 c3 35 3e eb a7 24 bd 88 b3 51 be
       0.13848282 0.17750323 -0.0401992 -0.20478642
0001f0 9b 20 95 3d 14 69 33 be 51 16 5b be 5f 9d 12 3e
       0.072816096 -0.17520553 -0.21395232 0.14317845
000200 4b 7b 2e be 21 40 e4 bd 44 21 0c 3e 11 47 bf 3c
       -0.1703922 -0.11145044 0.13684565 0.023349317
000210 79 eb 14 bf dc 35 bc be e9 42 4a be 7a a8 d6 bd
       -0.581718 -0.3675984 -0.19752087 -0.10481353
000220 38 22 3d be 9b 02 1e 3e d7 a2 0c be d0 fe d7 bd
       -0.18470085 0.15430681 -0.13733993 -0.105466485
000230 05 d7 a1 bd 55 af 73 be c6 0d c4 be 12 ea a1 bd
       -0.0790234 -0.23797353 -0.38291758 -0.079059735
000240 21 f5 b8 3e d6 04 65 3e 4f ce 62 3e 6c 7e 4a 3e
       0.3612452 0.22365126 0.22149013 0.19774789
000250 7f b7 aa 3e b3 27 1b 3d 38 a1 cd 3e 9a 65 0c bd
       0.3334312 0.037879657 0.40162063 -0.034276582
000260 e5 0a 1f 3b bb a7 82 3d 91 41 e7 bd aa 93 3f 3d
       0.0024267968 0.06379648 -0.11291803 0.046771683
000270 05 63 5e be b9 ff 8d 3d 64 ef 8f 3d c7 2a fd bc
       -0.2171746 0.06933541 0.07028082 -0.030904187
000280 96 a6 fe bd e2 5f e5 3d fe b0 7e 3d 4b 5d 98 be
       -0.124341175 0.11199929 0.06218051 -0.29758677
000290 8c f2 35 3d 87 5f 65 be d6 0c d7 3d a1 81 b7 3e
       0.044420764 -0.22399722 0.10500495 0.35841087
0002a0 73 8d c8 3d 1c 45 92 3d 92 75 44 3e 7f c8 5f bd
       0.09792604 0.07142088 0.19185475 -0.054634567
0002b0 a5 14 a3 bd 61 7a 48 bd 9d e9 78 3d 48 64 67 bd
       -0.07962922 -0.048944835 0.060769666 -0.05649212
0002c0 8a 6f 51 3d 2f d9 04 be 74 50 78 be b7 81 f0 be
       0.051131763 -0.12973474 -0.2424944 -0.46973965
0002d0 bf 21 8a be 26 99 08 bf 10 68 45 be 9a 60 88 3e
       -0.2697887 -0.53358686 -0.19277978 0.266362
0002e0 75 03 96 bd 2f e7 cd 3d db da ce 3d 72 6a 17 be
       -0.07324878 0.100538604 0.10100337 -0.147867
0002f0 fd d0 4d 3d 20 d7 ab 3d e1 49 45 3e 09 a2 b5 3c
       0.050248135 0.08390641 0.19266464 0.022171991
000300 d9 8d 47 be c4 32 98 be b7 4c f3 be 50 00 89 be
       -0.19487704 -0.2972623 -0.47519466 -0.2675805
000310 7e 96 96 3a 7e a1 9a be c3 81 05 be af cb 3a be
       0.0011488942 -0.30201334 -0.13037781 -0.18241762
000320 65 63 61 3e 45 1c ee bd fb ba 59 3e c2 58 7c 3e
       0.22010572 -0.11626486 0.21262734 0.24643233
000330 a6 87 9d 3c 18 d5 ee bc 5e 13 70 be 6f 91 ce 3d
       0.019229721 -0.029154345 -0.23444888 0.10086333
000340 d6 ac 04 be 88 41 56 be 4a 81 20 be a0 4b ca 3d
       -0.12956557 -0.20923436 -0.1567432 0.098777056
000350 a0 fd 6a 3c 36 84 2b be 00 55 bb bb 24 6a 1f be
       0.0143426955 -0.16749653 -0.00571692 -0.15567833
000360 44 24 e3 bd ca 98 4f be 3a aa 29 be 4c a5 d7 bd
       -0.110909015 -0.20273128 -0.16568843 -0.10529575
000370 70 f0 33 3d d4 f7 05 be 22 ce 78 3e 16 85 62 be
       0.04393047 -0.1308282 0.24297383 -0.22121081
000380 62 e8 8c be 7a 15 1d 3e d9 b4 d6 bc ca 99 b9 3d
       -0.27521044 0.15340224 -0.026209282 0.09062536
000390 1b 26 fc bd 85 10 87 3c 8b 05 b8 3d 93 91 68 bd
       -0.123119555 0.01648737 0.08985432 -0.056779455
0003a0 66 fd 86 be 98 d9 05 be 64 a9 e6 bd ba b1 f6 3d
       -0.26365203 -0.13071287 -0.112627774 0.120456174
0003b0 58 ef 43 3d 78 90 35 3e 40 82 96 3d 51 ae 87 be
       0.047835678 0.17730892 0.07349062 -0.2650018
0003c0 80 90 59 3e 94 d7 8e 3e 1a 2d 29 3e 9f 07 50 3e
       0.21246529 0.27898848 0.16521111 0.20315407
0003d0 20 ec 7b 3d fe c9 c2 3e 97 d3 40 3e 6b ef 93 3e
       0.061504483 0.38044733 0.18830715 0.288936
0003e0 9a a9 07 be a9 3a 5b 3b ac c8 dd 3d 70 b1 0c bd
       -0.13248292 0.0033451712 0.10829291 -0.034348905
0003f0 88 03 5b bd d8 9c 0b bd 6e 65 69 be cb 9b b5 3d
       -0.053470165 -0.034085125 -0.22792599 0.08867606

fc1.bias f4 [16]
000000 14 31 18 3e 67 56 2a bb 82 53 01 3e 85 34 94 be
       0.14862472 -0.0025991441 0.12629512 -0.2894632
000010 b4 a4 94 bd db c7 9d 3c 62 2a 81 3d 84 8a 81 3e
       -0.07257977 0.019260338 0.06306912 0.25300992
000020 06 b9 cf bd 3f 3a 19 be 4a 4a 89 be f0 91 7c bd
       -0.10142712 -0.14963625 -0.2681449 -0.061662614
000030 0e 92 5a bd 74 61 5d 3e 7e 74 97 3c c8 99 42 be
       -0.053361945 0.21619207 0.018488165 -0.19003975

fc2.weight f4 [12, 16]
000000 ac 16 b5 3d 01 8f d4 3d df da df bd 66 f2 19 bc
       0.08842215 0.10378838 -0.10930418 -0.009396171
000010 36 87 0d 3e 5e e1 58 3e 45 9f 26 3e 39 f5 ba 3e
       0.1382111 0.21179721 0.16271694 0.36515215
000020 e1 96 a5 be b2 d6 48 3d b3 df bb bc 0e ff 76 3e
       -0.32341674 0.049032874 -0.022933817 0.24120733
000030 7a ef 47 3e 74 3a 1a 3e 8e f9 7f bc 25 2f c2 3d
       0.19524947 0.1506136 -0.015623463 0.09481648
000040 bb ef ef be 47 0c ac 3d b9 fd f5 be 09 36 31 be
       -0.46862587 0.08400779 -0.48045138 -0.17305769
000050 60 2b 22 be c5 32 e9 bd 4f d3 7c 3e 35 0c 33 bc
       -0.15836859 -0.11386637 0.24689983 -0.010928203
000060 5a 96 e0 bd 9a e1 1e bb b8 17 2a bd 3e 7d 5f bc
       -0.10966177 -0.0024243356 -0.041526526 -0.0136407
000070 23 00 83 bd e8 34 0c 3e b6 0b 8b 3e df 79 28 3e
       -0.063965105 0.13692057 0.27157372 0.1645274
000080 79 a3 a7 3e 4c f4 8c 3c 23 54 88 bd 70 bd 10 bd
       0.32741907 0.017206334 -0.06656673 -0.03533691
000090 80 43 a4 bc 19 c0 f7 bd b9 74 7a be 21 b3 b7 bd
       -0.020051718 -0.120971866 -0.24458589 -0.08969713
0000a0 8e bf 3c 3e 8b 12 af bd 34 20 29 3e 3b d3 bf bd
       0.18432447 -0.08548459 0.16516191 -0.09366461
0000b0 ab 86 83 3d 8e 70 11 be 8c 6a b3 3d 83 e9 52 3c
       0.0642217 -0.14203092 0.087605566 0.012873056
0000c0 ae b2 f6 3c 47 bc 37 3e 46 0f 87 3d db 87 1c 3c
       0.030114498 0.17942916 0.0659471 0.009553875
0000d0 8e d2 7d be b2 77 34 3e d2 0a 87 bd a6 9a 38 be
       -0.24787351 0.17623785 -0.06593861 -0.18027744
0000e0 43 54 0e 3c be eb fa bd a0 42 34 3e d7 53 50 be
       0.008687082 -0.122519955 0.1760354 -0.20344482
0000f0 58 49 13 be b0 7c 8c 3c 00 03 1c bd 0a 12 0b be
       -0.14383447 0.0171493 -0.0380888 -0.135811
000100 6e d0 ef bc c4 7b 2b 3f 21 46 47 be 26 4d 19 3e
       -0.029274192 0.66985726 -0.19460346 0.14970836
000110 00 ef 5a be 33 5e f1 be 52 9d 41 3e bd 36 4a 3c
       -0.21380234 -0.4714218 0.18907669 0.012342152
000120 d3 ba 18 3e fe 15 33 3e 78 58 81 be 36 59 9e be
       0.14915018 0.17488858 -0.2526281 -0.30927438
000130 7a 40 75 3d b8 d6 79 3d 10 28 87 3e 27 fe 98 be
       0.059875943 0.060995787 0.26397753 -0.29881403
000140 79 83 fd 3d e6 65 0d 3e 51 df b1 bd 82 ec d8 3d
       0.12378592 0.13808402 -0.08685172 0.10591985
000150 3a 90 62 3e 57 09 9d 3e 08 6d 0e bd 1b dd 09 bd
       0.2212533 0.30671188 -0.03477195 -0.03365813
000160 00 4a c5 3e 02 8d 9a bd 84 b2 68 3e ee e0 f6 3d
       0.3853302 -0.07546426 0.22724348 0.12054621
000170 69 d7 8f 3d a0 c5 68 bd 58 da 94 3d 5d 2c 82 3e
       0.07023508 -0.056829095 0.07268208 0.25424471
000180 f3 f1 13 be 7a 28 0e bc 96 89 b2 bd e1 37 19 be
       -0.14447765 -0.008676643 -0.08717649 -0.14962722
000190 30 ee d9 bc 27 87 fb bd 41 43 7e 3e e3 cf 5f 3d
       -0.026602834 -0.12281638 0.24830343 0.054641616
0001a0 f2 a2 50 be a8 c0 be 3c 0c 0a 1d be 3f d0 7e be
       -0.20374659 0.023285225 -0.15335864 -0.24884127
0001b0 02 55 6d 3e a0 49 e2 3d 85 d0 91 3d f0 14 1d be
       0.23176959 0.11049199 0.0711985 -0.15340018
0001c0 63 0b 34 bf 66 61 db bd 77 25 bf be 8d f7 e0 be
       -0.70329875 -0.10711937 -0.3733327 -0.43938866
0001d0 14 1b 40 be f7 d0 29 be c9 a6 87 3e cb 38 0b be
       -0.1876033 -0.1658362 0.26494434 -0.13595884
0001e0 35 b5 d9 be bf 95 b0 3e 8c 82 4e 3e 98 55 70 be
       -0.42521062 0.34489247 0.20166987 -0.23470151
0001f0 a5 45 b8 be 46 b4 3a 3e a5 82 04 3e 95 8d 86 3e
       -0.35990635 0.18232831 0.12940462 0.26279894
000200 18 a7 16 3e 5e 27 a2 3d f6 75 6f 3d ba 0d 94 3d
       0.14712179 0.07917665 0.058462106 0.07229181
000210 68 62 bb bd ac e9 f3 bd 4a 96 35 3e e1 ef c6 3d
       -0.09149629 -0.11909804 0.17733112 0.09713722
000220 24 50 ae 3e 32 ac b1 3c c8 c4 1e bd 95 8e c4 be
       0.34045517 0.021688554 -0.038761884 -0.3839003
000230 6b 45 43 be 80 80 1c 3d fb e1 86 bd 99 00 a5 bd
       -0.1906945 0.038208485 -0.06586071 -0.080567546
000240 1b 25 76 be 8e 6f 1f be 9a dc 87 3e c6 c4 8e 3c
       -0.24037592 -0.15569898 0.26535493 0.017427813
000250 b2 4a 0d be 0e e9 08 be f6 a5 ce bd eb fd 7e be
       -0.13798025 -0.13370153 -0.10090248 -0.2490155
000260 87 b8 df bd 16 5c a1 be 10 70 53 3e b1 3c d6 3e
       -0.10923868 -0.31515568 0.20648217 0.4184318
000270 2f 6e 1e 3e 80 b9 56 3b 4a ef 62 3e 96 a7 6c bc
       0.15471719 0.0032764375 0.22161594 -0.0144442525
000280 18 17 9f be c7 d0 6e bd 0a 33 d5 ba f0 1a 43 be
       -0.31072307 -0.058304574 -0.0016265821 -0.19053245
000290 56 5d 7e 3e 9a 34 26 3e 83 37 63 3d 8e dd 09 3e
       0.24840292 0.16231003 0.055472862 0.13463423
0002a0 d5 b2 39 3d b8 bb b8 bc f4 95 47 3e 7e 0e f0 bd
       0.045336563 -0.022550449 0.19490796 -0.11721514
0002b0 0c d7 c8 3d 04 fd f8 3d 0f 8d 50 3e 69 b8 51 3e
       0.09806642 0.12157634 0.2036631 0.20480503
0002c0 7d 30 4d bd 77 de fd be 69 6f 1b 3e fb bc 0d be
       -0.05009507 -0.4958379 0.15179218 -0.13841622
0002d0 18 5c 4d bd 4e 07 26 bb f9 ff a4 bd 08 3e 48 3e
       -0.050136656 -0.0025333944 -0.080566354 0.19554913
0002e0 9a 0b 02 3d de a4 da 3d 2f 8a c7 3d 22 d6 ec bd
       0.031749345 0.10675977 0.09743153 -0.1156428
0002f0 3f 3c ad 3c f6 3a 02 be 73 7b f5 bd 25 72 2f 3e
       0.021146892 -0.12717804 -0.11986437 0.17133386

fc2.bias f4 [12]
000000 16 d3 cc 3d ed d1 a1 3d 43 51 fb bd de f8 09 be
       0.10001199 0.07901368 -0.12271359 -0.13473842
000010 8c 7b ab 3d bd c0 b7 bd 2c 0d 12 be cc f5 08 be
       0.08373174 -0.08972309 -0.14262837 -0.13375014
000020 55 83 51 be ec b5 ea 3d be 8c 51 bd 22 1d 20 be
       -0.20460255 0.1146048 -0.051159613 -0.15636113

fc3.weight f4 [10, 12]
000000 19 51 91 bd 21 af 9b 3e 3e 5d 73 be f7 4b 2b be
       -0.07095546 0.3040705 -0.23766038 -0.16728197
000010 25 77 4e be 49 0c 89 be 64 4c 85 be 85 49 b3 3e
       -0.20162638 -0.26767185 -0.26034844 0.35017028
000020 bd 03 3c 3d eb fd 39 be 15 41 39 3c c9 2d c3 3d
       0.045902003 -0.18163268 0.011307021 0.09530217
000030 dd 7f 12 be 21 6c b6 3e 52 77 06 bd be b3 7b be
       -0.14306588 0.3562937 -0.032828636 -0.24580285
000040 72 2a 84 be 34 13 79 be d0 58 54 3e 41 ee de 3e
       -0.25813633 -0.24323732 0.20737004 0.43541148
000050 54 e2 1c bd cd ea b7 3d 49 d3 e6 3d 09 16 87 be
       -0.03830178 0.089803316 0.11270768 -0.26384
000060 ac d5 24 bd c9 16 bf 3e 38 a2 fd bc 19 e4 95 be
       -0.040242836 0.3732207 -0.030961141 -0.29275587
000070 db 1b 40 be 5c 19 68 be c4 9c 0f be 5d aa d6 3e
       -0.18760626 -0.22665924 -0.14024645 0.41926852
000080 fe 20 96 be 64 96 51 bd fa 64 6c 3d ef b1 21 bd
       -0.29322046 -0.051168814 0.057713486 -0.03947633
000090 2f c2 d1 bd 8d b0 f8 3d 23 15 51 3e 94 0a 5d be
       -0.10242116 0.121430494 0.2041822 -0.21586066
0000a0 eb c5 bf 3c 9e 25 65 be 64 ee 28 3d 93 7d fc 3e
       0.023409804 -0.22377631 0.041242972 0.49314556
0000b0 6b c1 9a be 1c 39 5c be c3 25 0c 3e 03 f0 0a 3d
       -0.3022569 -0.2150616 0.1368628 0.0339203
0000c0 32 15 81 be f0 ba a7 3e 7a 73 92 be 75 ba 50 bd
       -0.25211483 0.3275981 -0.28603727 -0.05095907
0000d0 92 83 c1 bd 28 23 97 bd 71 cd b9 bb 10 27 1f 3e
       -0.09448923 -0.073797524 -0.0056702425 0.15542245
0000e0 49 14 3e 3e 2a 40 b4 be e4 8c 97 3e a0 9f 0f 3e
       0.18562426 -0.35205203 0.2959968 0.14025736
0000f0 19 c1 58 be da 2f a1 3e ee 1d 30 3e f1 52 5f 3e
       -0.21167411 0.3148182 0.17198917 0.21808983
000100 09 b2 31 be a7 a8 ce bd c7 4f a6 be fe fa 3c 3e
       -0.17353071 -0.10090762 -0.3248274 0.18455121
000110 98 00 c6 bd 4f 7a 80 be 72 9f a9 3e 98 d0 48 3e
       -0.09668082 -0.25093314 0.3312946 0.19610822
000120 1b 75 d7 bd 04 d2 09 3e 15 4e aa 3e b4 13 28 3e
       -0.10520383 0.13459021 0.33262697 0.16413766
000130 04 f2 70 3e 05 cc b5 3d 98 ba 75 3c d8 dc e3 3e
       0.23529822 0.08876804 0.014998101 0.44504428
000140 07 64 93 3e 38 0b 17 bf 0e b0 97 be 91 f8 74 3e
       0.28787252 -0.59001493 -0.29626507 0.23922946
000150 21 9b bf be ea ce 95 be 21 dd 69 3e 4a 4f 50 be
       -0.3742304 -0.29259425 0.2283826 -0.20342746
000160 54 f8 ad be ce b3 de 3d 14 d6 68 bd 18 67 2a 3f
       -0.33978522 0.10874139 -0.056844786 0.6656356
000170 8c 5c 9c 3c 8f 18 18 3e bd c8 22 3e 95 ba 21 3e
       0.019087099 0.14853118 0.15896888 0.15793832
000180 89 a8 18 be 0e 9b 72 3e e9 78 a2 bd 22 70 19 be
       -0.14908041 0.23691961 -0.07933218 -0.14984182
000190 7b c7 14 3f 57 86 23 be 14 59 86 bd cd 8f e3 3e
       0.58116883 -0.15969215 -0.06559959 0.4444565
0001a0 0e a3 29 be 9d 9b b8 3d de 4f 53 3e 9a 22 db bc
       -0.16566107 0.09014056 0.20635936 -0.026749898
0001b0 f6 5c e7 bc 33 cc ee 3d c1 f7 23 be db 54 04 3e
       -0.02824257 0.11660042 -0.1601248 0.12922995
0001c0 77 e2 65 3e ad 87 91 be c3 60 35 3e 79 68 12 3f
       0.2244967 -0.28423825 0.17712693 0.5719066
0001d0 f1 21 66 3d e3 d4 0c 3e 8c 61 2f 3d 04 8a 80 3e
       0.056184713 0.13753085 0.042817637 0.25105298

fc3.bias f4 [10]
000000 b4 dd 4e 3d 37 d9 86 bc 9e 1b 5b be 3f 7c 22 be
       0.0505044 -0.016460998 -0.21397254 -0.15867709
000010 ad 8d f9 3c 61 54 90 bd ef bb 46 bd e2 4a 07 be
       0.030463064 -0.07047344 -0.04851907 -0.1321216
000020 1b 0d 03 be be 8e 91 be
       -0.12797968 -0.28429216
