dqn_aggressive.pth (torch, 4623 bytes, 6 tensors)

fc1.weight f4 [16, 16]
-0.20619243 -0.03375876 -0.020787984 -0.15544039 0.030301064 0.12383434 -0.010633498 -0.07770422
-0.17053184 -0.093827486 -0.18510848 -0.09433505 -0.015183061 0.036951423 0.021293908 0.070022315
0.7224986 0.57485855 0.52864796 0.6379789 0.42368212 0.53097326 0.592251 0.5735017
0.32615653 0.15413597 0.29172626 0.0804797 -0.15876527 0.08497969 -0.43385488 0.2493516
0.5324762 0.5930995 0.4910438 0.74340445 0.6692947 0.4609686 0.33875325 0.6484635
0.63596255 -0.13137995 -0.10378115 -0.13718587 0.19781342 0.09512956 -0.0037534803 0.15317857
0.6480078 0.52871585 0.48271284 0.4456347 0.54814035 0.4299394 0.5125068 0.29132426
0.44451672 0.4183339 0.4154645 0.25143275 0.1563482 0.24466008 -0.33838052 0.25801826
0.12906569 -0.14644495 0.2205033 0.16527504 -0.052784175 0.1593976 -0.022026509 -0.23860586
-0.18818828 -0.116621375 -0.051554114 -0.15091169 0.1698825 -0.029746592 -0.06795889 -0.24112684
0.13914031 -0.06709174 0.027346808 0.31321242 0.024177263 0.033883754 0.4496977 0.053694908
0.028078636 -0.27719313 -0.08035583 0.24164948 0.078327715 0.22779334 0.0017620386 -0.024847426
0.20790817 -0.23947825 0.102027245 -0.23905052 0.18051079 0.22104499 -0.13822936 -0.028947452
0.2167064 -0.03408728 -0.050036713 0.0018177532 -0.099975325 -0.021406734 0.076180466 -0.25007135
0.09619686 0.22163445 0.087803274 -0.24340397 0.21720865 0.013827473 -0.11682224 0.13685447
-0.23087975 -0.0023997128 -0.053503066 -0.1899203 -0.008049965 -0.112175375 0.018773258 -0.12806672
0.50832504 0.74500924 0.6485158 0.690487 0.6610461 0.65318596 0.5305291 0.31284222
0.57982814 0.63150436 0.47612673 0.18877943 0.22181082 -0.2085333 -0.46011066 0.27145433
0.32431203 0.77598274 0.7129523 0.5025432 0.24208258 0.5339137 0.33080763 0.57334656
0.50856674 0.12413243 0.42636585 -0.02363711 -0.08952145 -0.28769812 -0.19206153 0.3531654
0.068653524 -0.052655336 -0.093437515 0.08279183 0.020313801 -0.00056851265 -0.19374129 -0.09921479
0.13536154 -0.21713097 0.024157578 -0.04326476 0.2110718 -0.08272975 0.09418318 -0.16496606
-0.096711874 0.14312339 -0.011219114 -0.004367441 0.2477026 0.12740353 -0.11463553 0.04811564
0.085469425 0.04236713 -0.08382118 -0.07121658 -0.049242735 0.023676038 0.18493661 -0.15192789
0.48945016 0.3225488 0.51731503 0.65742856 0.3078938 0.64246964 0.55037344 0.14742553
0.49000168 0.324379 0.2612593 -0.067643814 0.28841195 0.26093426 0.073585205 0.44190013
0.7163099 0.95178705 0.44551376 0.6985117 0.85841095 0.67110693 0.6875784 0.44310284
0.54605293 0.3471499 -0.12248485 -0.25860998 -0.16316961 0.0008567092 -0.05450758 0.48167923
-0.21302041 -0.2513073 0.12770051 0.1669035 -0.038209606 0.12812242 6.0018592e-05 -0.07556537
-0.019102449 0.06323346 -0.16228011 -0.21245661 0.17467569 -0.11457684 0.11977643 -0.15124291
0.65777093 0.32211104 0.72877085 0.6648951 0.2768622 0.23988585 0.46456403 0.42621493
0.24503213 0.23931181 0.26231 0.06543046 -0.07569582 -0.07523031 -0.010411098 0.3106786
00000000: 1c24 53be a046 0abd 904b aabc c42b 1fbe
00000010: f039 f83c dc9c fd3d 2038 2ebc 6423 9fbd
00000020: e69f 2ebe a028 c0bd 148d 3dbe bc32 c1bd
00000030: 60c2 78bc 605a 173d 9070 ae3c dc67 8f3d
00000040: abf5 383f ee29 133f 7955 073f 9652 233f
00000050: ddec d83e dded 073f c39d 173f 02d1 123f
00000060: fdfd a63e d2d5 1d3e 255d 953e 8ad2 a43d
00000070: 5d93 22be d509 ae3d 3a22 debe 0756 7f3e
00000080: 5c50 083f 5ed5 173f 186a fb3e c14f 3e3f
00000090: e656 2b3f 1404 ec3e 1171 ad3e b401 263f
000000a0: 71ce 223f 7788 06be 368b d4bd 747a 0cbe
000000b0: 9a8f 4a3e 49d3 c23d f3fc 75bb d8da 1c3e
000000c0: d7e3 253f ec59 073f 2326 f73e 3b2a e43e
000000d0: ed52 0c3f 0421 dc3e a533 033f 7428 953e
000000e0: b297 e33e dc2f d63e c3b7 d43e cbbb 803e
000000f0: be19 203e 2c88 7a3e 3640 adbe f81a 843e
00000100: cc29 043e aaf5 15be 9ecb 613e dc3d 293e
00000110: 3834 58bd 2039 233e f070 b4bc 1855 74be
00000120: 6eb4 40be 30d7 eebd 682a 53bd 9888 1abe
00000130: aef5 2d3e 20af f3bc 082e 8bbd f4e9 76be
00000140: cc7a 0e3e 6567 89bd 6a06 e03c 615d a03e
00000150: 650f c63c b1c9 0a3d c73e e63e 31ef 5b3d
00000160: 2b05 e63c 42ec 8dbe 9991 a4bd f672 773e
00000170: 486a a03d a842 693e 34f4 e63a d48c cbbc
00000180: e1e5 543e c939 75be a9f3 d03d a9c9 74be
00000190: d2d7 383e 9e59 623e ff8b 0dbe 3523 edbc
000001a0: 48e8 5d3e 1b9f 0bbd 4cf3 4cbd ad41 ee3a
000001b0: ddbf ccbd 2d5d afbc 8104 9c3d 5a09 80be
000001c0: dc02 c53d 24f4 623e 34d2 b33d e43e 79be
000001d0: f26b 5e3e a08c 623c 8040 efbd 9423 0c3e
000001e0: be6b 6cbe 8044 1dbb 0826 5bbd 787a 42be
000001f0: 00e4 03bc 34bc e5bd 60ca 993c ec23 03be
00000200: 9721 023f edb8 3e3f 2205 263f c2c3 303f
00000210: 513a 293f 3237 273f c1d0 073f db2c a03e
00000220: 9e6f 143f 45aa 213f e2c6 f33e 654f 413e
00000230: 6022 633e c189 55be a093 ebbe 10fc 8a3e
00000240: 3a0c a63e cea6 463f 0b84 363f aca6 003f
00000250: 7fe4 773e 91ae 083f 9e5f a93e d7c6 123f
00000260: 6e31 023f 2539 fe3d a04c da3e 9da2 c1bc
00000270: 0657 b7bd 2b4d 93be c7ab 44be 18d2 b43e
00000280: 389a 8c3d 1fad 57bd 2b5c bfbd c38e a93d
00000290: 2169 a63c 3d08 15ba 1e64 46be 2031 cbbd
000002a0: 379c 0a3e 9557 5ebe 1de6 c53c 6436 31bd
000002b0: 3523 583e 376e a9bd 1ce3 c03d ddec 28be
000002c0: e010 c6bd f08e 123e 60d0 37bc c01c 8fbb
000002d0: c0a5 7d3e 1276 023e 08c6 eabd e814 453d
000002e0: 980a af3d 2889 2d3d 70aa abbd 00da 91bd
000002f0: c0b2 49bd 40f4 c13c 0660 3d3e fc92 1bbe
00000300: 3699 fa3e 1e25 a53e c26e 043f 3d4d 283f
00000310: 42a4 9d3e e478 243f 46e5 0c3f b8f6 163e
00000320: 80e1 fa3e 0115 a63e c7c3 853e d788 8abd
00000330: bbaa 933e 2d99 853e d7b3 963d bc40 e23e
00000340: 1660 373f 51a8 733f 611a e43e aad1 323f
00000350: d2c0 5b3f aacd 2b3f 2305 303f 60de e23e
00000360: 20ca 0b3f a2bd b13e 56d9 fabd 8768 84be
00000370: ef15 27be c894 603a 5743 5fbd a99e f63e
00000380: 0622 5abe 5aab 80be ecc3 023e c0e8 2a3e
00000390: ad81 1cbd 8632 033e 79bc 7b38 04c2 9abd
000003a0: bd7c 9cbc 8b80 813d c22c 26be 3a8e 59be
000003b0: 2fde 323e 43a7 eabd 584d f53d 6cdf 1abe
000003c0: ad63 283f bdeb a43e ba90 3a3f 9136 2a3f
000003d0: e2c0 8d3e a3a4 753e 56db ed3e d838 da3e
000003e0: b4e9 7a3e 280e 753e 7f4d 863e 6800 863d
000003f0: 6906 9bbd 5912 9abd 4f93 2abc 4411 9f3e

fc1.bias f4 [16]
0.21912643 0.37648943 0.34152877 0.43602642 -0.09527838 0.14751384 0.009240552 -0.062309623
0.61363304 0.3400192 0.08755052 -0.15596396 0.6079878 0.47056624 0.034648575 0.63085616
00000000: ae62 603e 39c3 c03e dcdc ae3e db3e df3e
00000010: 5021 c3bd de0d 173e af65 173c 6038 7fbd
00000020: 0e17 1d3f ff16 ae3e b04d b33d 04b5 1fbe
00000030: 17a5 1b3f 0fee f03e aaeb 0d3d ca7f 213f

fc2.weight f4 [12, 16]
-0.09416872 -0.2169543 0.056681298 0.06973207 -0.042073786 -0.23133016 -0.026506007 -0.10329947
-0.2592572 -0.015122801 0.120287746 -0.050722957 0.040226657 -0.17438698 -0.11964768 -0.25086474
0.06531626 0.4223687 0.3470365 0.38211933 0.013570875 -0.15262106 -0.19082181 -0.08670762
0.15544462 0.5129215 -0.14279918 -0.09474778 0.3452592 0.6559999 0.24908951 0.34213126
0.112214446 0.048421137 0.03433708 -0.012508045 -0.011430502 0.037792712 -0.11936103 0.027135402
0.08302501 0.11667897 -0.0031901002 -0.055900306 0.00316089 -0.16508652 0.17650944 -0.31105113
0.10119459 0.12481189 0.47821185 -0.03132572 0.24235642 0.061047114 -0.1766411 0.029919118
0.0014489726 0.10964899 0.0638189 -0.23988721 0.36335972 0.63162684 -0.01910457 0.14544338
0.14352971 -0.122349545 0.15087368 -0.12216599 -0.20792046 0.10888237 0.09161213 0.023577899
0.14864366 0.009703107 0.22707215 -0.21342361 -0.26859546 0.21612595 0.23579738 -0.21902402
-0.086456925 -0.2255584 0.0056045055 -0.17555436 0.17621318 0.016221523 -0.24703214 0.1687291
-0.15941697 -0.099027276 -0.012664914 0.03956765 0.014756948 0.08830157 -0.24763727 -0.23627532
0.19597316 0.41630092 0.6306374 0.794874 -0.2375114 0.012844494 0.2381843 0.2333203
0.78837365 0.8681383 0.13984005 -0.18812597 0.46127132 0.6294747 -0.17067692 0.5149798
0.021575123 0.34078914 -0.26762876 0.28924033 0.1787791 0.16002627 0.013970652 0.03690821
0.15191971 0.33508262 -0.15830466 -0.20075732 0.01641375 -0.18526155 -0.23099732 0.24508564
-0.15233976 0.5535868 0.61925906 0.6493511 -0.037560225 -0.3381173 -0.15019774 0.20035559
0.95632786 0.5384603 0.19062744 0.029723793 0.52083385 0.90244764 -0.13203076 0.7060978
-0.08941975 0.5077343 0.15026022 0.15125717 -0.0003927946 0.2679446 -0.04968107 0.06926969
0.32823443 0.3626532 0.12274878 -0.17091167 0.32156006 0.26542518 0.11956314 0.37241566
-0.05924377 0.05956533 0.45802554 0.01842389 -0.19335538 0.6414591 0.09308435 0.22712982
-0.16554657 0.03985869 0.07415622 0.02348286 -0.112469174 -0.0432362 0.13648322 0.16912046
-0.012515992 0.063899584 0.08426745 0.12142822 -0.03762126 0.2806847 -0.14153692 0.24545011
-0.32245833 0.09405272 -0.20544933 -0.038589478 0.13606048 0.1018021 -0.18971382 -0.011202086
00000000: 88db c0bd 4529 5ebe a62a 683d b0cf 8e3d
00000010: 9055 2cbd d0e1 6cbe 2023 d9bc ac8e d3bd
00000020: 5cbd 84be a0c5 77bc 6c59 f63d e0c2 4fbd
00000030: b5c4 243d 8092 32be d809 f5bd 5871 80be
00000040: 88c4 853d b640 d83e c5ae b13e 25a5 c33e
00000050: 6058 5e3c b248 1cbe cb66 43be c493 b1bd
00000060: e02c 1f3e d34e 033f f339 12be 200b c2bd
00000070: d0c5 b03e 9cef 273f 5211 7f3e d42b af3e
00000080: b0d0 e53d 3e55 463d 0aa5 0c3d 8bee 4cbc
00000090: 0047 3bbc 88cc 1a3d 8e73 f4bd 104b de3c
000000a0: 0409 aa3d 62f5 ee3d 0011 51bb b8f7 64bd
000000b0: ef26 4f3b 710c 29be e4be 343e 1842 9fbe
000000c0: 1c3f cf3d 609d ff3d 2fd8 f43e 664f 00bd
000000d0: 482c 783e 8a0c 7a3d 68e1 34be f018 f53c
000000e0: 74eb bd3a a68f e03d 7cb3 823d fea4 75be
000000f0: 490a ba3e 4cb2 213f 3081 9cbc 1cef 143e
00000100: 74f9 123e 6692 fabd a17e 1a3e 2a32 fabd
00000110: 1ae9 54be b8fd de3d 249f bb3d 7026 c13c
00000120: 0b36 183e c8f9 1e3c 9a85 683e b88b 5abe
00000130: 5885 89be 1f50 5d3e de74 713e d547 60be
00000140: 5410 b1bd c8f8 66be 00a6 b73b 86c4 33be
00000150: 3a71 343e 00e3 843c fef5 7cbe 52c7 2c3e
00000160: 343e 23be d0ce cabd 8080 4fbc b011 223d
00000170: 20c7 713c 74d7 b43d a094 7dbe 28f2 71be
00000180: 30ad 483e 6525 d53e 7471 213f dd7c 4b3f
00000190: 3036 73be b671 523c 96e6 733e 84eb 6e3e
000001a0: dbd2 493f 503e 5e3f 3b32 0f3e 18a4 40be
000001b0: c12b ec3e 4125 213f eec5 2ebe b7d5 033f
000001c0: 50be b03c ea7b ae3e a306 89be 4f17 943e
000001d0: de11 373e eddd 233e 29e5 643c 102d 173d
000001e0: d790 1b3e f38f ab3e 9e1a 22be 5493 4dbe
000001f0: 2176 863c 34b5 3dbe 908a 6cbe bbf7 7a3e
00000200: f4fe 1bbe ddb7 0d3f c387 1e3f e03b 263f
00000210: c0d8 19bd b61d adbe 70cd 19be 042a 4d3e
00000220: e7d1 743f 89d8 093f d733 433e 507f f33c
00000230: 5e55 053f cf06 673f 1233 07be d3c2 343f
00000240: b421 b7bd e0fa 013f d1dd 193e 29e3 1a3e
00000250: 00f0 cdb9 0930 893e 617e 4bbd 44dd 8d3d
00000260: 580e a83e aead b93e b663 fb3d 7803 2fbe
00000270: 85a3 a43e cfe5 873e 85dd f43d 44ad be3e
00000280: 98a9 72bd c7fa 733d 5382 ea3e b3ed 963c
00000290: f4fe 45be aa36 243f 02a3 be3d b894 683e
000002a0: 0a85 29be de42 233d 37df 973d 205f c03c
000002b0: 3d56 e6bd 7118 31bd 42c2 0b3e ea2d 2d3e
000002c0: e00f 4dbc c9dd 823d 6a94 ac3d 5caf f83d
000002d0: c018 1abd e8b5 8f3e 0eef 10be 4657 7b3e
000002e0: 4219 a5be b69e c03d 4f61 52be 0010 1ebd
000002f0: 7053 0b3e 9f7d d03d 5744 42be f488 37bc

fc2.bias f4 [12]
-0.04557892 0.14507969 -0.18446185 0.030254344 -0.067037605 -0.23288909 0.55869395 -0.0804694
0.6722691 0.08557622 0.23572552 0.11014853
00000000: f6b0 3abd c58f 143e 91e3 3cbe f5d7 f73c
00000010: 034b 89bd 7a7a 6ebe 9106 0f3f 24cd a4bd
00000020: d419 2c3f 9642 af3d 0862 713e 8d95 e13d

fc3.weight f4 [10, 12]
-0.11993146 0.49231848 -0.31010652 0.14376774 0.10849467 0.029344589 0.5452075 0.40038675
0.06714689 0.234076 -0.06906195 0.38743892 -0.06965637 0.15428008 0.0045190467 0.4458788
-0.26852146 -0.1808137 0.36820248 0.08107452 0.3213785 0.19162607 0.021527205 0.2519204
-0.08134687 0.09312153 0.023680167 0.3561271 0.11249226 0.018292725 0.1971385 -0.08949508
0.35750666 0.119302936 0.362362 0.055899516 0.27089113 0.32336083 -0.19817856 0.3406023
-0.12682281 -0.0024128556 0.22893992 0.3758053 0.50538284 0.2889693 0.34694847 -0.17419468
0.05082622 0.34444904 -0.1791609 0.6239718 0.0809885 -0.06684816 0.25084394 -0.13448359
0.5737454 0.3589774 0.27550808 0.18128678 0.24963513 0.47369462 0.0050733113 0.47921607
0.15003282 0.23620588 0.475304 -0.3501419 0.6773476 0.53676015 0.2963612 0.15832196
0.11901921 0.23591088 0.09786509 0.122959 0.03280773 -0.18350916 0.24814129 -0.08229153
0.38943556 0.06280988 -0.23075545 -0.2792007 -0.019829819 0.027500516 -0.043146193 -0.20121963
0.16749504 -0.26532897 0.34345213 0.6968388 0.2912792 0.251432 -0.35822868 -0.072908595
0.0012065299 0.10490922 0.21212587 0.10660378 -0.11742641 -0.1579621 0.22759004 0.3533304
0.427928 0.009817429 0.017526953 -0.1549235 -0.10459812 0.082204536 0.07367159 0.39318603
0.13761595 0.13835177 0.12671162 0.27876973 0.5705999 0.38580105 0.2438166 0.035491638
00000000: a09e f5bd 2b11 fc3e 48c6 9ebe da37 133e
00000010: 7432 de3d 1064 f03c b892 0b3f 7eff cc3e
00000020: 4f84 893d 9eb1 6f3e 5a70 8dbd 655e c63e
00000030: 00a8 8ebd 99fb 1d3e 8314 943b 3a4a e43e
00000040: a57b 89be 3a27 39be 0985 bc3e 660a a63d
00000050: b98b a43e a039 443e d259 b03c b6fb 803e
00000060: 3099 a6bd 80b6 be3d e9fc c13c 4b56 b63e
00000070: 5862 e63d a0da 953c adde 493e 3249 b7bd
00000080: 1d0b b73e 1955 f43d 8387 b93e e4f6 643d
00000090: 3eb2 8a3e 8d8f a53e 52ef 4abe 6d63 ae3e
000000a0: d7dd 01be 0021 1ebb 3a6f 6a3e 8d69 c03e
000000b0: c560 013f c9f3 933e 3ba3 b13e 1760 32be
000000c0: 282f 503d a05b b03e f475 37be 9ebc 1f3f
000000d0: 4cdd a53d b0e7 88bd 9e6e 803e 11b6 09be
000000e0: fbe0 123f e3cb b73e 650f 8d3e 3ea3 393e
000000f0: 5aa0 7f3e 1a88 f23e 053e a63b cf5b f53e
00000100: 34a2 193e f4df 713e 0c5b f33e cd45 b3be
00000110: a766 2d3f 1d69 093f a8bc 973e 271f 223e
00000120: 58c0 f33d 9f92 713e 7e6d c83d eed1 fb3d
00000130: 6661 063d d3e9 3bbe c018 7e3e 7688 a8bd
00000140: 1964 c73e 77a2 803d 284b 6cbe 65f3 8ebe
00000150: 2572 a2bc c348 e13c 10ba 30bd 850c 4ebe
00000160: d283 2b3e 33d9 87be f5d8 af3e 0764 323f
00000170: 8c22 953e b2bb 803e c069 b7be 1a51 95bd
00000180: 6d24 9e3a a5da d63d 8637 593e 1553 da3d
00000190: 427d f0bd d1c0 21be 5d0d 693e b9e7 b43e
000001a0: 6119 db3e 48d9 203c af94 8f3c 44a4 1ebe
000001b0: 8a37 d6bd da5a a83d 21e1 963d ae4f c93e
000001c0: 32eb 0c3e 16ac 0d3e b1c0 013e e8ba 8e3e
000001d0: d612 123f b787 c53e 0fab 793e ae5f 113d

fc3.bias f4 [10]
-0.04795121 0.28897294 -0.062231295 0.027456654 0.48984694 0.03839658 -0.1825902 0.16476823
-0.05467308 0.43089688
00000000: 7d68 44bd 43f4 933e 3ee6 7ebd c7ec e03c
00000010: 38cd fa3e bb45 1d3d edf8 3abe 01b9 283e
00000020: e1f0 5fbd 849e dc3e
