dqn_normal.pth (torch, 5030 bytes, 6 tensors)

fc1.weight f4 [16, 16]
0.11914157 0.18180948 0.20154332 0.17455837 0.17210905 0.3157198 0.5596244 -0.16752924
0.4407396 -0.25833875 0.3271977 -0.090594135 -0.057618104 0.39050505 -0.056675367 0.6095745
0.53174835 0.29158577 0.32890648 0.33747765 0.20451173 0.20240077 0.6620754 0.04927742
0.35712042 0.10007012 0.17394468 -0.107406974 0.1735891 0.13262677 0.06545618 0.3401107
0.6119935 -0.024594532 0.27599433 0.08610728 0.121169865 0.24388587 0.24488556 -0.10720128
0.64828384 -0.11541336 0.32732317 -0.16870174 0.3322557 0.31307077 0.05874463 0.7095428
0.19219817 0.08534257 0.05981417 0.25763026 -0.0064803585 0.38321957 1.9897283 -1.0742056
-0.8826394 -0.48926282 0.259894 0.38643074 0.42635152 0.30410728 -0.19414394 -0.020752998
0.73383707 0.53921103 0.62579334 0.8332184 0.71681696 0.38806757 -1.4479223 0.37110183
-0.019804073 0.4720439 0.28491265 0.16949253 0.69714826 0.71665365 -0.048618414 0.29282877
0.4415391 -0.24508476 -0.13545935 0.17684416 -0.07719536 0.25641796 1.0319226 -0.24426454
0.7456566 -0.074036516 0.09399202 -0.23867644 -0.07935295 0.3583665 0.23807417 0.34755605
0.358892 -0.18400139 0.017289143 0.13370425 -0.038742702 0.21755329 1.1072516 0.075525805
0.19406775 -0.00070414663 0.219338 0.05892386 0.23402692 -0.0056275977 0.040263385 0.40218043
0.19243987 -0.23684973 0.23932673 0.09650744 -0.25714624 0.124267444 0.005952963 -0.053654853
-0.19426943 -0.14612177 -0.15405011 -0.021876246 -0.041156653 -0.072922766 -0.15603805 0.07007069
0.01270172 0.43093863 0.112784885 0.09305264 0.2403509 0.4273278 1.1423078 0.77803254
0.4123663 -0.88691336 -0.6783995 -0.50324047 -0.20168847 -0.54769754 0.5049504 0.05447194
0.3483441 0.65739924 0.7139796 0.5930846 0.7065902 0.20326962 -0.706784 1.0876418
0.5489819 0.097985476 -0.41420013 -0.095854506 0.3606716 0.24463916 -0.16588722 0.5881739
0.50759864 0.3043894 0.023319222 0.38201928 0.15744098 0.37207216 0.7444769 0.54360825
0.3045787 0.058878735 0.039995067 -0.0982488 -0.061736517 0.17091969 0.058357883 0.78146106
0.1033495 0.041357893 -0.10261064 0.018811002 0.26441032 0.00246951 1.175232 0.21990226
0.041453663 -0.48529148 -0.09470084 0.061895102 0.09455513 0.037343424 0.21002373 0.43472868
0.06286038 -0.0903024 0.09397817 0.13458262 -0.12838985 -0.21867906 0.15492806 0.111401096
-0.012687434 -0.14805211 -0.15814002 0.08595087 -0.20272487 0.03644962 -0.088746175 -0.2074113
0.2701479 0.23643439 -0.0065876534 0.069921635 -0.056948133 0.067955725 0.8743782 0.50458205
0.18376012 -0.17874439 -0.26259142 0.0794598 0.06694121 0.1732757 -0.23069878 0.56093246
0.576811 0.06664776 0.62311447 0.13880827 0.37324893 0.42306545 -0.16905622 1.1000159
0.7312087 0.16126966 -0.6221403 -0.3837139 -0.05771644 0.23627265 -0.039595608 0.29701072
0.19539613 0.31015947 0.32836655 0.11865329 0.06427338 0.39645082 0.13729884 0.38739592
0.5838533 -0.23249221 0.07513123 -0.22539338 0.11595074 0.2746501 -0.18425322 0.28804338
00000000: 7f00 f43d 442c 3a3e 5f61 4e3e 6ebf 323e
00000010: 5b3d 303e 07a6 a13e 8b43 0f3f c98c 2bbe
00000020: 9fa8 e13e fa44 84be 7586 a73e 6b89 b9bd
00000030: f600 6cbd 47f0 c73e 6e24 68bd 130d 1c3f
00000040: a920 083f bb4a 953e 6e66 a83e dfc9 ac3e
00000050: 866b 513e 2642 4f3e c67d 293f 1fd7 493d
00000060: 7dd8 b63e 90f1 cc3d 8e1e 323e 30f8 dbbd
00000070: 57c1 313e 50cf 073e e40d 863d fd22 ae3e
00000080: 9bab 1c3f 797a c9bc 214f 8d3e 0359 b03d
00000090: e827 f83d 38bd 793e 48c3 7a3e 588c dbbd
000000a0: eef5 253f d75d ecbd e796 a73e 26c0 2cbe
000000b0: 6b1d aa3e d04a a03e 369e 703d 99a4 353f
000000c0: 99cf 443e 16c8 ae3d b4ff 743d 1de8 833e
000000d0: 3059 d4bb 5b35 c43e 6baf fe3f 927f 89bf
000000e0: a8f4 61bf a880 fabe d410 853e 40da c53e
000000f0: bf4a da3e f3b3 9b3e abcd 46be 3102 aabc
00000100: bfdc 3b3f bc09 0a3f fe33 203f cd4d 553f
00000110: 5181 373f cbb0 c63e 8555 b9bf 0f01 be3e
00000120: 273c a2bc bdaf f13e 12e0 913e 738f 2d3e
00000130: 4f78 323f 9d76 373f 1a24 47bd a7ed 953e
00000140: 6a11 e23e 80f7 7abe dbb5 0abe a316 353e
00000150: 9a18 9ebd 3749 833e 0a16 843f 7c20 7abe
00000160: 5ae3 3e3f 75a0 97bd e37e c03d 9967 74be
00000170: cd83 a2bd d07b b73e b7c9 733e def2 b13e
00000180: b1c0 b73e dc6a 3cbe f6a1 8d3c c4e9 083e
00000190: abb0 1ebd 4ac6 5e3e 6cba 8d3f 46ad 9a3d
000001a0: b2b9 463e 7b96 38ba 249a 603e 255a 713d
000001b0: c1a4 6f3e b667 b8bb 38eb 243d 98ea cd3e
000001c0: f50e 453e bc88 72be 1112 753e b1a5 c53d
000001d0: aca8 83be ee7f fe3d 1311 c33b 31c5 5bbd
000001e0: 91ee 46be f2a0 15be 50bf 1dbe d035 b3bc
000001f0: e193 28bd 8858 95bd 70c8 1fbe 3981 8f3d
00000200: e01a 503c fda3 dc3e c3fb e63d 6292 be3d
00000210: 8c1e 763e b6ca da3e 2437 923f 242d 473f
00000220: ad21 d33e c10c 63bf 97ab 2dbf 5ed4 00bf
00000230: 6c87 4ebe e835 0cbf 6e44 013f f81d 5f3d
00000240: 285a b23e 514b 283f 5ec7 363f 64d4 173f
00000250: 18e3 343f e925 503e ccef 34bf d937 8b3f
00000260: 148a 0c3f 9cac c83d 0a12 d4be 5e4f c4bd
00000270: f3a9 b83e b082 7a3e 57de 29be 9192 163f
00000280: fcf1 013f edd8 9b3e f407 bf3c 0898 c33e
00000290: 3538 213e 3e80 be3e 0a96 3e3f e929 0b3f
000002a0: bdf1 9b3e d42a 713d ded1 233d ab36 c9bd
000002b0: 6edf 7cbd 9205 2f3e ad08 6f3d d50d 483f
000002c0: e7a8 d33d e566 293d 8725 d2bd 8819 9a3c
000002d0: ca60 873e 81d7 213b 016e 963f 0f2e 613e
000002e0: 51cb 293d 2078 f8be 84f2 c1bd b885 7d3d
000002f0: 1fa6 c13d 6bf5 183d 7610 573e c294 de3e
00000300: f1bc 803d 77f0 b8bd a077 c03d 07d0 093e
00000310: a178 03be 67ed 5fbe 76a5 1e3e 4226 e43d
00000320: f5de 4fbc f99a 17be 75ef 21be 0207 b03d
00000330: 1c97 4fbe 324c 153d 8ec0 b5bd a163 54be
00000340: d350 8a3e db1b 723e 3edd d7bb 1333 8f3d
00000350: 7242 69bd 5f2c 8b3d 40d7 5f3f 4a2c 013f
00000360: 9d2b 3c3e c508 37be 6272 86be d2bb a23d
00000370: 7918 893d 2f6f 313e 4d3c 6cbe 4599 0f3f
00000380: e3a9 133f 9f7e 883d 6e84 1f3f c123 0e3e
00000390: 7c1a bf3e 099c d83e 131d 2dbe 52cd 8c3f
000003a0: 7e30 3b3f e023 253e 9644 1fbf 2676 c4be
000003b0: 1368 6cbd 75f1 713e 012f 22bd ca11 983e
000003c0: ec15 483e 39cd 9e3e a91f a83e 7f00 f33d
000003d0: c3a1 833d 9afb ca3e 1198 0c3e c258 c63e
000003e0: 6977 153f 7012 6ebe 67de 993d 86cd 66be
000003f0: 9577 ed3d f09e 8c3e e0ac 3cbe 6c7a 933e

fc1.bias f4 [16]
0.69484454 0.7519108 0.73012537 0.15843771 -0.020677118 0.679983 0.6096218 0.07920728
0.37644508 0.45275247 0.52648544 0.30204955 -0.001972551 0.78580415 0.27170956 0.3055596
00000000: 55e1 313f 3a7d 403f 7fe9 3a3f 7f3d 223e
00000010: 0f63 a9bc 5e13 2e3f 2d10 1c3f 6d37 a23d
00000020: 69bd c03e 2ccf e73e c0c7 063f 3da6 9a3e
00000030: ea45 01bb 762a 493f 841d 8b3e 4f72 9c3e

fc2.weight f4 [12, 16]
0.061234247 -0.0817999 0.02341945 -0.06957516 -0.0006641024 -0.06581749 -0.19830145 0.2230391
0.093501106 -0.18778743 0.15914018 0.061281923 0.17745739 -0.1288932 -0.20285691 0.13463062
0.39456773 0.4218665 0.30114415 0.14634201 -0.38384375 0.54022104 0.50150365 -0.17469805
0.34833175 0.3828409 0.20425443 0.5984292 -0.20446387 0.6496479 0.21415946 0.4191543
0.43808535 0.45064607 0.41374826 -0.46715793 -0.7167526 0.8218155 0.30307835 0.1552912
0.61297387 0.013139889 0.3863003 0.16733709 -0.17584454 0.34738198 0.15322779 0.39385128
0.3843661 0.12232853 0.34825578 0.24285766 -0.818208 0.60821956 0.4172042 -0.07906323
0.6191104 0.05642441 0.34667146 0.36461484 0.14799106 0.39968216 0.12720585 0.5513168
0.20291856 0.08596763 -0.054846752 -0.00089102925 -0.15873045 -0.28195027 0.21364973 0.24923658
-0.23962612 -0.29753873 -0.2479777 -0.10221712 -0.22789744 -0.17091146 0.062184572 -0.0168485
0.13040546 0.4435867 0.094052926 -0.46645322 -0.010129799 0.111789584 0.23655324 -0.22131005
0.47570506 0.63607234 0.6082948 0.40971026 -0.08542548 0.42895654 0.70172167 0.41878518
0.030724721 0.42972788 0.17926776 -0.54110277 -0.62126374 0.15171279 0.5194625 -0.1687973
0.9551209 0.60015136 0.46718353 0.30545077 0.032583732 0.66369706 0.5637009 0.3218952
0.42302418 0.12579244 0.4113647 0.037524108 -0.60545975 0.66212785 0.40418914 -0.03453982
0.12738849 0.04903449 0.3943741 0.5849619 0.06702395 0.6250546 0.1592529 0.583033
0.2673907 0.11020432 0.4256295 -1.6943116 1.5249417 -0.013967695 -0.2672052 -0.018942505
-0.37920377 1.0384839 0.115448594 -0.4425062 0.01183101 -0.084326364 0.665578 0.31165782
0.5000369 0.4291999 0.36918828 2.214262 0.103355326 0.52838796 0.5204089 -0.07716367
-0.7555992 -0.6879879 0.19150405 0.46272042 -0.18001965 0.20133078 -0.86854815 -0.14405929
0.10780348 0.20238014 0.351054 -1.4652992 1.1676708 0.0224644 -0.083019026 -0.10955012
-0.688389 0.7611971 0.1650655 -0.21168937 0.13924086 -0.024666756 0.60913354 0.46283796
0.56102175 0.42615736 0.57127047 -0.009321138 -0.9129293 0.96157455 0.5091243 0.23060057
0.43922228 -0.022225475 0.19994813 0.23774491 0.029886512 0.01743003 0.14015517 0.5288055
00000000: c3d0 7a3d b586 a7bd 25da bf3c 6c7d 8ebd
00000010: 2817 2eba 52cb 86bd 890f 4bbe 5d64 643e
00000020: 827d bf3d 594b 40be a5f5 223e c102 7b3d
00000030: 64b7 353e 94fc 03be b9b9 4fbe 9cdc 093e
00000040: c804 ca3e e3fe d73e 912f 9a3e aeda 153e
00000050: 2b87 c4be ed4b 0a3f 8b62 003f 0ce4 32be
00000060: 8a58 b23e b903 c43e 1328 513e a832 193f
00000070: fa5e 51be 534f 263f 9e4c 5b3e 649b d63e
00000080: b94c e03e 15bb e63e d0d6 d33e 532f efbe
00000090: 197d 37bf 8062 523f 162d 9b3e a804 1f3e
000000a0: dbeb 1c3f b048 573c 27c9 c53e 6a5a 2b3e
000000b0: 9710 34be 0ddc b13e bfe7 1c3e e0a6 c93e
000000c0: a2cb c43e 6187 fa3d 954e b23e aeaf 783e
000000d0: 1476 51bf 47b4 1b3f ca9b d53e e7eb a1bd
000000e0: 057e 1e3f 481d 673d ec7e b13e ccae ba3e
000000f0: f88a 173e 24a3 cc3e 4042 023e 1923 0d3f
00000100: e2c9 4f3e cc0f b03d fda6 60bd f693 69ba
00000110: 3c8a 22be c95b 90be ffc6 5a3e e037 7f3e
00000120: 8d60 75be ff56 98be deed 7dbe 3657 d1bd
00000130: f25d 69be 6a03 2fbe 40b5 7e3d de05 8abc
00000140: 0289 053e cc1d e33e d29e c03d f5d2 eebe
00000150: 75f7 25bc f0f1 e43d 033b 723e 1a9f 62be
00000160: 9d8f f33e a3d5 223f 35b9 1b3f 8bc5 d13e
00000170: 8ef3 aebd 31a0 db3e 08a4 333f 036b d63e
00000180: 69b2 fb3c 4b05 dc3e f891 373e b685 0abf
00000190: 240b 1fbf 995a 1b3e 7ffb 043f 33d9 2cbe
000001a0: ce82 743f 85a3 193f ae32 ef3e 0b64 9c3e
000001b0: 8576 053d 0de8 293f b44e 103f 73cf a43e
000001c0: a096 d83e bccf 003e 659e d23e e1b2 193d
000001d0: 69ff 1abf 3681 293f e1f1 ce3e a079 0dbd
000001e0: 2172 023e 64d8 483d 67eb c93e 10c0 153f
000001f0: da43 893d 9403 203f 3113 233e a741 153f
00000200: 6fe7 883e cdb2 e13d 1cec d93e 34df d8bf
00000210: 4a31 c33f c2d8 64bc 1fcf 88be 502d 9bbc
00000220: ff26 c2be 0aed 843f 5070 ec3d 2c90 e2be
00000230: dad6 413c 4db3 acbd 5263 2a3f 9d91 9f3e
00000240: 6b02 003f 17c0 db3e 3f06 bd3e 78b6 0d40
00000250: f5ab d33d 6f44 073f 8539 053f fc07 9ebd
00000260: f36e 41bf fa1f 30bf a319 443e b1e9 ec3e
00000270: 1257 38be a829 4e3e 2c59 5ebf 4784 13be
00000280: 12c8 dc3d bd3c 4f3e 5abd b33e ed8e bbbf
00000290: 3d76 953f 4307 b83c e105 aabd d05b e0bd
000002a0: 433a 30bf d0dd 423f ee06 293e 19c5 58be
000002b0: 2895 0e3e f011 cabc 2df0 1b3f 19f9 ec3e
000002c0: 1f9f 0f3f 4c31 da3e c83e 123f b0b7 18bc
000002d0: bcb5 69bf c029 763f f855 023f 8e22 6c3e
000002e0: bee1 e03e 3312 b6bc 34bf 4c3e 6773 733e
000002f0: 8fd4 f43c 6cc9 8e3c d684 0f3e cc5f 073f

fc2.bias f4 [12]
0.030499477 0.27337462 0.56297344 0.114087105 0.02456198 0.29622358 0.53806233 0.30944172
0.43594125 0.44181168 0.20408729 0.36161238
00000000: 0ada f93c c2f7 8b3e 071f 103f 80a6 e93d
00000010: 3536 c93c 9eaa 973e 74be 093f 256f 9e3e
00000020: b133 df3e 2435 e23e 42fc 503e 4225 b93e

fc3.weight f4 [10, 12]
0.14474538 0.023733173 -0.23480195 0.1454355 0.04147733 -0.20364192 -0.07269454 -0.08260585
0.016524533 0.0073345234 -0.039236497 0.16154577 -0.17570244 0.05062459 -0.066797934 -0.27243152
-0.26225215 -0.21717252 -0.21857433 -0.15229999 -0.21855177 -0.074874304 -0.2445135 -0.037275065
0.18992716 -0.4670193 0.1516398 -0.16825972 0.2048021 -0.5383063 0.15532327 -0.5399066
-0.6278461 -1.2186141 -1.1339113 0.09656164 0.26217026 -0.15014651 0.004425002 0.1369373
0.21928918 0.3373844 0.07121285 -0.11946624 0.30829102 0.39050105 0.16196616 -0.14138739
0.19556993 0.010158276 0.23384838 -0.052632313 0.059665587 0.018044883 0.35882613 0.12551399
0.56670076 0.54587924 0.26879892 -0.01122322 -0.06761968 0.13663442 0.25099587 0.12524948
0.2767195 0.4845906 0.21360537 0.5120469 0.83202124 0.46004012 0.7706082 0.45130578
0.077995315 -0.42052096 -0.6390132 -0.6576605 0.14185983 -0.5025962 -0.63272864 -0.5139561
1.3847196 -1.2795357 1.1446029 -0.6169173 -0.059017017 -0.29156125 -0.37137124 -0.15177482
0.65375787 -0.77906835 -0.6995303 -0.18861613 -0.8542242 1.7378771 -0.67410856 -0.0046305386
-0.16934481 -0.2116418 -0.74682623 -0.42950544 0.39514357 -0.12307387 -0.07185597 -0.44877055
-0.08198053 0.44076395 -0.43758896 -0.7623267 0.04154083 0.1918711 -0.24001057 0.19796076
0.18546739 -0.12656789 0.032144353 -0.29622355 0.19929338 0.015616543 -0.09875897 0.21709003
00000000: 2238 143e 126c c23c ec6f 70be 0bed 143e
00000010: 22e4 293d 8287 50be e0e0 94bd 422d a9bd
00000020: 755e 873c 7156 f03b 73b6 20bd 416c 253e
00000030: 57eb 33be bb5b 4f3d 5bcd 88bd 257c 8bbe
00000040: ea45 86be 7962 5ebe f3d1 5fbe 87f4 1bbe
00000050: 09cc 5fbe b357 99bd bf61 7abe bdad 18bd
00000060: 447c 423e 271d efbe 7747 1b3e 474c 2cbe
00000070: a4b7 513e 71ce 09bf 100d 1f3e 5237 0abf
00000080: 86ba 20bf 8cfb 9bbf 0124 91bf 1cc2 c53d
00000090: 2e3b 863e 02c0 19be 9bff 903b 4b39 0c3e
000000a0: 588d 603e a6bd ac3e 0bd8 913d b7aa f4bd
000000b0: 52d8 9d3e c1ef c73e 75da 253e dbc7 10be
000000c0: 7c43 483e e66e 263c f375 6f3e fb94 57bd
000000d0: e763 743d ddd2 933c 0fb8 b73e bd86 003e
000000e0: 4d13 113f bebe 0b3f 03a0 893e 99e1 37bc
000000f0: 307c 8abd e5e9 0b3e 8882 803e 6641 003e
00000100: 2eae 8d3e 421c f83e 5ebb 5a3e 8115 033f
00000110: 58ff 543f 618a eb3e 9446 453f 8d11 e73e
00000120: 02bc 9f3d 864e d7be 5e96 23bf 705c 28bf
00000130: b443 113e 25aa 00bf 81fa 21bf a192 03bf
00000140: 7e3e b13f d3c7 a3bf 5982 923f 4bee 1dbf
00000150: d4bb 71bd 8447 95be 5f24 bebe dc6a 1bbe
00000160: ad5c 273f 0671 47bf 6b14 33bf 9624 41be
00000170: 70ae 5abf c272 de3f 6192 2cbf c6bb 97bb
00000180: ba68 2dbe a1b8 58be 0130 3fbf 23e8 dbbe
00000190: 4250 ca3e 270e fcbd 3929 93bd 41c5 e5be
000001a0: 68e5 a7bd d0ab e13e a90b e0be d827 43bf
000001b0: b826 2a3d dc79 443e 55c5 75be 3ab6 4a3e
000001c0: 2aeb 3d3e 039b 01be cca9 033d 9daa 97be
000001d0: 9013 4c3e 87dc 7f3c 2542 cabd d94c 5e3e

fc3.bias f4 [10]
-0.13160048 -0.31439814 -0.80088824 0.24178271 0.38199645 0.44349128 -0.3146757 -0.33552733
0.04949406 0.038195983
00000000: 47c2 06be cbf8 a0be 0307 4dbf e395 773e
00000010: 0a95 c33e 4a11 e33e 2c1d a1be 3dca abbe
00000020: 49ba 4a3d 6473 1c3d
