dqn_aggressive.pth (torch, 5006 bytes, 6 tensors)

fc1.weight f4 [16, 16]
000000 85 f6 08 3d 8a b3 f4 bd 9a 11 72 be 39 90 81 be
       0.033438224 -0.11948307 -0.23639527 -0.25305346
000010 53 96 51 bd 66 ba 7c be f1 b5 30 3e 0a 39 50 3c
       -0.05116875 -0.2468048 0.17256905 0.012708912
000020 81 b3 4b be 68 aa 36 3e 0a 2e 07 3e ce 41 af bd
       -0.19892694 0.17838442 0.13201156 -0.08557473
000030 6f 19 93 3d ce 3a f7 bc de bc 92 bb 8e db 05 3e
       0.071825854 -0.030179407 -0.004478081 0.13072035
000040 8e 1e ea bd 39 b5 6f 3e 19 d8 e2 bc 11 f9 b1 3c
       -0.11431609 0.23408975 -0.027690934 0.02172521
000050 1a eb d7 3d ea e3 9b 3e 59 f8 23 3d e6 c1 0f 3e
       0.10542889 0.30447322 0.040031765 0.1403881
000060 67 83 b6 bc 06 da 94 3c 24 57 1e 3c c5 df 36 3e
       -0.022279454 0.018170368 0.009664331 0.17858799
000070 6f 42 52 3d 1d f5 88 bd b4 f3 c1 bc d7 a7 98 3e
       0.051332887 -0.06687377 -0.023675777 0.29815552
000080 df 9e 62 3b 9b 57 f6 3d 73 35 2e 3d e5 74 62 bd
       0.0034579558 0.12028428 0.042531442 -0.05528726
000090 81 10 ce 3d 66 60 1c be 09 9d a0 bc f4 fc 81 be
       0.100617416 -0.15271148 -0.01960613 -0.253883
0000a0 9d 59 30 3e f4 28 5c be e0 d5 3e 3e 83 f6 24 3e
       0.17221685 -0.21499997 0.18636274 0.16109662
0000b0 d2 27 78 3d c4 96 ef 3d 4e f4 55 be 9d a5 1b 3d
       0.06058485 0.11698678 -0.20893976 0.037999738
0000c0 d9 a4 57 3e 4c 07 03 3e 25 5c 4e be e9 fb 5a be
       0.21058978 0.12795752 -0.20152338 -0.21385159
0000d0 01 3a 79 3c a9 ca 41 3e 67 ee df 3d 6a 2d 1d be
       0.015211583 0.18924965 0.109341435 -0.15349355
0000e0 41 e7 8d 3d 44 c1 2f ba 4a f7 a5 3d 3f 76 85 be
       0.06928874 -0.0006704519 0.08103807 -0.26066777
0000f0 8f 9d 87 bd b1 38 8d be 29 6b 73 bd 5b ad 19 be
       -0.06621849 -0.27582315 -0.059428368 -0.15007536
000100 b3 1a 38 3e 98 63 f8 3d a1 b1 99 3e e6 06 d0 3a
       0.17978935 0.12128371 0.30018333 0.0015871197
000110 48 dd 8c 3e c4 a1 14 3e a0 fd 82 3d 1f d1 a9 3e
       0.27512574 0.14514834 0.063960314 0.3316736
000120 04 b5 06 3d 76 bb 13 3e e2 2d e5 3d a9 c9 e6 3d
       0.032887474 0.1442698 0.11190392 0.11268932
000130 4f 61 17 3e 36 6d 55 3c 7d 0a 3a be 73 bd 84 3e
       0.14783214 0.013026526 -0.18168063 0.25925788
000140 de 7b 9e 3c 0e 6b a8 3d 39 86 35 be 15 5f 1a be
       0.019346174 0.08223544 -0.17726983 -0.15075333
000150 3a 3d 2b be 2b 79 1b bd d8 2f 96 bc f9 a2 09 3e
       -0.16722575 -0.03795735 -0.01833336 0.13441075
000160 6a f8 1f be 3f ce 74 3e e6 34 51 3e 96 ac 6e 3e
       -0.15622106 0.23906802 0.20430335 0.23308024
000170 3e 79 ed bc e1 fc 53 3d 7e fe 2c be be 52 06 be
       -0.028988477 0.051754836 -0.16893956 -0.13117501
000180 43 d2 ce 3d 6d d9 f2 3d 5d 45 a1 bd b7 ff 63 3e
       0.10098698 0.11857877 -0.07874558 0.22265516
000190 4e 09 78 3e 57 7f 6f 3d f6 50 12 3e a3 f3 d9 bc
       0.242223 0.05847105 0.14288697 -0.026605433
0001a0 e7 22 f7 3d e1 b4 64 be 0b 50 71 3d b2 44 04 be
       0.12067204 -0.22334625 0.058914226 -0.1291683
0001b0 b1 70 a4 be ba 40 08 bd 25 06 14 be aa 9d 9d 3e
       -0.32117227 -0.033264853 -0.14455469 0.3078435
0001c0 f2 76 39 be f9 3b 19 3d 97 4f d6 bd ff b6 19 bd
       -0.1811178 0.03741071 -0.10464399 -0.037528034
0001d0 b9 22 19 be 1a a2 56 bd 38 25 90 bc 47 e4 1c 3e
       -0.14954652 -0.052400686 -0.017595872 0.15321456
0001e0 c0 66 16 3e 7f 4c 7c be 13 84 eb bd ed e6 d6 3c
       0.14687634 -0.24638556 -0.114998005 0.02623316
0001f0 7c f3 8a be 60 16 5d 3e e6 6b da bd 79 a3 44 be
       -0.2713889 0.21590567 -0.10665111 -0.19202985
000200 d5 70 8c be ce d5 38 3e ea 8a 01 3e 93 e3 97 be
       -0.27429834 0.1805031 0.12650648 -0.29665813
000210 10 76 33 be 2a 5e 74 3d 25 a8 1e 3e f4 ce 2e bd
       -0.17525506 0.059660114 0.1549383 -0.042677835
000220 47 c2 9c 3d a2 f0 15 be 25 00 86 bd d6 51 8c 3d
       0.07654243 -0.14642575 -0.06542996 0.068515465
000230 23 d5 4a 3e 3c f7 74 be 07 03 46 be 7a 3f e1 bd
       0.19807868 -0.23922437 -0.19337092 -0.10998435
000240 36 29 e3 bd 94 37 04 3e 99 80 4b 3e f7 ee 66 3e
       -0.11091845 0.12911826 0.19873275 0.22552095
000250 ad 8d ae bd 4b d0 a1 b9 ec 01 5f 3e 47 16 ab 3d
       -0.08523116 -0.00030863503 0.21778077 0.083538584
000260 be 71 81 3d 93 91 00 be be 00 f4 3d ac eb 83 3d
       0.06320523 -0.12555532 0.11914204 0.06441435
000270 d2 37 75 be 10 c7 9c bc 7c e3 7c 3d 5c e8 70 3e
       -0.23947075 -0.01913789 0.061740384 0.23526138
000280 d6 36 ba bc 96 54 72 3d 57 c2 f9 bd 99 a5 9e 3c
       -0.022731226 0.0591627 -0.121952705 0.019366072
000290 a4 2f fa bd ce f2 33 be d7 bc c8 39 3b 48 3b 3e
       -0.12216118 -0.17573091 0.0003828767 0.18289272
0002a0 4c 03 b3 be 69 35 27 be f4 be ca bd c3 c7 31 3e
       -0.34963453 -0.16328968 -0.09899703 0.1736136
0002b0 f0 de 49 3e 56 13 48 3e 1c eb d4 3c fe 22 6b be
       0.1971395 0.19538626 0.025991015 -0.22962567
0002c0 dd b6 f4 bd c2 ba dd bd ca 55 7f be a9 bd 1b be
       -0.11948941 -0.10826637 -0.2493507 -0.15209068
0002d0 e9 a9 d9 3d cd 86 4f 3e 0f b3 85 be d0 d4 41 bd
       0.10628111 0.20266266 -0.26113173 -0.047322094
0002e0 a5 f1 44 3e 2b 1f 3b 3e 08 e9 27 3d a1 7e dd bd
       0.19232805 0.18273608 0.04099372 -0.10815168
0002f0 43 f4 c8 bd c5 e2 84 3e 05 d9 bd 3d 66 d1 21 be
       -0.09812214 0.2595426 0.09269909 -0.15802535
000300 a6 bf 77 be 33 ce 09 3e 80 69 0e 3b b2 67 35 be
       -0.24194202 0.13457565 0.0021730363 -0.17715338
000310 25 a8 0c 3e 31 52 3e 3e 1f 30 4d 3c c7 29 e9 bd
       0.13736017 0.18586041 0.01252368 -0.113849215
000320 c1 ad 2e be 50 cb 28 be 0e 5e 1d be ac 7d 46 be
       -0.1705847 -0.16483808 -0.1536791 -0.19383878
000330 c9 99 1c bd c4 40 81 3d 00 4a 72 3c a5 af 2d 3e
       -0.0382326 0.06311181 0.014788151 0.16961534
000340 87 0a 25 3e f5 51 2a be 11 0f cf 3d f6 2d 19 3e
       0.16117297 -0.16632827 0.101102956 0.14958939
000350 67 4d 18 3e 42 b7 50 be a1 03 88 be 33 5f 08 be
       0.14873277 -0.20382407 -0.2656527 -0.13317566
000360 63 9e 77 bc 11 c5 00 3e 7a 85 64 be 88 8a ea 3d
       -0.015113446 0.12575175 -0.22316542 0.11452204
000370 ee b1 8e 3d 50 fc d4 3c d7 36 25 3e 31 51 7f be
       0.06967531 0.025999218 0.16134201 -0.24933316
000380 20 04 56 be f2 c8 35 be d4 50 c3 3d 65 8a 79 be
       -0.20900011 -0.17752436 0.09536901 -0.243692
000390 27 73 58 3d 54 04 71 be b3 6f 8b 3d e0 5c 63 be
       0.052844193 -0.23536807 0.06808414 -0.22203398
0003a0 ee 81 18 be f7 f5 05 3e 90 92 33 be 1d c5 28 3c
       -0.14893314 0.1308211 -0.17536378 0.010300902
0003b0 d8 80 86 3d d1 e4 84 bb 6d f4 a8 bd 30 07 5d be
       0.06567544 -0.0040555974 -0.082497455 -0.21584773
0003c0 65 e2 50 be 3c 08 37 3d 60 23 9b bd ba 40 cd 3d
       -0.20398863 0.044685587 -0.075751066 0.10022111
0003d0 91 9b 1f 3e 62 15 94 3e 22 d5 53 3e 0b c8 84 bd
       0.15586688 0.28922564 0.20686772 -0.06483468
0003e0 9b a5 02 3e dd f5 d2 3d 45 d5 b8 bd bd 9c 09 3e
       0.12758486 0.10300801 -0.09025053 0.13438697
0003f0 9c dd 00 be 20 af 1a 3e 30 14 d0 bd f0 9c 6e be
       -0.12584537 0.15105867 -0.101601005 -0.23302054

fc1.bias f4 [16]
000000 60 f0 5c be c7 fa 4a bd c2 e8 04 be 60 1d 19 bc
       -0.21576071 -0.049555566 -0.12979415 -0.009345382
000010 40 b3 a4 3e 84 a3 d7 bd 80 ef 6a bd f7 28 9f 3d
       0.32168007 -0.10529235 -0.05735731 0.07771485
000020 d5 fe af bc 07 45 b8 3d b8 8f 7a be ce a3 31 3d
       -0.021483818 0.08997541 -0.24468887 0.043369107
000030 95 ce 60 be 0d 90 28 3c 28 10 14 be 6e d6 7a 3e
       -0.21953805 0.010288251 -0.14459288 0.24495861

fc2.weight f4 [12, 16]
000000 f4 5a 96 bd 38 c2 31 3b 64 e5 d7 bd e3 83 30 3e
       -0.07341567 0.002712382 -0.105418 0.17237811
000010 65 01 39 3e e7 a4 d3 3d 5c 38 a6 3e 2a e7 c9 bc
       0.18066938 0.10334187 0.32464874 -0.02464636
000020 7f 82 75 3e 67 9b 68 3e 36 82 47 3e ad 58 c3 3d
       0.23975562 0.22715531 0.19483265 0.09538398
000030 e3 08 65 3e 2e 22 b5 3d 59 c0 f3 3d 29 0c ee bd
       0.22366671 0.0884441 0.11901922 -0.11623413
000040 93 fa 3a be cc 55 02 be cc 3f 54 3e 3a d9 1a bd
       -0.18259649 -0.12728041 0.20727462 -0.03780482
000050 21 1e 66 3e ef 81 80 be 6a e6 f8 3c 08 c3 59 be
       0.22472431 -0.2509913 0.030383307 -0.21265805
000060 0a 1c 7a be d4 dd 78 be eb 9e f3 bc f4 fc 8f bd
       -0.24424759 -0.2430337 -0.029738864 -0.07030669
000070 50 19 1d be 4c 1d e4 bd 34 ea 93 bd 7d 10 97 3d
       -0.15341687 -0.111384004 -0.07222405 0.07376192
000080 d9 cd 3e 3e fb e0 36 3e 98 bd 5e 3d bb 37 2a 3e
       0.18633212 0.1785926 0.05438003 0.16622822
000090 51 3c 95 3e 39 79 f3 bd 55 d6 9f 3e 5f a8 dc bd
       0.2914758 -0.11888356 0.3121821 -0.10774302
0000a0 4f df 8e bd e9 b4 77 3e ac 95 a5 3d c8 1a e4 3d
       -0.069761865 0.24190105 0.08085188 0.111379206
0000b0 77 fa cd bd 6b 02 9b bd d0 1c eb 3d 14 1b e2 3d
       -0.10057538 -0.075688206 0.11480105 0.11040321
0000c0 13 0f 6d 3e ee 7c dd 3d 76 a4 a1 bc e5 9b a2 bd
       0.23150282 0.10814844 -0.019731741 -0.07939891
0000d0 e5 1c 85 3d 96 06 a7 3d ac 64 87 3e a2 ac e3 bd
       0.06499652 0.08155553 0.26443994 -0.111169115
0000e0 bd 7c fd 3d 09 65 a3 3d 54 be 2f 3e 56 83 0c 3c
       0.123773076 0.07978255 0.17162448 0.008576235
0000f0 b4 74 d9 bd df 4e 99 3d 51 ff 26 3e fd d1 94 3d
       -0.106179625 0.074857466 0.16308333 0.072666146
000100 00 36 6a 3b f2 13 3e be 48 09 72 bd d2 11 14 be
       0.0035737753 -0.18562296 -0.059090883 -0.14459923
000110 6c 6e 9b bd 60 13 63 bc a0 12 82 3d 00 53 01 3b
       -0.07589421 -0.0138596 0.06351209 0.001973331
000120 1c 57 b6 3d e2 f3 02 be 00 18 33 3b 00 dc 2a 3b
       0.089033335 -0.12788346 0.0027327538 0.0026071072
000130 1a a1 3b 3e ca 81 71 be 42 98 1f 3e 78 91 8b bd
       0.18323174 -0.23584667 0.15585425 -0.06814855
000140 04 86 23 3d 80 67 e2 bd 46 a4 56 3d d6 ad dd 3d
       0.03992273 -0.11054897 0.052402757 0.10824172
000150 45 fe 2b bc e5 2f 64 3e a4 9d 01 bd 6a 06 5e be
       -0.010497634 0.22283895 -0.03164448 -0.21682134
000160 6a 10 0f 3e 1e 25 20 be f8 1f 7c be 74 60 8b bd
       0.13971105 -0.15639159 -0.2462157 -0.06805506
000170 b0 10 d8 3c 2f bd 35 be f0 f8 67 3e d2 9a 22 3e
       0.026375145 -0.17747949 0.22653556 0.15879372
000180 1a 49 83 3c dd 6c 05 3e 72 fc d1 bd d1 39 15 be
       0.016026068 0.1302981 -0.10253228 -0.14572836
000190 3f 2e cc 3d 5e bc 54 be 12 56 a9 bc 6b e6 f7 3d
       0.09969758 -0.20774981 -0.020670924 0.121044956
0001a0 4a d1 92 3d f7 58 be 3d 92 02 a0 bd 28 25 9d bd
       0.07168825 0.092943124 -0.0781299 -0.076731026
0001b0 1f bf b2 3d dd 53 19 be ac f4 32 be 98 8c bb bd
       0.0872786 -0.14973398 -0.17476147 -0.091576755
0001c0 da 60 11 3e 57 be 14 be 45 1a d4 3d 15 14 06 3e
       0.14197102 -0.14525734 0.10356573 0.13093598
0001d0 70 2e 4d be c5 5d 62 3d 8d 02 10 3e 56 fd 0c 3c
       -0.20037246 0.055265207 0.14063473 0.008605322
0001e0 ff 2f 44 3e 25 93 e5 3d 7f 44 5a 3d fc 6a 41 be
       0.19158934 0.11209706 0.05328798 -0.18888468
0001f0 5c fc 6a 3e b6 c4 98 3c 64 9d e3 bd 9a 9b 26 be
       0.2294783 0.018648487 -0.11114004 -0.16270295
000200 0c 4c 02 be 40 da a4 3d fc e9 c5 bd f8 22 97 bd
       -0.12724322 0.080494404 -0.096637696 -0.07379717
000210 88 8b 62 be 1c db f9 bd 8c c7 9e bd e6 ee 61 be
       -0.2212354 -0.12199995 -0.07752904 -0.22063789
000220 70 b6 dd bc d0 c2 1a 3e 90 30 39 be 92 48 6a 3e
       -0.027064532 0.15113378 -0.18084931 0.22879246
000230 e0 47 4e 3c d4 c2 ca 3d b6 82 3e 3e 26 93 7a be
       0.0125903785 0.09900442 0.1860455 -0.24470195
000240 34 73 cb bd c4 4f 07 bd 40 8e ac 3c f1 1e 24 be
       -0.099340826 -0.033035055 0.021063924 -0.16027428
000250 19 8a ec bd 98 c0 95 bd 40 c8 8e 3c c0 60 bc 3d
       -0.115497775 -0.07312125 0.017429471 0.09198141
000260 84 33 20 3e 2c 33 3d be e8 28 83 bb 60 6f ec bd
       0.15644652 -0.18476552 -0.004002679 -0.115446806
000270 f8 8a e6 3d 50 1a 7a bd cc e0 bd bd 67 ed 29 bd
       0.11256975 -0.06106025 -0.09271392 -0.04148617
000280 18 9f 67 3e 56 b6 e1 3d ad 93 6d be 87 be 18 be
       0.22619283 0.11021106 -0.23200865 -0.1491643
000290 89 d2 3e be 99 4f b2 3d fc 0d 12 be e5 8c 68 3d
       -0.18635 0.08706588 -0.14263147 0.056774992
0002a0 f5 14 21 3e f0 81 26 3e 10 a5 68 3e 39 cc ce 3d
       0.1573065 0.16260505 0.22719216 0.10097546
0002b0 a4 c1 02 be 67 b7 23 3e 20 2e 51 bd 9f 9a 93 be
       -0.1276918 0.15987931 -0.05106938 -0.28828904
0002c0 f8 4b 1b be d0 26 dc bd 26 60 49 be 06 35 41 3e
       -0.15165699 -0.107495904 -0.19665584 0.18867883
0002d0 a0 cd bc bc bc 05 e1 bd 34 56 ec bd 0c 91 c6 bd
       -0.023047268 -0.10987422 -0.115398794 -0.09695634
0002e0 10 8d 18 3d 28 b8 17 bd 76 29 55 be d8 fe c0 3d
       0.037243903 -0.03704086 -0.20816597 0.094236076
0002f0 00 10 7d bd a8 e5 60 be a0 58 90 bc 16 52 5c be
       -0.061782837 -0.21962607 -0.017620385 -0.21515688

fc2.bias f4 [12]
000000 03 38 7e 3e 2a fe 4b be d2 30 19 bd 07 c1 17 3e
       0.24826054 -0.19921175 -0.037400074 0.14819728
000010 f8 a8 67 3e fa 4f 01 be 67 ca fd bc 69 1e b0 3d
       0.2262305 -0.12628165 -0.030980302 0.0859955
000020 74 cb d4 bd 68 70 45 bd e0 f0 7a be 60 0e d1 3d
       -0.10390368 -0.048202902 -0.24505949 0.1020782

fc3.weight f4 [10, 12]
000000 4c 96 14 3e 6a eb be 3d a4 5a 3d 3e 6f b8 b4 bb
       0.14510459 0.093222454 0.18491608 -0.0055151503
000010 2c 15 57 be ed d2 4c 3d 2a 42 c5 bd c1 d9 1f be
       -0.2100417 0.050005842 -0.096317604 -0.1561041
000020 04 f7 87 3e 60 e4 65 3c 92 03 37 3e 50 36 84 3e
       0.26555645 0.0140315 0.17872456 0.25822687
000030 05 ad 8c bd ec 7b 8a be a5 44 9d 3e 6f bc 45 bd
       -0.06868938 -0.2704767 0.30716434 -0.048275407
000040 e4 02 26 bd 36 60 9b 3e 17 42 42 3e e3 c8 97 bd
       -0.0405301 0.3034684 0.18970524 -0.07411363
000050 7d cb 7c be ed 50 8d be 82 06 06 be cc 90 59 3e
       -0.24687 -0.27600804 -0.1308842 0.21246642
000060 2e 09 68 3e c8 c5 2d 3d f8 79 13 3d 0c 4a 66 3e
       0.22659752 0.042424947 0.03600499 0.22489184
000070 40 a4 e4 bc 50 45 b2 bd 22 cc 6d 3e 1e 09 89 3b
       -0.027910352 -0.087046266 0.23222402 0.004181995
000080 ec fc 3a be fc bb 60 bd 23 01 e9 3d 5b 36 83 be
       -0.18260545 -0.054866776 0.1137717 -0.25627407
000090 45 81 af 3d 00 53 85 be 12 56 7e 3e 81 58 a0 bd
       0.08569578 -0.26039886 0.2483752 -0.07829381
0000a0 c0 51 f4 bc e4 a6 82 3d 8a 43 9b bd fc be 70 3d
       -0.029824138 0.06379488 -0.075812414 0.058775887
0000b0 10 11 f1 3c ce 8f 87 be b1 0b 18 3e 18 6d a6 3d
       0.029427081 -0.26476902 0.1484821 0.08126277
0000c0 a2 08 cc bd 5c 0c 45 be 4c 57 b7 3e 37 a2 e3 bc
       -0.09962584 -0.19242996 0.3580879 -0.027787311
0000d0 90 a4 ab 3c 0b 66 aa 3c 12 50 12 3c 11 1d 16 be
       0.020952493 0.020800611 0.008930223 -0.14659525
0000e0 83 ad 1a be 93 71 7b be ab 48 4f bd d0 e2 30 3d
       -0.15105252 -0.24555044 -0.05060641 0.043185055
0000f0 12 c6 49 3e 29 85 ae bd 14 ea c8 3c 06 60 13 3e
       0.19704464 -0.08521492 0.02452568 0.14392099
000100 15 e6 7b be 41 9b 4b be 96 3f e9 3d 63 b5 df bd
       -0.24599488 -0.19883443 0.11389081 -0.10923269
000110 d8 d4 05 bd 00 19 d0 ba 51 e8 2c be ae b4 13 3e
       -0.032673687 -0.0015876591 -0.16885497 0.14424393
000120 94 d3 7d 3e 8d 74 7f bd 5e 88 f8 3b a4 0a eb bb
       0.24787742 -0.06236701 0.0075846156 -0.0071728993
000130 ce d3 27 3e a2 60 57 3e 7d b9 0d be 9e cd 5c 3e
       0.16389391 0.21032956 -0.1384029 0.21562812
000140 a0 cb da 3c c8 e4 1b 3d 3b a4 ed bc 74 2a af 3d
       0.026708424 0.03805998 -0.029008975 0.08553019
000150 0e ad 97 3e 72 05 83 3d 37 ea 91 bd e1 e7 9b 3e
       0.29624218 0.06397523 -0.07124751 0.30450347
000160 d6 e3 53 3e d5 be 1d be cd 18 4a 3d 16 c6 99 3d
       0.20692381 -0.15404828 0.049340058 0.07508485
000170 16 77 58 be fa 04 2f 3e f4 51 54 3e 60 d1 04 be
       -0.21139178 0.17091742 0.20734388 -0.12970495
000180 9f a0 45 3e 1d 82 96 bd 75 35 4f bc c4 63 60 3e
       0.19299553 -0.07349036 -0.0126470225 0.21913058
000190 00 24 40 3a 5e 25 50 3e bf a7 5b 3d 6e b3 a5 bc
       0.0007329583 0.20326754 0.053626772 -0.02022716
0001a0 30 52 21 3d ba 6f 30 3e 62 e3 37 3d 6a 55 ff bd
       0.03938502 0.1723012 0.044894584 -0.12467463
0001b0 38 5f 9f 3d 3b 69 59 3c 8c 1f 08 bd c8 1d a1 3e
       0.077818334 0.013269718 -0.03323321 0.31468034
0001c0 50 77 4f 3e 0a c6 92 bd 29 05 51 be d8 51 ed 3c
       0.20260358 -0.07166679 -0.20412125 0.02896969
0001d0 64 6f c5 bd 60 17 29 bc 4a 23 7e 3e 8a 22 30 be
       -0.09640387 -0.010320514 0.24818149 -0.17200676

fc3.bias f4 [10]
000000 f1 51 91 ba 2d 5c ee 3c a8 9f 18 be 49 f1 1f 3d
       -0.0011087043 0.029096687 -0.14904654 0.039048467
000010 77 2e 0b 3d dd 4a 9e 3d 30 a7 90 3e d5 e1 4f 3b
       0.03397986 0.07729123 0.28252554 0.00317203
000020 6a 30 0b 3d 8b 0b 4d 3e
       0.033981718 0.20023935
