dqn_normal.pth (torch, 5030 bytes, 6 tensors)

fc1.weight f4 [16, 16]
0	0x3e0e190f	0.13876747
1	0x3dc5d0bb	0.09658953
2	0x3e1086e6	0.1411396
3	0xbdf5c23b	-0.11999937
4	0xbe2a11a3	-0.1660829
5	0xbd95ef1e	-0.073209986
6	0xbdf8c592	-0.121470585
7	0x3e158127	0.14600049
8	0x3dc5d4e8	0.09659749
9	0xbe329838	-0.1744088
10	0x3d44c2a8	0.0480372
11	0xbe16ce30	-0.14727092
12	0x3b8d4b2d	0.00431194
13	0x3e2cb6a7	0.16866551
14	0xbb938233	-0.004501605
15	0xbdf35fe7	-0.11883526
16	0x3e8186d1	0.2529817
17	0xbe2e63bb	-0.17030232
18	0x3ee6b224	0.45057786
19	0x3e120fa7	0.14263783
20	0x3f1bee56	0.60910547
21	0x3ce9468a	0.028476018
22	0x3f5ed495	0.87043124
23	0x3f2a8c8c	0.6662071
24	0x3ca8c2a7	0.02060063
25	0xbe05fd23	-0.13084845
26	0xbdeaf09a	-0.11471672
27	0x3e1c9e29	0.15294708
28	0x3daf0ed9	0.08547754
29	0x3e0042d0	0.12525487
30	0xbde63661	-0.11240841
31	0x3f4cf1e5	0.800566
32	0x3eb60eb2	0.35558087
33	0xbe36e3fc	-0.17860407
34	0x3df0d0eb	0.11758598
35	0x3eb44690	0.35210085
36	0x3eda5810	0.4264531
37	0x3ea4ee7d	0.32213202
38	0x3f92f147	1.1479882
39	0x3e571c9c	0.21007007
40	0x3cf6ca85	0.030125866
41	0xbe800991	-0.250073
42	0x3e4c3952	0.19943741
43	0x3e1afc5a	0.15135327
44	0x3e8d3eb9	0.27586916
45	0xbe4f5dba	-0.20250598
46	0xbe4913b8	-0.19636428
47	0x3f148751	0.58018976
48	0x3ee04e8f	0.43809935
49	0xbbb240d4	-0.005439857
50	0x3b779849	0.0037779978
51	0x3ef59ef4	0.47972834
52	0x3f1c10b5	0.6096299
53	0x3ec984dc	0.39359176
54	0x3f4e8f02	0.8068696
55	0x3f777c04	0.9667361
56	0xbe23a26b	-0.15979926
57	0xbe822411	-0.2541814
58	0xbf24a23c	-0.6431005
59	0x3ddddf30	0.10833585
60	0x3df0a150	0.11749518
61	0xbe8deb80	-0.27718735
62	0xbe04f9e2	-0.12985948
63	0x3f52cb44	0.8234141
64	0x3ee488f1	0.44635728
65	0xbd84adab	-0.06478437
66	0x3e44750c	0.19185275
67	0x3e9b4947	0.30329344
68	0x3ede9960	0.4347639
69	0x3e6d82be	0.23194405
70	0x3fb8d543	1.4440082
71	0x3f04b0a1	0.51832014
72	0x3eb426d2	0.35185868
73	0xbddf9a59	-0.10918111
74	0x3dbf0232	0.093265906
75	0x3c28ffd2	0.010314899
76	0x3e76e022	0.24108937
77	0xbce3df7b	-0.027816525
78	0xbe8eee19	-0.2791603
79	0x3f75b60b	0.959809
80	0x3e608be5	0.21928366
81	0xbd44a935	-0.04801293
82	0xbdb94124	-0.09045628
83	0x3e0cd5d9	0.13753451
84	0x3cb231e2	0.021752302
85	0x3e57ca7f	0.2107334
86	0xbbbe9418	-0.005815994
87	0xbbaea097	-0.0053292024
88	0xbe6daeb6	-0.23211178
89	0xbc63a140	-0.013893425
90	0xbc3e5960	-0.011617988
91	0xbe5b23fa	-0.21400443
92	0xbe423037	-0.18963705
93	0x3e144a4a	0.14481464
94	0xbd51fd60	-0.051267028
95	0x3d8dd9f0	0.06926334
96	0x3e56826b	0.20948188
97	0xbc02bf7b	-0.007980223
98	0xbdb981f0	-0.09057987
99	0x3e59d645	0.21273144
100	0x3e5501bf	0.20801447
101	0x3d640a05	0.055673618
102	0xbe85121d	-0.25990382
103	0x3d699d71	0.057034913
104	0xbe1613e4	-0.14656025
105	0xbe885d93	-0.2663389
106	0x3d9eb19b	0.07748719
107	0xbdfcd3f5	-0.12345115
108	0x3d8af44f	0.067848794
109	0xbd859402	-0.06522371
110	0x3df2e818	0.118606746
111	0xbe8b50c7	-0.27210066
112	0x3c869890	0.01643017
113	0xbdb8b734	-0.09019318
114	0x3c517740	0.012784779
115	0xbe648220	-0.22315264
116	0x3c834490	0.016023904
117	0x3e531af0	0.20615745
118	0xbe2dbf64	-0.16967541
119	0x3e35521e	0.17707106
120	0xbd422dd0	-0.04740697
121	0xbe614100	-0.21997452
122	0xbb5af980	-0.0033412874
123	0xbd81ab38	-0.063314855
124	0xbe452628	-0.19252837
125	0xbe6a6e88	-0.22893727
126	0x3baf4b00	0.005349517
127	0xbe170c18	-0.14750707
128	0xbdaec648	-0.08533913
129	0xbdcb56d4	-0.099286705
130	0xbde0b740	-0.10972452
131	0x3e3a82e0	0.18213987
132	0x3dcdf5c4	0.10056642
133	0xbd544528	-0.051823765
134	0xbda2e87c	-0.07954499
135	0xbe7a3970	-0.24435973
136	0xbdea7ce8	-0.11449605
137	0xbe5768b4	-0.21036035
138	0xbe007284	-0.12543684
139	0xbe22fb2a	-0.15916124
140	0x3df10280	0.11768055
141	0x3df2c208	0.11853415
142	0x3cbb3430	0.022852033
143	0xbae65c00	-0.0017575026
144	0x3f81be38	1.0136175
145	0x3f7be866	0.98401487
146	0x3eb5982a	0.35467654
147	0x3f19e923	0.60121363
148	0x3f025025	0.5090354
149	0x3f2c1e71	0.6723395
150	0xbfb586b3	-1.4181732
151	0x3fcbacc5	1.59121
152	0x3e7189ca	0.23587719
153	0x3ec439c0	0.3832531
154	0xbe9ae6c3	-0.30254182
155	0xbdc6aafb	-0.09700581
156	0x3e35c088	0.17749226
157	0xbe385ffb	-0.18005364
158	0xbd62bd37	-0.05535623
159	0xbd7f7a0d	-0.062372256
160	0xbe0aba90	-0.1354773
161	0xbd5cb4f0	-0.053883493
162	0xbd92c230	-0.071659446
163	0xbd05ef28	-0.03269878
164	0x3e04c3aa	0.12965265
165	0x3de904d4	0.11377874
166	0x3dd884e4	0.10572222
167	0xbe3e0b64	-0.18559033
168	0xbdc0c2cc	-0.094121546
169	0xbe3db466	-0.18525848
170	0xbdd8dfe4	-0.10589579
171	0xbe415bfc	-0.18882746
172	0xbe620582	-0.22072414
173	0x3d845868	0.06462175
174	0x3dcc9084	0.09988502
175	0x3d7fca68	0.06244889
176	0x3e8c72d5	0.2743136
177	0x3dd5a3f9	0.10431666
178	0xbe4b7cba	-0.19871798
179	0x3d2361a8	0.039888054
180	0xbe3f2bfd	-0.18669124
181	0x3b454a6a	0.0030104169
182	0x3eabfb4a	0.33590156
183	0xbcb6f45c	-0.022333317
184	0xbe576d6e	-0.21037838
185	0xbe30396a	-0.17209402
186	0xbe9f1609	-0.310715
187	0x3e91f320	0.28505802
188	0x3d7f7e20	0.06237614
189	0xbe9069ff	-0.2820587
190	0xbea4a219	-0.3215492
191	0xbd739275	-0.059465844
192	0x3f0df3d4	0.5545018
193	0x3fa740e7	1.3066682
194	0x3e055184	0.13019377
195	0x3f0a2806	0.5396732
196	0x3e51402b	0.20434634
197	0x3eebc351	0.46047452
198	0xbf658fc8	-0.8967252
199	0xbe6a24a1	-0.22865535
200	0x3e7faba0	0.24967813
201	0x3f5f0360	0.87114525
202	0x3f4125df	0.7544841
203	0x3f03872a	0.5137812
204	0x3f38963c	0.7210424
205	0x3f149ad2	0.5804874
206	0x3e2b37fe	0.16720578
207	0xbea65d41	-0.32493022
208	0x3cd399ae	0.025830116
209	0xb9e60a9c	-0.00043876923
210	0x3c5aca2d	0.0133538665
211	0x3ed3bc53	0.41354617
212	0x3f1b21e2	0.60598576
213	0x3e22f999	0.15915526
214	0x3f80b9b2	1.005667
215	0x3f01b60c	0.50668406
216	0xbd3fe830	-0.04685229
217	0x3d74d54d	0.059773732
218	0x3df7e422	0.1210406
219	0x3e160204	0.14649206
220	0x3e17f7c2	0.14840606
221	0x3deeb838	0.11656231
222	0xbe1e7d18	-0.15477407
223	0x3f6f65e1	0.9351483
224	0x3f2e4c6e	0.6808537
225	0x3fa0da76	1.2566669
226	0x3e16893d	0.1470079
227	0x3f758a59	0.95914227
228	0x3e975de7	0.2956383
229	0x3ee95381	0.4557152
230	0xbfd54353	-1.6661171
231	0x3ffc170c	1.9694533
232	0xbe6024f9	-0.21889104
233	0x3f0e2a36	0.5553316
234	0xbf4d1611	-0.80111796
235	0x3e6168a6	0.22012576
236	0x3eb7f197	0.35926506
237	0xbdc32db3	-0.09530201
238	0x3e3e9ebb	0.18615238
239	0x3ec392ec	0.3819803
240	0x3ed1da99	0.4098709
241	0xbe930525	-0.28714862
242	0x3e32ba45	0.17453869
243	0x3ed991cf	0.42494056
244	0x3eee9533	0.46598205
245	0xbd4ce917	-0.05002698
246	0x3f940fbe	1.1567304
247	0x3f41e4b7	0.75739616
248	0x3da6f4dd	0.08152173
249	0xbacd746d	-0.0015674956
250	0xbe68319c	-0.22675174
251	0x3e935bfd	0.2878112
252	0x3d55c1d8	0.052186817
253	0xbe86ddfc	-0.26341236
254	0xbd1c5128	-0.038163334
255	0x3f503d66	0.81343687

fc1.bias f4 [16]
0	0xbe556000	-0.20837402
1	0x3f2d9b4f	0.6781511
2	0x3f50e802	0.81604016
3	0x3f4a6783	0.79064196
4	0x3f4b935c	0.7952173
5	0xbe4ae715	-0.19814713
6	0xba5b2407	-0.00083595555
7	0xbe120d00	-0.14262772
8	0x3defeef4	0.117154986
9	0x3e78ddbb	0.24303333
10	0x3e412ef8	0.18865573
11	0x3dac7584	0.08420852
12	0x3db3a750	0.08772147
13	0x3f806891	1.0031911
14	0x3e2f288c	0.17105311
15	0x3f349935	0.70546275

fc2.weight f4 [12, 16]
0	0xbdf50822	-0.11964442
1	0x3f1f3f7f	0.6220626
2	0x3efcb605	0.4935762
3	0x3f5647e1	0.8370343
4	0x3f154855	0.58313495
5	0xbdf2b9c1	-0.11851836
6	0x3e084ee0	0.13311338
7	0x3e72987e	0.23690984
8	0xbd3fba50	-0.04680854
9	0xbe6a632f	-0.22889398
10	0xbd1db248	-0.0385001
11	0x3f063cfe	0.52436817
12	0xbf54add7	-0.8307776
13	0x3e8b532a	0.27211887
14	0x3ef9bf87	0.48778936
15	0x3f1165aa	0.5679575
16	0x3dd775e6	0.10520534
17	0x3ebd66d1	0.36992505
18	0x3eeae877	0.45880482
19	0x3f46ffbb	0.77733964
20	0x3ef8eb53	0.48617038
21	0x3df2750b	0.118387304
22	0xbd674e20	-0.05647099
23	0xbcda6830	-0.026661009
24	0xbe4d0b9c	-0.2002396
25	0xbfbc3bd7	-1.4705762
26	0xbcbd1310	-0.023080379
27	0x3eccd33c	0.4000491
28	0xbf76cb26	-0.9640373
29	0x3d9637fc	0.07334897
30	0xbefc1f91	-0.49242833
31	0x3f00020a	0.5000311
32	0x3c8469c8	0.016163722
33	0x3f2120e2	0.629408
34	0x3f1df182	0.61696637
35	0x3f6ff23c	0.93728995
36	0x3eb04771	0.34429505
37	0xbe4a8e80	-0.19780922
38	0x3cc234d9	0.02370684
39	0x3e643822	0.22287038
40	0x3d0245c0	0.0318048
41	0xbe1632df	-0.14667843
42	0xbdd1e130	-0.10248029
43	0x3eea2288	0.4572947
44	0xbe0d8933	-0.13821869
45	0x3ebbef8e	0.36706203
46	0x3f3027ef	0.68810934
47	0x3f2c6f98	0.6735778
48	0x3df50008	0.119628966
49	0xbe04d2a6	-0.12970981
50	0x3e4f4a32	0.20243147
51	0xbe6c08a6	-0.23050174
52	0xbd01b1a8	-0.031663567
53	0x3ca61cb0	0.020277351
54	0xbe6f3a96	-0.23362193
55	0xbddf997c	-0.10917947
56	0xbe1c7ff8	-0.15283191
57	0x3dcd4718	0.10023326
58	0xbb135500	-0.0022481084
59	0x3e2c54ec	0.1682927
60	0x3d2565c0	0.04038024
61	0xbe6df77c	-0.23238939
62	0x3d86d408	0.065834105
63	0xbe0b6554	-0.13612872
64	0x3d744171	0.059632722
65	0x3f063daf	0.5243787
66	0x3f41d076	0.7570871
67	0x3efdbd51	0.495585
68	0x3f1c4acb	0.61051625
69	0xbe555d25	-0.20836313
70	0x3e4130f5	0.18866332
71	0x3e4e7752	0.20162705
72	0x3d3ec6f8	0.04657647
73	0xc00710dc	-2.110404
74	0x3de073d8	0.109595954
75	0x3e367e58	0.17821634
76	0xbfb720a1	-1.4306833
77	0x3e9379a1	0.28803733
78	0xbf9fea98	-1.2493467
79	0x3eaf878b	0.342831
80	0xbe53b951	-0.20676161
81	0x3e073045	0.13202007
82	0xbee0e8c3	-0.43927583
83	0x3f248e1c	0.6427934
84	0xbe97e858	-0.29669452
85	0x3d903688	0.07041651
86	0xbe76214a	-0.24036136
87	0xbbdfcb40	-0.006829649
88	0x3e09d3de	0.13459727
89	0x400ef5a4	2.2337427
90	0xbe46b73c	-0.19405836
91	0xbe7f09f0	-0.24906135
92	0xbf1ec02b	-0.62011975
93	0xbd9cc5dd	-0.07654927
94	0x3ffeebf9	1.9915763
95	0x3dea1c2d	0.11431155
96	0x3dfb28e4	0.12263659
97	0x3e55880e	0.20852682
98	0xbe3a8426	-0.18214473
99	0xbdc5b1ad	-0.096530296
100	0xbe096529	-0.13417496
101	0xbc87a910	-0.016560107
102	0x3e4d4c6a	0.20048681
103	0x3d36af80	0.044600964
104	0x3e6e6a02	0.23282626
105	0xbdb32ba0	-0.08748555
106	0x3d70d968	0.058801085
107	0x3dad6d44	0.084681064
108	0xbe8035f9	-0.25041178
109	0x3dde43f8	0.10852808
110	0xbdc406d0	-0.09571612
111	0xbcad12bc	-0.021127097
112	0x3d02e60f	0.031957682
113	0x3c003759	0.007825696
114	0xbd7871cc	-0.0606554
115	0xbd237f4f	-0.039916333
116	0x3b406126	0.002935478
117	0xbd8b7fd8	-0.06811494
118	0x3e7ec760	0.24880743
119	0x3e7b0dba	0.24516955
120	0xbdba099c	-0.09083864
121	0xbd988e49	-0.07449014
122	0x3da7e8a0	0.081986666
123	0xbe65fd54	-0.22459918
124	0xbc03f8f5	-0.008054961
125	0xbe672746	-0.22573575
126	0x3def8f0c	0.11697206
127	0x3de0ae97	0.109708
128	0xbe091b9e	-0.13389441
129	0x3f25bb9e	0.64739406
130	0x3f0f5c76	0.5600046
131	0x3f65238d	0.8950737
132	0x3f27b523	0.6551077
133	0x3e405c26	0.18785152
134	0xbe1a2603	-0.15053563
135	0xbe21513a	-0.15753642
136	0x3d2c87a0	0.04212153
137	0xbe6eecd9	-0.23332538
138	0xbe4df39c	-0.20112461
139	0x3ec7ae36	0.390001
140	0xbf2931a8	-0.66091394
141	0x3ed40d6f	0.414165
142	0x3f00266f	0.50058645
143	0x3e8034b2	0.25040203
144	0xbd8a0f04	-0.06741145
145	0x3b07d800	0.0020728111
146	0xbe567e18	-0.20946538
147	0xbe1dc604	-0.15407568
148	0xbd1b3b20	-0.037898183
149	0x3d49e4f0	0.049290597
150	0xbda0a410	-0.078437924
151	0xbe09a4ea	-0.13441816
152	0x3cad5e50	0.021163136
153	0xbcbfacc0	-0.023397803
154	0xbdba1200	-0.090854645
155	0x3df3e3f4	0.11908713
156	0xbca82e50	-0.020529896
157	0xbdbd2be0	-0.09236884
158	0xbddd0b84	-0.10793212
159	0xbd7614f0	-0.06007856
160	0xbe649b2d	-0.2232482
161	0x3f5b2e28	0.85617304
162	0x3f5822a2	0.84427845
163	0x3f06719c	0.52517104
164	0x3f682b07	0.90690655
165	0xbd36875f	-0.044562694
166	0xbdad40c0	-0.08459616
167	0xbe635d9c	-0.22203678
168	0x3b7f6f00	0.0038976073
169	0xc015211e	-2.3301463
170	0xbe493704	-0.19649893
171	0x3e9128fc	0.2835158
172	0xbf545c02	-0.8295289
173	0x3f3458b1	0.7044783
174	0xbff1781a	-1.8864777
175	0x3efced2c	0.49399698
176	0xbd0844c4	-0.033268705
177	0xbd93ae49	-0.07210977
178	0xbe1ae5cc	-0.15126723
179	0xbe62e5ab	-0.22157924
180	0xbe62780d	-0.22116108
181	0xbe7e4f52	-0.24834946
182	0xbdfd89bc	-0.12379786
183	0x3d73ac60	0.05949056
184	0xbe239b58	-0.15977228
185	0xba66941c	-0.0008795874
186	0x3e6f3af6	0.23362336
187	0x3e4c08fa	0.199253
188	0x3cfd09a4	0.030888386
189	0x3e64cf95	0.22344811
190	0xbe5c8092	-0.2153342
191	0xbdbd28bb	-0.09236284

fc2.bias f4 [12]
0	0x3eac8325	0.33693805
1	0x3ed79ee7	0.4211342
2	0x3f6aac9c	0.9166963
3	0xbe637560	-0.22212744
4	0x3ec54b7b	0.3853415
5	0x3e569ddc	0.20958656
6	0x3c7ac3c0	0.0153054595
7	0xbe628f2e	-0.22124931
8	0x3f384160	0.71974754
9	0x3e1f847a	0.1557788
10	0x3f248519	0.6426559
11	0x3df80d4b	0.121119104

fc3.weight f4 [10, 12]
0	0xbd037611	-0.03209502
1	0xbe80bc27	-0.2514355
2	0xbe782dee	-0.24236271
3	0x3e1b9f7c	0.15197557
4	0x3d8b40fc	0.06799504
5	0x3c9af4da	0.018915582
6	0x3e5daf38	0.21648872
7	0xbde243ee	-0.11048113
8	0x3db0a104	0.08624461
9	0xbe8be340	-0.27321815
10	0x3d7b4b94	0.061351374
11	0x3d0a9468	0.033832937
12	0x3e5529e1	0.20816757
13	0xbd356130	-0.04428214
14	0xbede6ef1	-0.43444017
15	0x3d752900	0.059853554
16	0x3c5548f9	0.013017886
17	0xbeb32281	-0.34987262
18	0x3e6f2cd0	0.23356938
19	0xbdb80ee5	-0.08987216
20	0xbed642c8	-0.41847825
21	0xbe81a653	-0.25322208
22	0x3eeaa32a	0.4582761
23	0xbe818024	-0.25293076
24	0xbf547a31	-0.8299895
25	0xbd98c001	-0.07458497
26	0xbf82a067	-1.0205201
27	0x3e2374b6	0.1596249
28	0x3e8c675f	0.27422616
29	0xbf102291	-0.56302744
30	0x3da8eec8	0.08248669
31	0xba7adb66	-0.0009569436
32	0xbf060a72	-0.5235969
33	0xbe548768	-0.20754778
34	0xbe09b057	-0.13446175
35	0x3e42add1	0.19011618
36	0x3ef5050f	0.47855422
37	0x3e07f776	0.13277993
38	0x3e143752	0.14474228
39	0xbdf188c0	-0.11793661
40	0xbe8179d1	-0.2528825
41	0x3d862e16	0.06551759
42	0xbe31c2d2	-0.17359474
43	0xbb3775ec	-0.002799387
44	0x3ce503c8	0.027955905
45	0xbe73c99d	-0.23807378
46	0xbdcbf1e1	-0.09958244
47	0xbe59cc11	-0.21269251
48	0x3d6c258b	0.05765299
49	0xbcc50dbc	-0.0240544
50	0x3f2bc301	0.6709443
51	0xbe1d9a6d	-0.1539094
52	0xbe248328	-0.16065657
53	0x3f0f6c9c	0.560251
54	0x3e74eee8	0.2391926
55	0x3e744061	0.23852684
56	0x3edf9d22	0.4367457
57	0xbde98c08	-0.11403662
58	0xbece3954	-0.40278113
59	0xbd62f9b0	-0.0554139
60	0x3f18c808	0.59680223
61	0x3f19aa75	0.6002572
62	0x3f2f3aa6	0.68448865
63	0x3d0c2cf0	0.034222543
64	0xbc80dce4	-0.015730329
65	0x3f3c3deb	0.7353198
66	0x3e07f19e	0.13275763
67	0xbe354bd8	-0.17704713
68	0x3f2401e0	0.6406536
69	0xbaabaa00	-0.0013096929
70	0x3eb5c9f4	0.3550564
71	0xbe1e95eb	-0.15486877
72	0xbf5270a5	-0.8220313
73	0xbf34901e	-0.70532405
74	0xbf08714d	-0.53297883
75	0x3c994cc0	0.018713355
76	0xbf87877e	-1.0588224
77	0x3f839464	1.027966
78	0xbdce762b	-0.100811325
79	0x3e2537fe	0.1613464
80	0xbf37e063	-0.7182676
81	0x3e87839e	0.26467603
82	0xbfb99e83	-1.4501499
83	0x3d76d580	0.060262203
84	0xbf215876	-0.63025606
85	0xbe71a0a7	-0.2359644
86	0xbe6c619e	-0.23084113
87	0x3d148c38	0.036266536
88	0xbe3ba0bf	-0.18323039
89	0xbfd391cb	-1.6528867
90	0x3dcbc160	0.09948993
91	0x3e4cbd53	0.19994096
92	0xbed74388	-0.4204371
93	0xbd294ac4	-0.041331068
94	0x3e54d205	0.20783241
95	0xbe6e2248	-0.23255265
96	0xbe859af4	-0.26094782
97	0xbf0fa304	-0.5610812
98	0xbea3867a	-0.31938535
99	0xbdebdf10	-0.11517155
100	0xbf28a840	-0.6588173
101	0xbe323842	-0.17404273
102	0xbda6fdb4	-0.08153859
103	0x3dbe4015	0.092895664
104	0xbf15e74a	-0.58556044
105	0xbe118cc7	-0.14213859
106	0xbf4bb0f5	-0.7956689
107	0xbe8b8c89	-0.27255657
108	0x3ddca9ee	0.10774599
109	0x3d179bbc	0.037013754
110	0x3ddcd640	0.107830524
111	0x3e4bafda	0.19891301
112	0x3d7e15c7	0.062032487
113	0xbd1c3d87	-0.038144615
114	0x3e5f6164	0.21814495
115	0xbc2909da	-0.01031729
116	0xbe1aa8ce	-0.15103456
117	0xbe6208b0	-0.22073627
118	0xbd82b3cc	-0.0638195
119	0xbcbf09c0	-0.023320079

fc3.bias f4 [10]
0	0x3d1779ed	0.03698151
1	0xbef98999	-0.4873779
2	0xbf3248aa	-0.69642127
3	0x3f209889	0.6273275
4	0x3f7b8101	0.9824372
5	0x3f57455a	0.840902
6	0xbf18a740	-0.59630203
7	0xbcbaa9d1	-0.022786053
8	0xbf1b878a	-0.6075369
9	0x3e86f0ad	0.26355496
