dqn_normal.pth (torch, 4966 bytes, 6 tensors)

fc1.weight f4 [16, 16]
0	0x3d683884	0.056694523
1	0xbc3fe700	-0.01171279
2	0x3cfcb711	0.030849012
3	0xbd8bea1a	-0.06831761
4	0x3e80a094	0.2512251
5	0xbd584cbb	-0.05280755
6	0xbdcc5f79	-0.099791475
7	0x3e37f4f2	0.17964533
8	0x3e17fa6b	0.1484162
9	0x3dd67037	0.10470622
10	0xbcbfcd11	-0.023413213
11	0x3ddd8ea6	0.10818224
12	0x3e2b1da7	0.1671053
13	0xbde0a846	-0.109695956
14	0xbe1672be	-0.14692208
15	0xbe52a7ce	-0.20571825
16	0xbdfe4589	-0.124156065
17	0xbd352fcb	-0.044235032
18	0xbb6323b4	-0.0034658732
19	0x3d199432	0.037494846
20	0x3d21672c	0.039405033
21	0x3e140177	0.14453684
22	0xbe160322	-0.14649633
23	0x3dcdeaa1	0.100545175
24	0x3e097f0a	0.13427368
25	0x3e538f71	0.20660187
26	0x3d5b9191	0.05360562
27	0x3d085c5a	0.0332912
28	0xbcd1b50a	-0.025599021
29	0xbe08da0b	-0.13364427
30	0xbe510a8d	-0.20414181
31	0x3d14de2d	0.036344696
32	0x3e0a5ccb	0.1351196
33	0xbdf895d1	-0.1213795
34	0xbe4e8a63	-0.20169978
35	0xbd0fed52	-0.035138436
36	0xbe3dc6f2	-0.18532923
37	0xbe73f18a	-0.23822609
38	0x3e3bb383	0.18330197
39	0xbe360fd3	-0.17779474
40	0x3d14a1a0	0.03628695
41	0x3dd31f26	0.103086755
42	0xbe31715c	-0.173284
43	0xbde4eb25	-0.11177663
44	0xbdfa3cee	-0.12218653
45	0xbdd370bd	-0.103242375
46	0x3e14fd20	0.14549685
47	0xbd83ea0c	-0.06441125
48	0xbe6d0d44	-0.23149592
49	0xbde10934	-0.109880835
50	0xbdb82504	-0.08991435
51	0x3ccd2b80	0.025045156
52	0xbce13720	-0.027492106
53	0xbe32cf46	-0.17461881
54	0x3d85a1c0	0.06524992
55	0xbe1484f0	-0.14503837
56	0xbe3dcaa4	-0.18534333
57	0xbe5f8344	-0.21827418
58	0xbd571430	-0.052509487
59	0xbd94497c	-0.072405785
60	0xbd9fe37c	-0.07807061
61	0x3e52581c	0.20541424
62	0x3d904c18	0.07045764
63	0xbe5224ca	-0.20521846
64	0xbcb961db	-0.022629669
65	0xbdae7c2e	-0.08519779
66	0xbe11e374	-0.14246923
67	0xbea91aa0	-0.33028126
68	0xbe237ae1	-0.15964843
69	0xbe828f9d	-0.25500193
70	0xbe73adac	-0.2379672
71	0xbb9e51e3	-0.004831539
72	0xbe6aa9eb	-0.22916381
73	0x3e06efb5	0.13177378
74	0x3e9854c8	0.29752183
75	0x3d03286b	0.032020967
76	0x3e08776c	0.13326806
77	0x3da2277c	0.07917687
78	0xbe643cc1	-0.22288801
79	0x3d280dbe	0.04102873
80	0xbe2143cc	-0.15748519
81	0xbd95cd01	-0.07314492
82	0xbe05ae99	-0.13054885
83	0xbde297cf	-0.110641114
84	0xbe333ca0	-0.17503595
85	0xbebf7392	-0.3739286
86	0xbe147db5	-0.14501078
87	0xbded01bf	-0.11572599
88	0xbe36bbc1	-0.1784506
89	0x3e58c043	0.21167092
90	0x3e417644	0.18892771
91	0x3e6d265b	0.23159163
92	0xbd5b71a7	-0.053575184
93	0x3bee43c2	0.007271261
94	0x3e0c7e6b	0.137201
95	0xbcda266d	-0.026629651
96	0xbe20edee	-0.15715763
97	0xba7799b8	-0.0009445208
98	0x3de17b18	0.110098064
99	0xbce793ce	-0.028268721
100	0xbe8625e7	-0.26200792
101	0x3e153870	0.1457231
102	0xbd5f058b	-0.054448646
103	0x3d97845a	0.07398291
104	0xbdf2c190	-0.11853325
105	0xbd27c980	-0.04096365
106	0xbd9e045b	-0.077156745
107	0x3e055294	0.13019782
108	0x3d482d2c	0.048871204
109	0xbe5c0f51	-0.21490218
110	0xbd1b90fb	-0.03798006
111	0x3dfe4ab0	0.12416589
112	0x3e22904a	0.15875354
113	0x3d05f9dc	0.032708988
114	0xbd2686c8	-0.04065588
115	0x3dec38aa	0.11534245
116	0xbdf704c3	-0.12061455
117	0x3d89a171	0.06720246
118	0xbe416a95	-0.18888314
119	0x3e1ff7ca	0.15621868
120	0xbd635762	-0.055503257
121	0x3e202fe3	0.15643267
122	0x3e3ad670	0.18245864
123	0x3d81fe42	0.06347324
124	0xbd9f3b26	-0.077749535
125	0x3dd52a6d	0.10408483
126	0x3dbe4af8	0.09291643
127	0xbb9bd1e0	-0.0047552437
128	0xbcab86cb	-0.020938298
129	0x3e566752	0.20937851
130	0x3dc26eaa	0.09493764
131	0x3e1254e9	0.14290203
132	0x3cf957ca	0.030437369
133	0xbd9c41f4	-0.07629767
134	0x3d2a07c6	0.04151132
135	0x3ddf79e8	0.10911924
136	0xbe83fdaf	-0.25779483
137	0x3d65c485	0.05609562
138	0x3e53e84d	0.20694084
139	0x3d75bf83	0.059997093
140	0x3dcb1aaf	0.09917199
141	0x3de622b7	0.1123709
142	0xbe0c2bf9	-0.13688649
143	0xbe541201	-0.20709993
144	0xbde1de8e	-0.11028777
145	0x3b1b1c32	0.0023667929
146	0xbe1b2935	-0.15152438
147	0x3df7c66a	0.12098391
148	0xbe760ab5	-0.24027522
149	0x3e088b29	0.13334335
150	0xbe8ff289	-0.28114727
151	0x3d037073	0.03208966
152	0xbe03f868	-0.12887728
153	0xbe51f3af	-0.20503114
154	0x3d69c560	0.057072997
155	0x3d5a051c	0.05322753
156	0x3b18e338	0.0023328792
157	0x3e23a1a8	0.15979636
158	0x3e3cf372	0.18452242
159	0xbd67a5d3	-0.056554627
160	0xbd5820d2	-0.052765675
161	0xbe39fb44	-0.18162256
162	0x3ad1b62b	0.0015999725
163	0x3e401b50	0.18760419
164	0x3dc52897	0.096268825
165	0x3d42d2cb	0.04756431
166	0x3e4d228f	0.20032714
167	0x3dd13500	0.10215187
168	0xbe114edb	-0.14190237
169	0x3dc933bb	0.0982432
170	0x3ceb66e4	0.028735586
171	0x3e547d04	0.20750815
172	0xbd0fed9e	-0.03513872
173	0xbe1457c6	-0.14486608
174	0xbe81f720	-0.25383854
175	0x3e4fd8ec	0.20297593
176	0xbcd378f7	-0.025814516
177	0xbe24959a	-0.16072693
178	0xbd1a3df4	-0.03765674
179	0x3e36d962	0.17856362
180	0x3d9a04f7	0.07520478
181	0x3d02183c	0.031761393
182	0xbdb0d96c	-0.0863522
183	0x3e39549d	0.18098684
184	0x3c36758f	0.011136427
185	0xbd2752ea	-0.040850557
186	0xbc21e85d	-0.00988206
187	0xbdb6092e	-0.0888847
188	0x3d600ad8	0.05469784
189	0x3d9f4347	0.07776504
190	0xbe5e6dc4	-0.2172156
191	0x3e480682	0.19533733
192	0x3db9a87f	0.09065341
193	0x3e3f270e	0.18667242
194	0x3e6e04f4	0.23244077
195	0x3dcca71c	0.09992811
196	0x3dd0b386	0.101904914
197	0xbd343234	-0.04399319
198	0x3ca50799	0.020145224
199	0x3dedb154	0.11606088
200	0x3e84de07	0.25950643
201	0xbe61028e	-0.21973631
202	0xbe494049	-0.19653429
203	0xbe788556	-0.24269614
204	0xbcd71976	-0.026257258
205	0x3e0be37b	0.13660996
206	0x3e11b220	0.14228106
207	0x3d576e4a	0.052595414
208	0x3e8253f0	0.25454664
209	0xbdf39fa0	-0.118956804
210	0xbe8e2f1f	-0.27770326
211	0x3e37dcd9	0.1795534
212	0xbda0ab16	-0.07845132
213	0x3c8d65bc	0.017260425
214	0xbd6cc3fd	-0.057804096
215	0xbb772843	-0.0037713207
216	0xbe196e86	-0.14983568
217	0x3e3d35ce	0.18477556
218	0xbdb1d257	-0.08682697
219	0x3deb5437	0.11490672
220	0xbe1ba351	-0.15199019
221	0xbe533373	-0.20625095
222	0x3dd3852d	0.10328136
223	0x3e323a3d	0.17405029
224	0xbe0c3ed0	-0.13695836
225	0x3e47f9c0	0.19528866
226	0x3e7c3a57	0.2463163
227	0xbdc6bc71	-0.09703911
228	0xbdd02822	-0.10163905
229	0x3e10cc1e	0.14140365
230	0x3cb30e3b	0.021857372
231	0x3dca5c75	0.09880916
232	0x3e02e842	0.12783912
233	0x3dbb195e	0.09135698
234	0x3d359096	0.04432734
235	0x3e0a4716	0.1350368
236	0xbe79fa16	-0.24411806
237	0x3d9e22c1	0.077214725
238	0xbd98b88f	-0.07457077
239	0x3dd79aa4	0.10527542
240	0x3dbb0296	0.091313526
241	0x3dfd4ae3	0.12367799
242	0x3c9a5b05	0.01884223
243	0x3e0c9987	0.13730441
244	0xbe030e5c	-0.12798446
245	0x3dbdaf02	0.09261896
246	0xbc4ac2fd	-0.01237559
247	0x3e769893	0.2408164
248	0xbda00451	-0.07813323
249	0x3dd1e72f	0.10249173
250	0x3e30935c	0.17243713
251	0x3e9b43c4	0.3032514
252	0x3c8b6103	0.017014032
253	0x3de54e03	0.1119652
254	0xbe2b44c6	-0.16725454
255	0xbdbb7dc7	-0.091548495

fc1.bias f4 [16]
0	0x3e003f45	0.12524135
1	0xbdfccc7f	-0.12343692
2	0x3e1d8a53	0.15384798
3	0xbe230bda	-0.1592249
4	0xbd4f5300	-0.050616264
5	0x3ca895f0	0.020579308
6	0x3dba34b8	0.090920866
7	0x3d267a41	0.040643934
8	0xbe1b0322	-0.15137914
9	0x3dd76047	0.1051641
10	0x3e474149	0.19458498
11	0x3e0b8241	0.13623907
12	0x3df5df92	0.12005533
13	0xbdf80753	-0.12110772
14	0xbdba2837	-0.090897016
15	0x3e320d9d	0.17388006

fc2.weight f4 [12, 16]
0	0x3e084872	0.13308886
1	0xbe040958	-0.1289419
2	0x3e620138	0.22070777
3	0xbe6b2a18	-0.22965276
4	0xbe456f7b	-0.19280808
5	0xbe1b1754	-0.15145618
6	0x3d0d3d62	0.034482367
7	0x3db090c9	0.086213656
8	0xbe2f465b	-0.17116682
9	0xbd152668	-0.03641358
10	0xbda927f0	-0.082595706
11	0x3ca09987	0.019604458
12	0xbddde877	-0.10835355
13	0x3b944834	0.004525209
14	0xbd6ec9f6	-0.058298074
15	0x3dae0d6c	0.08498654
16	0xbe6cd90a	-0.23129669
17	0xbe4486ea	-0.1919209
18	0x3c908250	0.017640263
19	0xbe5edddc	-0.2176432
20	0x3dd25f0c	0.10272035
21	0xbe21ce0c	-0.15801257
22	0xbda1bc1c	-0.07897207
23	0xbdcd893c	-0.10035941
24	0xbe504846	-0.2034007
25	0xbe008162	-0.12549356
26	0xbe0bcdf4	-0.13652784
27	0xbd0a0aa0	-0.03370154
28	0x3dd2a528	0.10285407
29	0xbe6fbe08	-0.23412335
30	0xbe5f32e4	-0.21796757
31	0xbe3eea48	-0.18644059
32	0x3e5c5071	0.21515061
33	0xbe1d2c68	-0.15348971
34	0x3e714141	0.23560049
35	0x3dd4d96c	0.103930324
36	0x3e9ecc00	0.31015015
37	0xbbe21aa3	-0.006900148
38	0xbe340a80	-0.1758213
39	0xbe0a9540	-0.13533497
40	0x3d847d70	0.06469238
41	0x3e1059c3	0.14096741
42	0x3e871609	0.26384
43	0x3d7ce861	0.06174505
44	0x3dbf298c	0.09334096
45	0x3dfe4f3e	0.12417458
46	0x3c281b81	0.010260464
47	0x3da6b8da	0.081407264
48	0x3d6041ee	0.054750375
49	0xbe3fa4a9	-0.18715157
50	0x3e482643	0.19545846
51	0xbe6a42a4	-0.22876984
52	0x3e86e057	0.26343033
53	0x3d85ded4	0.06536642
54	0x3d1325f2	0.03592486
55	0x3e11ab26	0.14225444
56	0x3db4d4e3	0.088296674
57	0xbe35de5b	-0.17760603
58	0x3e6c4ef7	0.23076998
59	0x3e4e1fe4	0.20129353
60	0x3d9c960f	0.07645809
61	0x3debf342	0.11521007
62	0xbca29646	-0.019847047
63	0x3ca9db9b	0.020734599
64	0xbe69b231	-0.22821881
65	0x3e532ab8	0.20621765
66	0x3e16b45a	0.14717236
67	0xbc967fd0	-0.018371493
68	0xbe5742a1	-0.2102151
69	0x3e1ad3fb	0.15119927
70	0x3e16ca8c	0.14725703
71	0x3de4e2e6	0.1117609
72	0xbe103c7b	-0.14085571
73	0xbd2051e0	-0.039140582
74	0x3bc5fd29	0.006042142
75	0x3e2eaa8f	0.1705725
76	0x3d7a626b	0.061129015
77	0x3e6db03e	0.23211762
78	0xbe0da9e0	-0.13834333
79	0xbe659a38	-0.22422111
80	0xbe06939a	-0.13142243
81	0xbde9d850	-0.114182115
82	0xbe452856	-0.19253668
83	0xbd579298	-0.052630037
84	0x3e119fbd	0.14221092
85	0x3d960468	0.07325059
86	0xbdec266f	-0.11530768
87	0xbcf82e9b	-0.03029566
88	0x3c00779e	0.007841019
89	0xbe5b6a1a	-0.21427193
90	0x3d671af9	0.056422208
91	0x3e01f8cc	0.12692565
92	0xbc7c061e	-0.015382318
93	0x3e1cddbe	0.15318963
94	0x3d0bf54e	0.034169488
95	0xbe510f96	-0.20416102
96	0x3e3b420a	0.1828691
97	0x3e551f2d	0.20812674
98	0x3dcbfbc1	0.099601276
99	0xbe1d678e	-0.15371534
100	0x3e239f5e	0.15978763
101	0x3e05ab20	0.1305356
102	0xbe1619b0	-0.14658237
103	0xbe7e6888	-0.24844563
104	0xbd8db7e6	-0.069198415
105	0xbe6098a9	-0.21933235
106	0xbe639bb7	-0.22227369
107	0x3d5a921a	0.05336199
108	0xbe3654a5	-0.17805727
109	0xbe3faba4	-0.1871782
110	0x3e2fa6d7	0.17153488
111	0xbd8dd78f	-0.0692588
112	0xbe38a372	-0.180311
113	0xbe1fef3c	-0.15618604
114	0xbcb6b580	-0.022303343
115	0xbd4c92a0	-0.04994452
116	0x3c545b00	0.012961149
117	0xbe1156c2	-0.14193252
118	0xbcb2a700	-0.021808147
119	0x3db1dae8	0.08684331
120	0xbe25f226	-0.16205654
121	0x3ccaa890	0.02473858
122	0xbe151d52	-0.14561966
123	0xbcd1fb30	-0.02563247
124	0x3e084b92	0.13310078
125	0x3e7e65ce	0.24843523
126	0xbe3bffa2	-0.18359235
127	0xbc9816c0	-0.018565536
128	0x3e06e85b	0.13174574
129	0x3e707b0d	0.2348444
130	0xbddc4f4d	-0.10757313
131	0xbcbab260	-0.022790134
132	0x3cfcd224	0.030861922
133	0x3e027e2a	0.1274344
134	0xbe2d490e	-0.169224
135	0x3e683ac4	0.22678667
136	0x3dc4681f	0.09590172
137	0xbd7bd219	-0.06147966
138	0x3d92c86b	0.07167133
139	0xbd6c68d8	-0.057717174
140	0x3ebe6992	0.3718992
141	0xbdf185e8	-0.11793119
142	0xbe05b87d	-0.13058658
143	0x3e897499	0.2684677
144	0x3e21c909	0.15799345
145	0x3da8b170	0.082369685
146	0x3e7453ec	0.23860139
147	0x3d1c4190	0.038148463
148	0xbe342101	-0.17590715
149	0x3e1d9294	0.15387946
150	0x3ca7b15f	0.02047032
151	0xbcf43588	-0.029810682
152	0x3dcb6755	0.099318184
153	0xbe06d0d1	-0.13165595
154	0xbe8b5071	-0.2720981
155	0xbdc9fd74	-0.098627955
156	0xbdc4183d	-0.095749356
157	0xbe1e3264	-0.1544891
158	0x3e3fe4a8	0.18739569
159	0xbe33054a	-0.17482486
160	0xbe38d2ca	-0.1804916
161	0x3de148d3	0.11000218
162	0xbe2207c2	-0.15823272
163	0xbe1d5074	-0.15362722
164	0x3e406af6	0.18790802
165	0xbd12e198	-0.035859674
166	0x3d0abb1a	0.03386984
167	0x3e4a1a30	0.19736552
168	0x3d5d4c4f	0.05402785
169	0xbd2966bf	-0.041357752
170	0x3e06175a	0.13094845
171	0xbe54fe9e	-0.20800254
172	0x3db08977	0.08619969
173	0xbe62fe7e	-0.22167394
174	0xbe21526f	-0.15754102
175	0x3d95131e	0.07279037
176	0xbe1eb4fe	-0.1549873
177	0xbe18b947	-0.14914428
178	0x3e6c1458	0.23054636
179	0xbe5bb192	-0.21454456
180	0x3cf9acd7	0.030477924
181	0xbe4e022a	-0.20118013
182	0xbe24d7de	-0.16097972
183	0xbe53474a	-0.20632663
184	0x3e057989	0.13034643
185	0xbe54327a	-0.2072238
186	0xbe03cdbc	-0.1287145
187	0xbe59a0d3	-0.21252756
188	0xbe4a8a97	-0.1977943
189	0x3d56b3c8	0.052417547
190	0xbda9b96c	-0.082873195
191	0x3df8e379	0.12152762

fc2.bias f4 [12]
0	0xbe769378	-0.24079692
1	0x3dc11a20	0.09428811
2	0xbdbb4c19	-0.09145374
3	0x3cdaec5a	0.02672403
4	0xbe2ca879	-0.16861142
5	0xbd7eec1d	-0.062236894
6	0xbd4a124b	-0.04933385
7	0xbdca498c	-0.09877309
8	0x3e92f49e	0.28702253
9	0xbdf5d50e	-0.120035276
10	0xbe8ad9d5	-0.27119318
11	0xbd72b24c	-0.05925207

fc3.weight f4 [10, 12]
0	0x3e07ee9a	0.13274613
1	0xbe802d83	-0.25034723
2	0x3c4345a6	0.011918461
3	0x3e8f4a2b	0.27986273
4	0x3e27c48c	0.1638357
5	0x3e253a46	0.16135511
6	0xbe670f54	-0.22564441
7	0x3c8b1ba0	0.016980946
8	0x3cb7ed17	0.02245192
9	0xbe791acc	-0.24326628
10	0x3d0c7f63	0.034301173
11	0x3d38fa68	0.04516068
12	0xbe764f1f	-0.2405362
13	0xbe92c397	-0.28664848
14	0x3defeb33	0.117147826
15	0xbdeb2b93	-0.114829205
16	0x3e7350f8	0.23761356
17	0xbe771c96	-0.24131998
18	0xbe07d0e6	-0.13263282
19	0x3e7ce41c	0.24696392
20	0x3df0955a	0.117472365
21	0x3e875570	0.2643237
22	0x3e1ebdb1	0.15502049
23	0x3e1703bc	0.14747518
24	0xbe22a5a2	-0.15883496
25	0xbdfd8f6a	-0.1238087
26	0xbd7e640d	-0.062107135
27	0xbe2784fe	-0.16359326
28	0xbe385f80	-0.1800518
29	0xbe6cd38f	-0.23127578
30	0x3dca5838	0.09880108
31	0xbe606e86	-0.21917161
32	0x3eaa037f	0.33205792
33	0xbd8f05cf	-0.0698353
34	0x3d6c22b7	0.057650294
35	0x3e6a1dd0	0.22862935
36	0x3d166158	0.036713928
37	0x3d4ce138	0.050019473
38	0x3e0d994f	0.13828014
39	0x3eaab547	0.3334143
40	0xbe8a3309	-0.26992062
41	0x3c4ce5e0	0.012505978
42	0xbe78a5ed	-0.24282046
43	0x3d35afb8	0.04435703
44	0x3ca618f5	0.020275572
45	0x3cba8168	0.022766784
46	0xbe51603a	-0.20446864
47	0x3e435fd6	0.19079527
48	0x3e4fca58	0.20292032
49	0xbdd40d00	-0.10354042
50	0x3e49e9f7	0.19718157
51	0xbde104b8	-0.10987228
52	0xbcca6000	-0.02470398
53	0xbe212655	-0.15737279
54	0x3de4f71b	0.11179944
55	0x3e2aff7e	0.16699025
56	0x3e45d74d	0.19320412
57	0xbde6e7db	-0.11274692
58	0xbc4e35d9	-0.0125860805
59	0x3e595fe4	0.21227986
60	0x3e2e3b9d	0.17014928
61	0xbd123748	-0.03569725
62	0xbe00fe17	-0.12596928
63	0x3e4e8558	0.20168054
64	0x3e771099	0.24127425
65	0x3cdf3d7a	0.027250994
66	0xbdd00d01	-0.1015873
67	0xbdc07572	-0.09397401
68	0x3ddb3969	0.107043095
69	0x3c14bb3e	0.009077845
70	0x3d7b55ba	0.061361052
71	0xbe61f006	-0.22064218
72	0xbe1b2833	-0.15152054
73	0xbd93f22e	-0.072239265
74	0x3aad2a2a	0.0013211418
75	0x3debb3a7	0.11508875
76	0xbe83b780	-0.25725937
77	0xbe071a6b	-0.13193671
78	0xbd1a8c23	-0.0377313
79	0xbd5a175c	-0.053244933
80	0x3e61e488	0.22059834
81	0xbe4c11d0	-0.1992867
82	0xbd8bfe8b	-0.068356596
83	0xbe4cc7eb	-0.19998138
84	0x3e8ee9ee	0.2791285
85	0x3e5b5000	0.21417236
86	0x3e89976a	0.26873332
87	0xbe0216e0	-0.12704039
88	0xbe8fa305	-0.28054062
89	0x3d79b345	0.06096198
90	0x3d78a34e	0.060702614
91	0x3e8d4528	0.27591825
92	0xbccc5048	-0.024940625
93	0xbc99683c	-0.01872646
94	0x3eaf9aac	0.34297693
95	0xbd96cd40	-0.07363367
96	0xbe8b44fc	-0.27201068
97	0x3e4e4d14	0.2014659
98	0xbbfa848e	-0.0076451963
99	0x3e3ffac0	0.18747997
100	0xbd2a89dc	-0.04163538
101	0xbe3317e1	-0.17489578
102	0x3da36f74	0.07980242
103	0x3d7a5b78	0.061122388
104	0x3db31cad	0.08745704
105	0xbe752994	-0.23941642
106	0x3c80399f	0.015652476
107	0x3d5306b0	0.05152005
108	0xbe5e5802	-0.2171326
109	0xbdd3639a	-0.10321732
110	0x3dc12641	0.094311245
111	0x3eb200d3	0.34766254
112	0x3d0c98a8	0.03432527
113	0x3e7d74ff	0.24751662
114	0x3e8c1a39	0.27363756
115	0x3e7cb70c	0.24679202
116	0xbe4ed514	-0.2019847
117	0xbd6a4ed4	-0.057204083
118	0x3e1f8c77	0.15580927
119	0xbe2d24ec	-0.16908616

fc3.bias f4 [10]
0	0x3b498a35	0.0030752544
1	0x3e01aaa8	0.12662756
2	0xbcee22f1	-0.029069396
3	0xbdb0930b	-0.08621796
4	0xbd8593b7	-0.06522315
5	0x3d8ed24a	0.06973703
6	0xbdec4fd2	-0.11538662
7	0x3e4ba534	0.19887239
8	0xbb98dfeb	-0.004665365
9	0x3e664f25	0.22491129
