dqn_normal.pth (torch, 4966 bytes, 6 tensors)

fc1.weight f4 [16, 16]
-0.17569746 -0.39060143 -0.43924984 -0.22162996 -0.34168446 -0.41368106 -0.5027894 -0.20173877
-0.023997435 0.078488715 0.21376695 0.21237922 0.10358531 -0.11879733 -0.082165584 0.18949996
-0.17439088 -0.25056243 -0.31481212 -0.1709813 0.10369166 -0.38793093 -0.015958926 -0.011604236
-0.12832731 0.06870773 0.25991166 0.11017496 -0.10880086 -0.036729418 0.21267897 -0.3069822
0.14293706 0.3687274 0.12075677 0.2520466 -0.031361636 0.064859 0.41244018 0.51771814
-0.1554042 0.0038427187 -0.0153571945 -0.14226958 -0.10761194 0.09142028 0.033095326 -0.06455057
-0.209388 -0.2111748 -0.060310703 0.11509512 -0.14527889 0.027524536 0.093098305 0.12677878
-0.14185175 0.18405662 -0.10208154 -0.22731346 -0.12805644 -0.032574184 0.2964926 0.23374277
-0.0663409 -0.08560314 0.3279959 0.20100845 0.35137603 -0.044150177 -0.039684784 0.15618211
-0.37206927 -0.104869895 0.18576233 0.024020046 0.11736306 -0.024777582 -0.25492358 0.18023372
0.061612185 0.040633876 -0.25854415 -0.014133769 -0.23445985 -0.023014102 -0.015879525 -0.022661611
0.12371558 -0.08190073 -0.20126747 0.3486612 -0.06379988 0.14675912 -0.2159292 0.0915773
-0.4201829 -0.080522895 -0.03488602 0.007299592 -0.10019063 -0.2915646 -0.44412962 0.22609904
-0.07776203 -0.13027845 0.25448373 0.0025137516 -0.1414742 -0.09230113 -0.36541697 -0.17684746
0.09981086 0.01812573 0.2971943 0.18639496 0.13586049 0.04044544 -0.20992552 -0.14587575
-0.4659151 -0.048721205 0.09959561 0.12692584 0.047129378 -0.05295047 -0.080841035 0.12711625
-0.01717838 -0.052973405 -0.18236001 0.21236973 -0.07337003 0.21685942 0.023000702 0.10427146
-0.09685895 -0.0007160282 0.01673421 0.052951306 -0.08528109 -0.062160693 0.04801535 0.06305258
-0.23689607 -0.22938201 -0.07103738 -0.13325223 0.22878835 0.16333437 -0.24462909 -0.033507645
-0.14056131 -0.10492045 -0.06302199 -0.21577474 0.16506869 -0.015721917 -0.2282229 -0.0025378168
0.1681769 0.02543918 -0.058274325 -0.2769232 -0.40662304 0.07063814 0.25591627 -0.21403368
-0.37259796 0.19648418 -0.030207563 -0.036305863 0.22594205 -0.20327394 0.1673702 -0.091437
-0.13155441 0.047368933 0.15548614 -0.1058796 0.24224512 0.14926432 0.015938053 0.16394608
0.2998548 -0.076160915 -0.03975281 0.045596447 -0.05054239 0.014794464 -0.010606831 -0.16279
0.13908401 0.17945653 -0.26235077 -0.04770651 0.15305774 0.20867696 -0.22695497 -0.05503271
0.06360389 -0.20583342 -0.23651135 0.1446625 -0.22628166 -0.0067187846 0.0857542 -0.10473254
0.28911066 0.10628807 0.09168349 0.3393916 0.3069 0.43779728 0.30653113 0.26743937
0.11994695 -0.1925019 -0.23552684 -0.13472565 -0.047047757 0.06304945 0.034737173 0.21515118
-0.28949055 -0.0971832 -0.26175365 0.11581398 0.16155115 0.31154618 0.21062751 0.026288977
-0.36140952 0.3126505 -0.12064762 -0.067189924 -0.1596802 0.14234795 -0.088262126 -0.12992778
0.004136768 0.07331671 0.2858018 0.23439692 0.3637778 0.015601879 0.1548829 0.15058076
0.23595373 -0.28736767 0.058619253 -0.17519203 0.09213481 -0.05060488 -0.05920508 0.05991032
00000000: 09ea 33be e9fc c7be 5be5 e0be f7f2 62be
00000010: 44f1 aebe 01ce d3be ceb6 00bf 9c94 4ebe
00000020: 4596 c4bc b1be a03d b9e5 5a3e f079 593e
00000030: 8924 d43d 044c f3bd 6e46 a8bd 470c 423e
00000040: 8693 32be b849 80be 0e2f a1be b915 2fbe
00000050: 4b5c d43d e29e c6be 4bbc 82bc b21f 3ebc
00000060: 3c68 03be a3b6 8c3d 2413 853e 69a3 e13d
00000070: fcd2 debd 9671 16bd 84c8 593e c52c 9dbe
00000080: 185e 123e d6c9 bc3e 534f f73d 410c 813e
00000090: 0f75 00bd ccd4 843d 5c2b d33e 2d89 043f
000000a0: 4722 1fbe 1fd6 7b3b be9c 7bbc 1eaf 11be
000000b0: a663 dcbd 8e3a bb3d f78e 073d 1733 84bd
000000c0: cf69 56be 353e 58be 5b08 77bd feb6 eb3d
000000d0: fdc3 14be 237b e13c 53aa be3d 4cd2 013e
000000e0: 9641 11be 5779 3c3e 2010 d1bd dcc4 68be
000000f0: 3a21 03be 826c 05bd e1cd 973e 445a 6f3e
00000100: bddd 87bd b350 afbd 14ef a73e 29d5 4d3e
00000110: 8fe7 b33e d1d6 34bd 838c 22bd 34ee 1f3e
00000120: dd7f bebe 07c6 d6bd 7b38 3e3e b0c5 c43c
00000130: 0b5c f03d 5bfa cabc 5885 82be 308f 383e
00000140: 0f5d 7c3d b56f 263d e65f 84be 5391 67bc
00000150: 3e16 70be 1288 bcbc c715 82bc d8a4 b9bc
00000160: 985e fd3d 92bb a7bd 0f19 4ebe b983 b23e
00000170: 83a9 82bd 0648 163e 8b1c 5dbe e18c bb3d
00000180: 3722 d7be 30e9 a4bd a5e4 0ebd 6a31 ef3b
00000190: bf30 cdbd f547 95be f564 e3be 8286 673e
000001a0: b341 9fbd b767 05be b14b 823e c1bd 243b
000001b0: 9dde 10be 6008 bdbd ef17 bbbe 8017 35be
000001c0: a369 cc3d 697c 943c da29 983e 52de 3e3e
000001d0: 031f 0b3e 1eaa 253d b7f6 56be 7460 15be
000001e0: 6d8c eebe e38f 47bd c8f8 cb3d d9f8 013e
000001f0: bc0a 413d 98e2 58bd fc8f a5bd c32a 023e
00000200: adb9 8cbc a4fa 58bd 95bc 3abe 7377 593e
00000210: 0743 96bd 6510 5e3e f86b bc3c 468c d53d
00000220: fc5d c6bd d7b3 3bba 2f16 893c 78e3 583d
00000230: daa7 aebd 369c 7ebd beab 443d b621 813d
00000240: e294 72be 1ee3 6abe 0c7c 91bd 4673 08be
00000250: 7e47 6a3e 2041 273e 0c80 7abe 503f 09bd
00000260: 4eef 0fbe 88e0 d6bd ac11 81bd 0ef4 5cbe
00000270: c407 293e 40cb 80bc 44b3 69be 8051 26bb
00000280: 9136 2c3e d465 d03c 0fb1 6ebd e1c8 8dbe
00000290: e530 d0be bbaa 903d 7507 833e a52b 5bbe
000002a0: 29c5 bebe 2633 493e da75 f7bc 75b5 14bd
000002b0: 5a5d 673e 0b27 50be 1863 2b3e 5243 bbbd
000002c0: 33b6 06be ed05 423d c237 1f3e 67d7 d8bd
000002d0: 1b0f 783e bfd8 183e 8590 823c 7be1 273e
000002e0: 9186 993e 41fa 9bbd d8d3 22bd 57c3 3a3d
000002f0: 8a05 4fbd 7b64 723c 46c8 2dbc 6cb2 26be
00000300: 0a6c 0e3e 74c3 373e d752 86be e767 43bd
00000310: 2bbb 1c3e 6aaf 553e e266 68be fb69 61bd
00000320: c242 823d ffc5 52be 0830 72be 6822 143e
00000330: 61b6 67be 4029 dcbb e69f af3d 047e d6bd
00000340: 5006 943e 8fad d93d 8ec4 bb3d bcc4 ad3e
00000350: ff21 9d3e f726 e03e a6f1 9c3e d0ed 883e
00000360: bfa6 f53d 381f 45be f32d 71be 85f5 09be
00000370: 26b5 40bd 1220 813d 9148 0e3d 9750 5c3e
00000380: 1b38 94be fc07 c7bd 9304 86be e12f ed3d
00000390: aa6d 253e fb82 9f3e bdae 573e fb5b d73c
000003a0: ab0a b9be ba13 a03e 1916 f7bd df9a 89bd
000003b0: 3583 23be a9c3 113e c6c2 b4bd ca0b 05be
000003c0: ba8d 873b 1227 963d 9d54 923e bf05 703e
000003d0: 1541 ba3e 069f 7f3c 9f99 1e3e d831 1a3e
000003e0: db9d 713e db21 93be be1a 703d 8a65 33be
000003f0: 2db1 bc3d 1047 4fbd 0781 72bd 8664 753d

fc1.bias f4 [16]
-0.15473595 0.13793609 -0.18791333 0.011065976 0.25293458 0.08599685 0.12085004 0.0009405211
0.1908161 0.0071965456 -0.23509765 0.07483323 -0.10068238 0.14043535 0.2346238 -0.051266316
00000000: 1a73 1ebe 1e3f 0d3e 5a6c 40be 114e 353c
00000010: a480 813e 1e1f b03d 3a80 f73d 4d8d 763a
00000020: 4c65 433e 00d1 eb3b 70bd 70be 2a42 993d
00000030: 9032 cebd 49ce 0f3e 3941 703e a1fc 51bd

fc2.weight f4 [12, 16]
0.11454389 0.10938099 -0.30129018 0.009857099 0.27265862 0.0028844364 0.04913392 -0.07502065
0.12955928 0.11736703 -0.036805924 0.029637111 -0.020566387 -0.36064482 -0.11317396 -0.38336697
0.09710339 0.19659899 0.088175245 -0.2353004 0.20453353 -0.07974899 0.35976064 0.1114668
0.042532563 -0.046000928 -0.3324542 -0.10131959 0.049278803 0.1248546 -0.1605122 -0.10332317
-0.0049028993 0.052561626 -0.35586268 0.2870367 0.05552768 0.32278758 -0.22418462 0.034232326
0.13215257 -0.051534265 0.2930546 -0.14972644 -0.22316174 -0.42496794 0.26972687 0.04757539
-0.29796305 -0.15059832 0.104234606 0.26278502 0.19300975 -0.16154298 -0.26628622 0.12074668
-0.0061275973 0.0028166473 -0.09587316 0.14339638 -0.11731364 0.17623287 -0.019190107 -0.2701931
0.03796277 -0.23086065 -0.18944433 -0.24787322 -0.17589505 -0.09912359 -0.11972073 -0.21255621
0.002638751 0.018321157 0.11592105 0.14184286 -0.059960544 -0.0678441 -0.089544564 -0.17856872
0.041629028 0.0057273703 0.031417236 0.0035841262 0.028764695 0.22205576 -0.18422817 -0.07037903
0.20749716 -0.10497722 0.0732907 0.022901356 0.21974069 -0.042997528 0.19347486 0.25894672
-0.14615938 0.06989609 0.27580357 0.35842565 -0.11997063 -0.1966141 0.12876642 -0.3412467
-0.24571389 0.19545731 0.0854435 0.20842339 0.08861473 -0.26820725 0.020557862 -0.021621762
-0.097171634 0.15850951 0.10535956 0.19583338 0.24575746 0.016501117 -0.2876286 0.13279964
0.06963285 -0.013979703 0.092612945 -0.14650877 0.022335174 -0.02353003 0.3185154 0.09931646
0.11092698 0.12764612 -0.021663776 -0.032794256 0.067323655 0.4420638 0.03885198 -0.17181395
-0.2069725 -0.09666625 0.050195787 0.16393213 -0.046182048 -0.17199503 -0.3793917 -0.21484154
0.4132706 0.03381337 -0.19498894 0.17252737 0.15437445 -0.020295441 -0.26071936 0.3084764
-0.048585597 0.028095126 0.18005435 -0.27975908 0.2091052 -0.11897835 0.04118182 -0.1610547
-0.16953063 -0.34441808 -0.010054298 0.2870342 -0.016434187 0.12823631 0.26975492 0.10843597
0.14851408 -0.15877879 -0.19890122 -0.021913663 0.1721687 -0.48358762 0.1845511 -0.16081911
0.14662552 0.31029263 0.059249286 0.06340858 0.015707955 0.019155266 0.08248685 -0.10197139
0.14773096 0.14819849 0.48130518 -0.09922426 0.16313486 -0.39440265 0.21061574 0.24215913
00000000: fd95 ea3d 2403 e03d b542 9abe ab7f 213c
00000010: e999 8b3e d008 3d3b a640 493d 6da4 99bd
00000020: 30ab 043e 205e f03d cfc1 16bd 87c9 f23c
00000030: d77a a8bc 70a6 b8be c0c7 e7bd ad48 c4be
00000040: 24de c63d 3f51 493e 3995 b43d 97f2 70be
00000050: 3d71 513e 7053 a3bd 8c32 b83e b548 e43d
00000060: a036 2e3d 786b 3cbd 7037 aabe a580 cfbd
00000070: 92d8 493d c5b3 ff3d 4f5d 24be 199b d3bd
00000080: 80a8 a0bb dc4a 573d a233 b6be 79f6 923e
00000090: fe70 633d 6a44 a53e a790 65be 3237 0c3d
000000a0: 0153 073e 9815 53bd 410b 963e e351 19be
000000b0: 8384 64be 6695 d9be a419 8a3e 6ade 423d
000000c0: 9d8e 98be 7236 1abe f478 d53d c28b 863e
000000d0: 59a4 453e 866b 25be ab56 88be 094a f73d
000000e0: 03ca c8bb 8097 383b 2659 c4bd 80d6 123e
000000f0: 2242 f0bd 6476 343e 9234 9dbc c056 8abe
00000100: d97e 1b3d bc66 6cbe b2fd 41be 7ad2 7dbe
00000110: d51d 34be 4f01 cbbd 2430 f5bd 56a8 59be
00000120: e5ee 2c3b 4016 963c 0468 ed3d 413f 113e
00000130: 3099 75bd d9f1 8abd 2463 b7bd b8da 36be
00000140: 3383 2a3d aaac bb3b 5caf 003d a9e3 6a3b
00000150: f0a3 eb3c 9662 633e 4fa6 3cbe e222 90bd
00000160: 237a 543e 4cfe d6bd 6f19 963d a09b bb3c
00000170: b403 613e 2d1e 30bd 461e 463e aa94 843e
00000180: ceaa 15be ae25 8f3d 2036 8d3e 9183 b73e
00000190: 29b3 f5bd 3555 49be 58db 033e e3b7 aebe
000001a0: 6c9c 7bbe f625 483e 00fd ae3d f16c 553e
000001b0: a47b b53d 7652 89be f668 a83c 1f20 b1bc
000001c0: ec01 c7bd 5150 223e c1c6 d73d 8c88 483e
000001d0: d8a7 7b3e 5a2d 873c 0e44 93be a1fc 073e
000001e0: ab9b 8e3d 200b 65bc dbab bd3d 6506 16be
000001f0: 41f8 b63c 0dc2 c0bc 7314 a33e 6e66 cb3d
00000200: af2d e33d aab5 023e 3b78 b1bc 4553 06bd
00000210: fce0 893d 3056 e23e 4123 1f3d ffef 2fbe
00000220: 99f0 53be f4f8 c5bd 199a 4d3d d3dd 273e
00000230: 6329 3dbd 771f 30be a13f c2be 6cff 5bbe
00000240: 3498 d33e e37f 0a3d 2eab 47be 04ab 303e
00000250: 5614 1e3e a042 a6bc 027d 85be 9ef0 9d3e
00000260: b101 47bd c027 e63c 2b60 383e 953c 8fbe
00000270: ac1f 563e ecaa f3bd 45ae 283d 86eb 24be
00000280: 7099 2dbe 9157 b0be c8ba 24bc 26f6 923e
00000290: fda0 86bc 6150 033e 511d 8a3e ae13 de3d
000002a0: 1314 183e e896 22be c3ac 4bbe 4884 b3bc
000002b0: fe4c 303e cc98 f7be f7fa 3c3e c4ad 24be
000002c0: 0025 163e adde 9e3e 61af 723d 5cdc 813d
000002d0: f8ad 803c 81eb 9c3c deee a83d 60d6 d0bd
000002e0: c946 173e 58c1 173e a26d f63e 1736 cbbd
000002f0: d30c 273e 25ef c9be a7ab 573e 90f8 773e

fc2.bias f4 [12]
0.30890363 -0.19414587 0.3271822 0.09973657 -0.13753697 -0.04953488 -0.22294971 -0.17043829
0.060191628 0.32464984 0.04258248 -0.3335216
00000000: 9e28 9e3e 2dce 46be 6d84 a73e b042 cc3d
00000010: 7ed6 0cbe 16e5 4abd ee4c 64be 6087 2ebe
00000020: 7f8b 763d 8138 a63e f76a 2e3d 58c3 aabe

fc3.weight f4 [10, 12]
0.11875541 0.031507142 -0.10030972 0.25052193 -0.07833238 0.13880472 0.11649309 0.15056267
0.17842945 -0.36637497 0.25456774 -0.45099565 -0.29018226 0.056333847 0.08474937 0.14548667
0.26584208 0.21688384 0.31278163 0.2177929 -0.26578003 -0.1498627 -0.5671336 -0.14622372
-0.031417456 -0.29529703 -0.29176283 0.40848327 0.2815222 0.02082864 0.19610819 0.08842279
0.018332278 0.00097125326 -0.24538839 -0.014668828 -0.11186965 -0.18495932 0.014672059 0.23413871
0.16489092 -0.27075404 0.3038507 0.09813777 -0.08351575 -0.21926159 -0.39529765 -0.3580881
-0.28901333 -0.123593904 0.17964621 0.3115631 -0.27992058 -0.13425486 0.21895058 -0.08813395
0.006263986 -0.12331242 -0.06537176 -0.22722358 0.11219216 -0.26156926 -0.30233645 0.34221768
-0.21109745 -0.14968802 -0.24224345 0.026531147 0.08014829 -0.37746707 -0.3359743 -0.116451554
-0.22073315 -0.2372157 0.13201788 0.18013921 0.24933147 -0.056837127 0.25890696 0.18961886
-0.13437635 -0.19215061 0.068408445 0.34745187 -0.050502237 0.3513539 -0.3951407 0.118024684
0.06385208 -0.10003396 -0.09686488 -0.07223181 -0.0593943 -0.14619567 -0.28608856 0.21880919
-0.11684796 -0.20948474 0.03908351 -0.15134467 0.016421616 0.055590056 0.23924577 -0.38917726
0.31257898 -0.011946483 0.08842354 0.006574687 -0.2970043 -0.0716602 0.10035043 0.2942653
-0.1613332 -0.01832569 -0.11011281 0.014571066 0.09767631 -0.37781766 -0.21470407 0.07477727
00000000: 0936 f33d a20d 013d 2f6f cdbd 6944 803e
00000010: ba6c a0bd d322 0e3e ee93 ee3d 1a2d 1a3e
00000020: 36b6 363e 8095 bbbe b456 823e e7e8 e6be
00000030: c592 94be 52be 663d 1491 ad3d 75fa 143e
00000040: 741c 883e cc16 5e3e ea24 a03e 1a05 5f3e
00000050: 5214 88be 9c75 19be ab2f 11bf acbb 15be
00000060: 97af 00bd 2c31 97be f061 95be b824 d13e
00000070: ae23 903e d3a0 aa3c 96d0 483e 0217 b53d
00000080: 932d 963c b49b 7e3a 1847 7bbe 8655 70bc
00000090: ea1b e5bd fa65 3dbe 1363 703c 0fc2 6f3e
000000a0: 2ad9 283e 46a0 8abe 5292 9b3e 75fc c83d
000000b0: 4e0a abbd 1c86 60be 7464 cabe 5357 b7be
000000c0: 8ef9 93be cd1e fdbd 2df5 373e 3385 9f3e
000000d0: c051 8fbe 1b7a 09be 9534 603e 937f b4bd
000000e0: 2042 cd3b 398b fcbd a1e1 85bd 4cad 68be
000000f0: 01c5 e53d 68ec 85be d8cb 9abe 2837 af3e
00000100: ee29 58be d147 19be ab0e 78be d957 d93c
00000110: c924 a43d 5d43 c1be d304 acbe 277e eebd
00000120: df07 62be ace8 72be b22f 073e 6a76 383e
00000130: c050 7f3e 0cce 68bd 748f 843e 722b 423e
00000140: f499 09be 21c3 44be ba19 8c3d 36e5 b13e
00000150: 6fdb 4ebd a9e4 b33e e24f cabe edb6 f13d
00000160: e1c4 823d 9bde ccbd 1861 c6bd 45ee 93bd
00000170: 7047 73bd 51b4 15be 337a 92be 840f 603e
00000180: fc4d efbd 2b83 56be 0816 203d 19fa 1abe
00000190: a086 863c 66b2 633d d8fc 743e 3e42 c7be
000001a0: 5a0a a03e 2ebb 43bc 6717 b53d 7970 d73b
000001b0: f310 98be 95c2 92bd 8784 cd3d f1a9 963e
000001c0: 8834 25be c21f 96bc d382 e1bd 7bbb 6e3c
000001d0: 840a c83d 5171 c1be 62db 5bbe d324 993d

fc3.bias f4 [10]
-0.090721354 -0.067589656 -0.031070733 0.23359239 0.17574619 0.13067113 0.12041743 0.08547889
-0.024961613 0.057776395
00000000: 1ecc b9bd 726c 8abd 0d88 febc d832 6f3e
00000010: cff6 333e a7ce 053e 6a9d f63d 8e0f af3d
00000020: 4c7c ccbc f1a6 6c3d
