dqn_aggressive.pth (torch, 5070 bytes, 6 tensors)

fc1.weight f4 [16, 16]
-0.061325394 -0.093795046 -0.33563656 0.14845257 0.19066525 -0.34998754 0.25513035 0.34893477
0.0722748 -0.38623282 -0.30526507 0.30993855 0.3763944 -0.40319222 -0.37859577 0.5607431
0.042016998 -0.2605878 -0.360277 0.4081676 0.19104522 -0.0834776 -0.23820809 -0.12739043
0.7515734 0.06779617 -0.11310135 -0.3045952 0.2345279 0.16143319 0.18935898 0.33120075
0.23281994 0.24972083 0.28331557 0.63170546 0.18326946 0.14244589 -0.45122322 -0.20347938
0.02131881 -0.54445356 0.19942714 -0.3754093 0.51623255 0.5394674 -0.53149945 0.68777645
-0.33257434 0.031305388 -0.88787305 0.13815771 0.22692898 -0.12641914 0.39300802 0.2384684
0.6714178 -0.026360385 -0.19229467 -0.5994668 0.37908444 0.21661066 0.19615825 0.13069195
0.083742 -0.12660581 -0.041685466 0.10765499 -0.12032399 -0.092514314 -0.120813526 0.5365789
0.45183787 0.36027348 -0.06257117 0.08851807 0.024407787 -0.089550294 -0.10892208 0.4880912
-0.07012683 -0.18098909 0.070335925 0.042430937 -0.1997419 0.0031535625 -0.09930378 0.08196306
0.050314784 -0.14380035 -0.24532104 -0.24967769 -0.038584203 -0.2014781 -0.14898455 -0.073627114
-0.4175954 -0.5210129 -0.7548134 0.16051608 0.02820433 -0.33658588 -0.5320897 -0.19349748
0.7282175 0.246199 -0.047309488 -0.4017794 0.09711749 -0.13988842 -0.2784697 0.4619716
0.2739442 -0.04805254 0.289018 0.30099893 -0.06727659 -0.24596298 -0.11440883 1.1952755
-0.6785234 0.23964931 -0.23304601 0.30092585 0.31883645 0.44977492 -0.39934126 0.27893236
-0.10700032 -0.2479164 0.0758242 0.06661299 -0.2191132 -0.16339949 0.026941985 -0.08648977
-0.15006289 -0.008800596 0.05205196 -0.10263041 0.09520462 0.1177361 0.17719546 -0.116923094
0.43938258 0.1449938 -0.3275033 0.19511667 0.5277747 -0.24666359 -0.6402649 0.7620686
-0.7630172 0.28006968 -0.5347068 -0.13464938 0.3286734 0.61631536 -0.34695458 0.5699906
0.030112641 0.07879642 -0.18849955 0.007324086 0.07697128 -0.23836325 -0.11074391 -0.2354575
-0.07705161 0.1184326 -0.18256783 -0.20822427 0.14755316 -0.24086723 0.19176498 0.10322517
0.2919767 0.59745485 0.6988973 0.41949844 0.26559553 0.7353845 -0.09708315 -0.85729957
0.16403948 0.37458825 0.41163623 0.031698667 0.23490667 -0.00679322 -0.32036296 -0.0876538
-0.2407364 -0.041726608 -0.118958645 0.16926403 0.014796065 0.09955499 0.023858735 0.17779505
-0.10018848 -0.16404416 -0.15772474 0.08686532 -0.15012512 0.18824644 0.10596264 -0.2924929
0.05413654 0.05827399 -0.09583313 0.4052454 0.14637695 0.33284724 0.35869035 0.08322845
0.62940013 -0.2406065 0.18925425 -0.26156145 0.2793852 0.26385236 -0.1968777 0.56597584
0.6216941 0.27465764 0.54944426 0.47575507 0.5452021 0.19654778 0.68506795 -0.19024958
0.18350473 -0.4140623 0.17817968 0.33594725 0.440939 0.5042372 -0.5968962 0.48989144
0.23380987 0.5506279 0.59474313 0.2889982 0.50623 0.44782606 0.22525325 0.5205505
-0.46897516 -0.41996604 0.13403094 0.15981624 0.5146413 0.24118976 -0.067676224 0.3475279
00000000: 5630 7bbd 9e17 c0bd 8ed8 abbe f303 183e
00000010: c03d 433e 9131 b3be 72a0 823e 94a7 b23e
00000020: cf04 943d 4fc0 c5be b44b 9cbe 44b0 9e3e
00000030: c4b6 c03e 366f cebe 4ed7 c1be dc8c 0f3f
00000040: 041a 2c3d c46b 85be 3a76 b8be 58fb d03e
00000050: 5ca1 433e 4ef6 aabd d2ec 73be a372 02be
00000060: 1d67 403f b8d8 8a3d aea1 e7bd e7f3 9bbe
00000070: 1528 703e be4e 253e 52e7 413e 2593 a93e
00000080: 5a68 6e3e d1b6 7f3e bd0e 913e 73b7 213f
00000090: fdaa 3b3e 56dd 113e bb06 e7be e65c 50be
000000a0: c9a4 ae3c 4f61 0bbf a136 4c3e a635 c0be
000000b0: d127 043f 891a 0a3f 5910 08bf 1e12 303f
000000c0: 2f47 aabe 143a 003d a64b 63bf 3779 0d3e
000000d0: 1260 683e 0574 01be 5938 c93e 0f31 743e
000000e0: 09e2 2b3f bcf1 d7bc e5e8 44be a876 19bf
000000f0: 5b17 c23e 2fcf 5d3e b5dd 483e 1cd4 053e
00000100: ed80 ab3d f4a4 01be 61be 2abd 387a dc3d
00000110: 6d6c f6bd 2578 bdbd 156d f7bd 3c5d 093f
00000120: 4b57 e73e c475 b83e 5025 80bd f648 b53d
00000130: d7f2 c73c 2566 b7bd 8a12 dfbd 17e7 f93e
00000140: a89e 8fbd 3455 39be 480c 903d 10cc 2d3d
00000150: 2489 4cbe 00ac 4e3b c85f cbbd 40dc a73d
00000160: e016 4e3d 6640 13be 7035 7bbe 82ab 7fbe
00000170: 780a 1ebd 4650 4ebe 688f 18be d0c9 96bd
00000180: 10cf d5be 1a61 05bf 733b 41bf 545e 243e
00000190: c40c e73c fc54 acbe 0837 08bf 3424 46be
000001a0: 766c 3a3f 971b 7c3e 98c7 41bd 08b6 cdbe
000001b0: 89e5 c63d e93e 0fbe 9593 8ebe 8b87 ec3e
000001c0: 6a42 8c3e bdd2 44bd 2bfa 933e 881c 9a3e
000001d0: 4fc8 89bd b8dd 7bbe 2d4f eabd cafe 983f
000001e0: b6b3 2dbf a166 753e 9da3 6ebe f412 9a3e
000001f0: 883e a33e e648 e63e 7576 ccbe 39d0 8e3e
00000200: fc22 dbbd ccdd 7dbe b849 9b3d 646c 883d
00000210: 365f 60be 3252 27be 70b5 dc3c 8c21 b1bd
00000220: 16aa 19be 6030 10bc 7034 553d e42f d2bd
00000230: a4fa c23d a01f f13d ba72 353e 6075 efbd
00000240: c1f6 e03e 4179 143e 83ae a7be aacc 473e
00000250: 3e1c 073f 6195 7cbe 67e8 23bf ee16 433f
00000260: 1855 43bf 4b65 8f3e 8be2 08bf 87e1 09be
00000270: e147 a83e d8c6 1d3f 08a4 b1be e7ea 113f
00000280: c9ae f63c 0460 a13d 0706 41be e3fe ef3b
00000290: 1ea3 9d3d 7f15 74be b4cd e2bd c51b 71be
000002a0: 3ccd 9dbd ca8c f23d 10f3 3abe be38 55be
000002b0: 2d18 173e e6a5 76be 0a5e 443e b867 d33d
000002c0: f87d 953e cdf2 183f efea 323f 80c8 d63e
000002d0: 23fc 873e 2942 3c3f 88d3 c6bd fc77 5bbf
000002e0: f7f9 273e 08ca bf3e fcc1 d23e 76d6 013d
000002f0: 608b 703e a999 debb 9d06 a4be d683 b3bd
00000300: 9a83 76be 85e9 2abd 97a0 f3bd 8d53 2d3e
00000310: 326b 723c 7de3 cb3d 6573 c33c e80f 363e
00000320: 9e2f cdbd 31fb 27be 9882 21be 72e6 b13d
00000330: 66ba 19be adc3 403e f102 d93d a1c1 95be
00000340: 47be 5d3d b5b0 6e3d 2944 c4bd 537c cf3e
00000350: d7e3 153e f46a aa3e 43a6 b73e ad73 aa3d
00000360: 5e20 213f 8d61 76be decb 413e 62eb 85be
00000370: 940b 8f3e a817 873e 4f9a 49be cbe3 103f
00000380: 5827 1f3f ed9f 8c3e 61a8 0c3f 2b96 f33e
00000390: 5d92 0b3f d243 493e 9d60 2f3f c9d0 42be
000003a0: aae8 3b3e f9ff d3be bc74 363e 4701 ac3e
000003b0: c2c2 e13e b015 013f 30ce 18bf 0dd3 fa3e
000003c0: db6b 6f3e f3f5 0c3f 1641 183f 92f7 933e
000003d0: 4a98 013f 7549 e53e caa8 663e cc42 053f
000003e0: 831d f0be ca05 d7be 683f 093e dea6 233e
000003f0: 88bf 033f 73fa 763e d599 8abd 2def b13e

fc1.bias f4 [16]
0.14226577 0.3985325 0.6825763 0.2610477 0.6305407 0.077653855 0.44788668 0.0286164
0.04450783 0.5792678 -0.00073950656 0.2961666 -0.14917086 0.8073574 0.87735295 0.407375
00000000: 1eae 113e 740c cc3e 52bd 2e3f 0ba8 853e
00000010: 1e6b 213f fc08 9f3d 6751 e53e f16c ea3c
00000020: d84d 363d e54a 143f 72db 41ba 26a3 973e
00000030: 3fc0 18be f9ae 4e3f 349a 603f 7593 d03e

fc2.weight f4 [12, 16]
0.6679332 -0.10286333 0.19364314 0.38663825 0.17635067 0.057946563 0.25530148 0.8806744
0.035791963 1.0421563 0.15685405 -0.38316298 -0.1900861 0.34762427 0.49310756 0.45879957
0.3689578 0.023311077 0.15963928 0.46399882 -0.18624596 -0.20368019 -0.41883177 -0.5661641
-0.10019487 -0.94478637 0.041397817 0.12010222 -0.25182518 0.87013304 0.48173624 0.16464587
0.23053813 0.5986268 0.3253817 0.15447688 0.36363214 -0.1873751 0.6339759 0.32283494
-0.110137165 0.9654236 0.02202035 -0.2576445 0.085249595 0.20885032 0.14559494 0.42719546
-0.108531475 -0.005884333 -1.0557784 -0.99195194 0.13027848 -0.18837142 -0.45176288 0.0721506
-0.06485629 -1.110768 0.1450373 0.5155509 -0.14785947 0.06943411 0.076641254 -0.19975482
-0.14627495 0.7862452 0.059869036 0.6803285 0.20751782 -0.2352821 0.6359505 -0.6204026
-0.1787984 -0.50515246 0.10686109 0.4612691 0.1413672 0.38537264 0.4200894 -0.23771352
0.073657095 0.4961201 0.47896963 0.27797744 0.44166532 -0.14980185 1.2584946 0.25266194
0.09552869 1.0240526 -0.13294491 -0.3042672 0.066622525 0.38409752 -0.2893459 0.05879687
-0.13137445 -0.032801718 -0.01544717 0.0346255 -0.19048291 0.088314086 -0.16088673 0.20468748
0.036094755 -0.005413592 -0.09950888 -0.22847769 -0.13177115 -0.14786202 -0.22378653 0.17098525
-0.26217067 0.36679295 0.9172348 -0.985736 -0.16201743 0.032247365 0.81541073 0.06485255
-0.011982292 0.65529746 0.045382563 0.75217503 0.1459947 -0.050820585 0.12603582 -0.16863927
0.18831517 0.7321934 0.42512858 0.6042689 0.39422905 -0.23855957 0.7941792 -0.27462274
-0.16742566 0.0151796825 -0.18698128 -0.22389537 0.03703031 0.5766791 0.03009244 -0.16102499
0.27838203 0.4103547 0.3024125 0.3797278 0.11267623 -0.15485024 0.7287876 0.02409055
-0.1351324 0.4599028 -0.19506699 -0.51307124 -0.1698615 0.3601144 0.4360836 0.044279207
0.58882475 -0.14715934 1.0460615 -0.963217 -0.11726073 -0.18437862 0.052911337 0.02507529
0.054080486 0.8823576 -0.23599844 0.76120085 -0.1972616 0.50241655 0.65054834 0.7668313
0.64438593 0.123247065 0.4697069 -0.10172523 0.27344084 -0.1435242 0.30552387 0.7274371
-0.035977125 0.6396523 -0.20920132 -0.57602274 -0.07425436 0.025174167 0.25430998 0.28804022
00000000: acfd 2a3f 02aa d2bd 634a 463e 73f5 c53e
00000010: 4595 343e 6059 6d3d e0b6 823e e173 613f
00000020: 989a 123d 6165 853f 599e 203e f02d c4be
00000030: eea5 42be cffb b13e 9878 fc3e c7e7 ea3e
00000040: 09e8 bc3e dff6 be3c 7b78 233e 4191 ed3e
00000050: 43b7 3ebe 8a91 50be 1e71 d6be 21f0 10bf
00000060: f832 cdbd 85dd 71bf c290 293d 27f8 f53d
00000070: 3bef 80be 0ac1 5e3f 22a6 f63e ed98 283e
00000080: 3012 6c3e 9b3f 193f 6e98 a63e 302f 1e3e
00000090: fe2d ba3e 42df 3fbe 3f4c 223f 9f4a a53e
000000a0: 988f e1bd 0026 773f 0564 b43c fbe9 83be
000000b0: 5797 ae3d dcdc 553e d716 153e 5db9 da3e
000000c0: c045 debd 5dd1 c0bb bf23 87bf 90f0 7dbf
000000d0: b967 053e 70e4 40be 774d e7be b2c3 933d
000000e0: 60d3 84bd a52d 8ebf a884 143e 25fb 033f
000000f0: 7968 17be 7833 8e3d 17f6 9c3d 878c 4cbe
00000100: 1ac9 15be 5e47 493f 3c39 753d 022a 2e3f
00000110: 8d7f 543e caed 70be a7cd 223f b4d2 1ebf
00000120: ee16 37be ac51 01bf fdd9 da3d 772b ec3e
00000130: 90c2 103e 904f c53e f515 d73e 2c6b 73be
00000140: 88d9 963d 7403 fe3e 823b f53e 0f53 8e3e
00000150: f521 e23e a865 19be 5a16 a13f e85c 813e
00000160: 8ca4 c33d 2814 833f b622 08be e9c8 9bbe
00000170: 6471 883d 6ea8 c43e 2525 94be fdd4 703d
00000180: 0687 06be 185b 06bd 2016 7dbc 78d3 0d3d
00000190: f40d 43be 04de b43d 7ebf 24be 9899 513e
000001a0: 18d8 133d 8064 b1bb 50cb cbbd 0ef6 69be
000001b0: 04ef 06be 2469 17be 4c28 65be c216 2f3e
000001c0: 3c3b 86be 49cc bb3e e6cf 6a3f 3259 7cbf
000001d0: e6e7 25be d015 043d c2be 503f 6ad1 843d
000001e0: 6051 44bc 93c1 273f 11e3 393d 8b8e 403f
000001f0: a27f 153e 3f29 50bd 890f 013e c6af 2cbe
00000200: b1d5 403e 0771 3b3f 74aa d93e 5eb1 1a3f
00000210: 64d8 c93e f648 74be 544f 4b3f 5a9b 8cbe
00000220: a271 2bbe 34b4 783c 0578 3fbe d444 65be
00000230: 18ad 173d 3ea1 133f 6c84 f63c bce3 24be
00000240: 1788 8e3e 031a d23e d0d5 9a3e af6b c23e
00000250: ccc2 e63d 1091 1ebe d391 3a3f 8c59 c53c
00000260: 2660 0abe 6178 eb3e a4bf 47be a358 03bf
00000270: 2cf0 2dbe ea60 b83e 5a46 df3e 1d5e 353d
00000280: 38bd 163f f0b0 16be 58e5 853f 6495 76bf
00000290: 6526 f0bd c0cd 3cbe 8fb9 583d b26a cd3c
000002a0: 8083 5d3d 30e2 613f 93a9 71be 0fde 423f
000002b0: f2fe 49be 5f9e 003f 568a 263f 0e4f 443f
000002c0: 7af6 243f f568 fc3d 6c7d f03e 5155 d0bd
000002d0: 7000 8c3e 02f8 12be a06d 9c3e 5139 3a3f
000002e0: c05c 13bd 41c0 233f df38 56be 3a76 13bf
000002f0: ab12 98bd 0e3a ce3c eb34 823e 027a 933e

fc2.bias f4 [12]
0.64917016 -0.034383997 0.39366975 0.070801064 0.42708436 0.2678599 0.11150855 0.37794477
0.2735043 0.23321041 0.33749062 0.14655088
00000000: 0430 263f 3cd6 0cbd 158f c93e 2600 913d
00000010: cdaa da3e ef24 893e 985e e43d fa81 c13e
00000020: c108 8c3e b6ce 6e3e 92cb ac3e 6f11 163e

fc3.weight f4 [10, 12]
0.076403916 0.20130718 0.123228036 0.2394105 -0.40203857 -0.16335061 0.13208947 0.37353736
0.06514536 0.13908908 -0.15431811 -0.13506392 0.011415821 0.13369839 -0.17232336 0.32190746
-0.1620983 -0.06765272 -0.19815758 -0.022290366 -0.015602745 0.011359369 -0.00062355737 -0.21881986
-0.15781507 0.23969813 -0.1362481 1.2901552 0.44216082 -0.43328705 -0.05036734 -0.9966624
0.13866057 -0.17201224 -0.5315708 -0.22576712 -0.24873538 -0.21675248 0.15756468 0.14017265
-0.018977799 0.04936278 -0.21676727 0.36791602 0.15846851 0.14134979 0.2968229 0.26856473
0.4103147 0.108442314 0.20311122 -0.02383588 0.28249604 -0.21326944 -0.21977115 0.3999587
0.09870118 -0.014886229 0.11606373 0.25003982 0.59744054 0.43058345 0.5213996 0.3450779
0.13894267 0.20355995 0.04184401 0.58331466 0.1682268 0.1363475 0.5632719 0.27245784
-0.0666586 -0.82667524 0.054558847 0.06445595 -0.050101534 0.5424404 0.08310023 0.70373553
-0.29533362 -0.5618258 -0.16319922 -0.222914 -0.5804143 0.46129262 -0.517829 -0.10511128
0.8116897 -0.6459739 0.20870215 0.57219553 -0.2903972 -0.49269155 0.21861327 -0.58567876
0.37905425 -0.22980426 -0.11389031 0.5926958 -1.1675988 -0.6943734 0.15660757 -0.10877428
-0.8301409 -0.47157153 0.27474964 0.34727955 -0.06792608 0.009276762 0.115512036 0.027237404
0.014999585 -0.058281217 0.060991645 -0.027250892 0.06352429 -0.08855039 0.010302601 0.0961392
00000000: a879 9c3d 7823 4e3e fb5e fc3d 0728 753e
00000010: 00d8 cdbe 6245 27be 7642 073e 4a40 bf3e
00000020: ee6a 853d 5e6d 0e3e 9105 1ebe 324e 0abe
00000030: 6c09 3b3c 3be8 083e 8975 30be 0ed1 a43e
00000040: 19fd 25be 828d 8abd d2e9 4abe 499a b6bc
00000050: a8a2 7fbc a61c 3a3c 3a76 23ba 5012 60be
00000060: 469a 21be 6d73 753e 9f84 0bbe ce23 a53f
00000070: e762 e23e cdd7 ddbe fc4d 4ebd 4425 7fbf
00000080: 09fd 0d3e fa23 30be 0615 08bf 7f2f 67be
00000090: 7db4 7ebe 5df4 5dbe a358 213e 6b89 0f3e
000000a0: 5477 9bbc a030 4a3d 3df8 5dbe 7d5f bc3e
000000b0: 9245 223e 00be 103e 2cf9 973e 5181 893e
000000c0: c514 d23e 0117 de3d 63fc 4f3e 7743 c3bc
000000d0: 52a3 903e 4e63 5abe b00b 61be 63c7 cc3e
000000e0: d823 ca3d 5fe5 73bc d2b2 ed3d 3805 803e
000000f0: ddf1 183f 6f75 dc3e 727a 053f 0dae b03e
00000100: fd46 0e3e 0572 503e a064 2b3d 1c54 153f
00000110: a543 2c3e ae9e 0b3e 9632 103f 987f 8b3e
00000120: 4e84 88bd fda0 53bf 1979 5f3d 7b01 843d
00000130: 4437 4dbd 60dd 0a3f 7430 aa3d 0328 343f
00000140: f835 97be d1d3 0fbf b21d 27be 9143 64be
00000150: 0896 14bf 8c2e ec3e 7190 04bf 9544 d7bd
00000160: e5ca 4f3f 8c5e 25bf 04b6 553e 687b 123f
00000170: f1ae 94be 1142 fcbe 28dc 5f3e 0bef 15bf
00000180: 6613 c23e cf51 6bbe 533f e9bd e9ba 173f
00000190: e173 95bf 75c2 31bf bc5d 203e 0dc5 debd
000001a0: 1d84 54bf d371 f1be fcab 8c3e a0ce b13e
000001b0: d41c 8bbd 8ffd 173c 9391 ec3d fa20 df3c
000001c0: d2c0 753c 49b8 6ebd 60d2 793d 433d dfbc
000001d0: 0619 823d e859 b5bd 3ecc 283c a1e4 c43d

fc3.bias f4 [10]
0.007298598 -0.1148748 -0.264202 0.16632503 0.36958295 0.008403651 -0.0027878429 0.018725377
0.24554399 0.25941685
00000000: 1429 ef3b 7b43 ebbd 7c45 87be 1c51 2a3e
00000010: fa39 bd3e 78af 093c 3eb4 36bb f665 993c
00000020: e26f 7b3e 49d2 843e
