dqn_conservative.pth (torch, 5090 bytes, 6 tensors)

fc1.weight f4 [16, 16]
0	0x3f172516	0.59040964
1	0x3f47b1d9	0.7800575
2	0x3f8bf6fc	1.0934749
3	0x3f2f8ac6	0.68571126
4	0x3f24e2ed	0.6440876
5	0x3f19ced7	0.6008124
6	0x3f1d03fc	0.61334205
7	0x3f863b43	1.0486835
8	0xbff5045e	-1.9141958
9	0xbd63b779	-0.055594895
10	0x3d8d4557	0.06897991
11	0x3f1b68e0	0.607069
12	0x3f0bfad5	0.54679614
13	0x3ef3c3f8	0.4761045
14	0xbe1c6e19	-0.15276374
15	0x3d8067ff	0.06269836
16	0xbe312b83	-0.17301755
17	0x3d2bb4a9	0.041920338
18	0x3d7bcc48	0.061474115
19	0x3e5613b9	0.20905961
20	0x3dfee040	0.12445116
21	0xbd00d7d0	-0.031455815
22	0xbe9edcf0	-0.31027937
23	0x3e368656	0.17824683
24	0x3faaf23e	1.3355176
25	0xbd29e633	-0.0414793
26	0xbce6153f	-0.028086303
27	0x3e3f34ac	0.18672436
28	0x3f1beced	0.60908395
29	0xbcae6603	-0.021288877
30	0xbf15b6d1	-0.5848208
31	0x3ef83db8	0.48484588
32	0xbd990ecc	-0.074735254
33	0x3eaa3237	0.33241436
34	0x3e866aa6	0.2625324
35	0x3e647343	0.22309594
36	0xbd9c18e4	-0.07621935
37	0xbe0ad992	-0.13559559
38	0x3dac1734	0.08402863
39	0x3f1879da	0.5956093
40	0x3f7f8158	0.9980674
41	0xbe8d826b	-0.27638564
42	0xbec32d07	-0.3812029
43	0x3e9f3046	0.31091517
44	0x3e6e0110	0.23242593
45	0x3ea4b05a	0.32165796
46	0xbecc88e7	-0.39948198
47	0x3f38117b	0.71901673
48	0xbe682068	-0.22668612
49	0x3e882151	0.26587918
50	0xbd9a1bf5	-0.07524864
51	0x3ebb311b	0.36560902
52	0x3e1312f6	0.14362702
53	0xbe1bb6e8	-0.15206492
54	0xbbcd5d6a	-0.0062672393
55	0x3b11d833	0.002225411
56	0x3f9fd274	1.24861
57	0x3ea0089c	0.31256568
58	0x3e98619e	0.29761976
59	0x3e6f2e47	0.23357497
60	0x3e85f6a5	0.26164737
61	0x3e3e3437	0.18574606
62	0xbf1f3f5b	-0.6220605
63	0x3f3338e4	0.70008683
64	0xbdcc0df3	-0.09963598
65	0x3dd3e1e4	0.103458196
66	0xbd9b5dd8	-0.07586259
67	0xbe5fa0d5	-0.21838696
68	0xbe821960	-0.25409985
69	0x3d178652	0.036993332
70	0xbe780dcc	-0.24224013
71	0xbe50592e	-0.2034652
72	0x3d7f4fd1	0.06233198
73	0xbe072c45	-0.13200481
74	0xbc1f6258	-0.009728037
75	0x3d6cc400	0.057804108
76	0x3ca486e9	0.020083861
77	0xbe7df523	-0.24800543
78	0xbe4e80d2	-0.20166329
79	0xbe38f958	-0.18063867
80	0xbc949ec3	-0.01814211
81	0x3e836e7d	0.25670233
82	0x3d5d80fd	0.05407809
83	0x3e566306	0.20936212
84	0xbe38b0d2	-0.18036202
85	0xbe99d25a	-0.30043298
86	0xbec4f442	-0.38467604
87	0x3e7e7a45	0.2485133
88	0x3f9fc932	1.2483275
89	0xbc3693ab	-0.011143605
90	0xbe01411a	-0.1262249
91	0xbe43076a	-0.19045797
92	0x3ecab795	0.39593187
93	0x3e73cea8	0.23809302
94	0xbe8fccc0	-0.280859
95	0x3f0895f3	0.53353804
96	0x3d89415d	0.0670192
97	0x3deb9f57	0.11505001
98	0xbe0adf2d	-0.13561697
99	0x3e5ac57b	0.21364395
100	0x3e813c0b	0.25241122
101	0xbd8e6ba4	-0.069541246
102	0x3c4f43f7	0.012650481
103	0x3dc8a34e	0.09796773
104	0x3f777e5c	0.96677184
105	0x3e8e1218	0.2774818
106	0x3ec3ddcb	0.38255152
107	0x3e1d6107	0.15369044
108	0x3ee578f7	0.4481885
109	0x3e5e92bf	0.21735667
110	0xbf2bb669	-0.6707521
111	0x3eac1d1f	0.33615968
112	0xbdd72f72	-0.10507096
113	0xbe7e4115	-0.24829514
114	0xbee6d599	-0.45084837
115	0x3dc89f1d	0.097959734
116	0xbd9e2765	-0.07722358
117	0xbc3d18b9	-0.011541539
118	0xbee6cf35	-0.4507996
119	0xbc199d5b	-0.009375895
120	0x3fcd685c	1.6047473
121	0x3d8011a4	0.06253365
122	0x3e3bb423	0.18330435
123	0xbede8c43	-0.43466386
124	0x3ea682cd	0.32521668
125	0xbd63c334	-0.055606082
126	0xbeab7067	-0.33484194
127	0x3e6efb84	0.23338133
128	0xbe32e013	-0.1746829
129	0x3e22e57d	0.15907855
130	0xbd39bb2c	-0.045344517
131	0x3ce4db53	0.027936613
132	0x3d9a3414	0.07529464
133	0xbe13ebd7	-0.14445435
134	0xbd34a12e	-0.044099025
135	0x3f10bcdc	0.56538177
136	0x3f8a0a53	1.0784401
137	0xbea56fd2	-0.32311875
138	0xbe88d1ee	-0.26722664
139	0xbea113ad	-0.31460324
140	0x3ecfd8d2	0.40595108
141	0x3e85c4a8	0.261266
142	0xbc036821	-0.008020432
143	0x3f227714	0.6346295
144	0x3d8e3930	0.069445014
145	0x3db31efd	0.08746145
146	0xbde926ee	-0.113843784
147	0x3cbcba5e	0.023038086
148	0xbe482001	-0.19543459
149	0xbeb77559	-0.35831717
150	0x3e120c6e	0.14262554
151	0x3e6d3ce0	0.23167753
152	0x3f9c3390	1.2203236
153	0xbecac8a9	-0.39606217
154	0xbd802f32	-0.06259002
155	0xbe68cc2e	-0.22734138
156	0x3f08e6b4	0.53477025
157	0x3e72cbdd	0.2371058
158	0xbf125eb6	-0.5717577
159	0x3f48a19d	0.783716
160	0xbe45ead6	-0.19327864
161	0xbc3440a0	-0.011001736
162	0xbc88cf30	-0.016700357
163	0xbd58fa20	-0.052972913
164	0xbe16ddd4	-0.14733058
165	0x3e3234fe	0.17403027
166	0xbe304894	-0.17215186
167	0xbbdac280	-0.0066760182
168	0xbe74b79e	-0.2389817
169	0xbce38040	-0.027771115
170	0xbe16127e	-0.14655492
171	0xbd06bfe8	-0.03289786
172	0x3ceb3470	0.028711528
173	0xbe0fe230	-0.14051127
174	0xbdf06e94	-0.11739841
175	0x3e0f0ac4	0.1396895
176	0x3ee01b13	0.43770656
177	0x3ef39db4	0.47581255
178	0x3eb6b3ea	0.3568414
179	0x3ec2cc40	0.38046455
180	0x3f27c333	0.65532225
181	0x3f042efc	0.5163419
182	0x3c8ab761	0.016933145
183	0x3e5f6f5f	0.21819828
184	0xc000d94c	-2.0132627
185	0x3ebfd78c	0.37469137
186	0x3f0cf544	0.55061746
187	0x3f5e8710	0.8692484
188	0x3eff0e0e	0.4981541
189	0x3e90e5a4	0.28300202
190	0x3ea8e63c	0.32988155
191	0xbeb78d19	-0.35849836
192	0xbe7c04dc	-0.24611229
193	0x3e4e79ac	0.20163602
194	0x3decf446	0.11570029
195	0x3e3eee95	0.186457
196	0xbcf56968	-0.029957488
197	0xbd9a1f44	-0.07525495
198	0xbc71362d	-0.014722389
199	0x3e972674	0.29521525
200	0x3f88e87b	1.0695947
201	0x3df4d979	0.11955542
202	0x3d3170c1	0.04332042
203	0x3eeedf16	0.46654576
204	0x3ed9022f	0.42384478
205	0x3e32c092	0.17456272
206	0xbf299907	-0.66249126
207	0x3f1130ae	0.56714904
208	0x3d744a61	0.059641246
209	0xbe65dd16	-0.22447619
210	0xbe61de5e	-0.22057483
211	0x3d9c5a03	0.07634356
212	0x3e4c9e8e	0.19982359
213	0xbeafbbcc	-0.34322965
214	0xbd4eb59f	-0.050466176
215	0x3ea0d248	0.31410432
216	0x3fb8ec60	1.4447136
217	0xbe45525c	-0.19269699
218	0x3d9a83a5	0.075446405
219	0x3d9ec9b4	0.077533156
220	0x3ebda26c	0.3703798
221	0xbdcbfd30	-0.09960401
222	0xbe64ac4d	-0.22331353
223	0x3eb73876	0.35785264
224	0x3db9c422	0.090706125
225	0xbe84a032	-0.2590347
226	0x3da61597	0.08109587
227	0x3e91f3a7	0.28506204
228	0xbe2dc462	-0.16969445
229	0xbec21a3b	-0.37910637
230	0xbe65c94f	-0.22440074
231	0x3e3927b9	0.18081559
232	0x3fc9964a	1.574899
233	0xbd08a500	-0.03336048
234	0x3edc4b3a	0.43026143
235	0xbeaed4e8	-0.3414681
236	0x3e889bd3	0.26681384
237	0x3e514e4b	0.20440023
238	0xbf19a91d	-0.6002367
239	0x3ed6bfb9	0.41943148
240	0x3f1860b4	0.5952256
241	0x3f84406a	1.0332158
242	0x3fccd822	1.6003458
243	0x3f4d19f1	0.8011771
244	0x3f82dd97	1.0223874
245	0x3f2d506e	0.6770085
246	0x3fb31d9c	1.3993411
247	0x3fdbc785	1.7170264
248	0xbfd397e2	-1.6530726
249	0xbf0df7ec	-0.55456424
250	0xbd9381f2	-0.072025195
251	0x3f6b5afe	0.9193572
252	0x3e6a8195	0.22900994
253	0x3eb93960	0.36176586
254	0xbede4d02	-0.43418127
255	0x3ec1174d	0.3771309

fc1.bias f4 [16]
0	0xbd321a47	-0.04348209
1	0x3f3fef6a	0.7497469
2	0x3f2d3c9c	0.6767061
3	0x3f0969f9	0.53677326
4	0x3d2d56d3	0.04231913
5	0x3f42a1f8	0.76028395
6	0x3f218eac	0.63108325
7	0x3eec2ff1	0.46130326
8	0x3f327409	0.69708306
9	0x3f369e95	0.71335727
10	0x3e3542b8	0.17701232
11	0xbc9b99c1	-0.018994214
12	0x3f0efa53	0.55850714
13	0x3f0f6dde	0.5602702
14	0x3f1d31a9	0.614039
15	0x3e710c6f	0.235399

fc2.weight f4 [12, 16]
0	0xbf8ad95e	-1.0847585
1	0x3f2fbdf4	0.6864922
2	0x3ecc72c6	0.39931315
3	0x3f046a57	0.5172476
4	0xbe479188	-0.1948911
5	0x3efb218f	0.4904904
6	0x3e166e00	0.14690399
7	0x3f43c47f	0.76471704
8	0x3f624abc	0.88395286
9	0x3f5b2d2f	0.8561582
10	0x3e6cc8c6	0.23123464
11	0xbf98379e	-1.1891973
12	0x3e5b2fe6	0.2140499
13	0x3f126aea	0.5719439
14	0x3ecf662a	0.40507632
15	0xbf169661	-0.5882321
16	0xbed6ffd8	-0.41992068
17	0x3f39e5ba	0.7261616
18	0x3f1d286f	0.6138982
19	0x3ecafb72	0.39644963
20	0x3e24b8ce	0.16086122
21	0x3eeed5fa	0.46647626
22	0x3f0e3741	0.5555306
23	0x3e88db9f	0.26730058
24	0x3e9a34aa	0.30118304
25	0x3f1680ac	0.5879009
26	0xbd3544c0	-0.04425502
27	0xbf5d753a	-0.86507
28	0x3ed17fb8	0.40917754
29	0x3f027f31	0.5097533
30	0x3f1a863d	0.6036108
31	0x3e534a67	0.20633851
32	0x3ef4c184	0.4780389
33	0x3ee2ffcc	0.44335783
34	0x3f117a37	0.5682711
35	0x3f1942c1	0.59867483
36	0x3cebccc8	0.02878417
37	0x3e6c6d79	0.23088636
38	0x3f1db846	0.61609304
39	0x3d116b57	0.035502758
40	0x3ed66ed1	0.4188142
41	0x3e8235ed	0.25431767
42	0x3daee794	0.08540264
43	0xbbd30b18	-0.0064405315
44	0x3f238667	0.63876957
45	0x3ea8469c	0.3286637
46	0x3ec98589	0.39359692
47	0x3f2efb84	0.6835253
48	0xbc8dda63	-0.017316049
49	0x3d830fe5	0.06399516
50	0xbe4aa438	-0.19789207
51	0x3db92826	0.09040861
52	0x3e56aa94	0.20963508
53	0xbe9d1847	-0.30682585
54	0xbdf93f9f	-0.12170338
55	0x3c51b4fc	0.012799498
56	0x3e0a14fb	0.13484566
57	0xbe6bfb14	-0.23044997
58	0x3d7387f0	0.059455812
59	0xbe257c2c	-0.16160649
60	0x3e0d368a	0.13790336
61	0x3dbe7a50	0.09300673
62	0xbd4d10f8	-0.05006501
63	0x3e1e888d	0.15481777
64	0xbfbe8e94	-1.4887261
65	0x3f014037	0.5048861
66	0x3eee8a49	0.46589878
67	0x3f0e7e7b	0.55661744
68	0xbe03d1ae	-0.12872955
69	0x3f2d45c5	0.67684585
70	0x3e7cc09e	0.24682853
71	0x3f654d98	0.89571524
72	0x3f3d7e83	0.74021167
73	0x3ed7920f	0.4210362
74	0x3e3e1bf8	0.18565357
75	0xbfb2e310	-1.3975544
76	0x3eed5d87	0.46360418
77	0x3f43a30c	0.76420665
78	0x3f184206	0.59475744
79	0xbf6149c3	-0.88003176
80	0x3f677fd0	0.904294
81	0x3f3929f7	0.7232966
82	0x3f43cf60	0.76488304
83	0x3eb2b9d8	0.34907413
84	0xbd1fa15f	-0.038972255
85	0x3eee3d71	0.4653125
86	0x3f3f935e	0.7483424
87	0xbc4bd7d0	-0.01244159
88	0x3e4e4f89	0.20147528
89	0x3ebee73b	0.3728579
90	0x3cbac780	0.022800207
91	0x3a8269b1	0.0009949711
92	0x3f6baa3d	0.9205664
93	0x3ea6c602	0.32572943
94	0x3e84ddfd	0.25950614
95	0x3f44d3c4	0.7688563
96	0xbe3e76f2	-0.18600062
97	0x3d866512	0.065622464
98	0x3df15216	0.11783235
99	0xbe34f39a	-0.17671052
100	0xbcfb6c30	-0.030691236
101	0xbe052dae	-0.13005707
102	0x3d833630	0.0640682
103	0xbdda59c7	-0.10661655
104	0x3d709a62	0.05874098
105	0xbe41e2e7	-0.18934213
106	0x3e3e475c	0.18581909
107	0x3c9cd76e	0.019145694
108	0x3df33a46	0.11876349
109	0x3d599460	0.053120017
110	0xbdec9c73	-0.11553278
111	0xbb76f5f8	-0.003768323
112	0xbfecf191	-1.851122
113	0x3ed0b1d0	0.4076066
114	0x3ebbff3c	0.36718166
115	0x3e4f8500	0.20265579
116	0xbb413080	-0.002947837
117	0x3e97adf3	0.296249
118	0x3eecd9aa	0.46259815
119	0x3f58f71c	0.8475206
120	0x3ea523ed	0.32253972
121	0x3e7aa6f9	0.24477758
122	0xbd8af390	-0.06784737
123	0xbfaa1da5	-1.3290297
124	0x3eae7d49	0.3407996
125	0x3f1a1e8e	0.6020287
126	0x3f3f2747	0.7466931
127	0xbfcd32a2	-1.6031077
128	0xbdbd08e8	-0.09230214
129	0xbd8b24b8	-0.06794113
130	0xbcc5bb50	-0.02413717
131	0x3d96f218	0.073703945
132	0x3e534f1c	0.20635647
133	0xbc3c1d60	-0.011481613
134	0x3bbf1540	0.0058313906
135	0x3c96ee20	0.018424094
136	0xbdc0aa50	-0.094074845
137	0xbe7ff6e0	-0.24996519
138	0x3b418100	0.0029526353
139	0x3debf3e8	0.11521131
140	0xbe6f5088	-0.23370564
141	0xbd821ce8	-0.0635317
142	0x3c906c10	0.017629653
143	0xbcdfa9a0	-0.027302563
144	0x3f8fc41e	1.1231725
145	0xbdaa3cc2	-0.0831237
146	0x3f03dfbc	0.51513267
147	0xbed20ab0	-0.4102378
148	0x3e5a4636	0.21315846
149	0xbda0cbd7	-0.07851379
150	0xbecc63fb	-0.3992003
151	0xbf3e8cc0	-0.7443352
152	0x3ec011db	0.37513623
153	0x3e5b5394	0.21418601
154	0x3db7db64	0.08977392
155	0x3e8a653c	0.2703036
156	0x3d9ff8da	0.078111365
157	0xbc57fa1d	-0.01318219
158	0xbf122945	-0.5709422
159	0x3fbb7517	1.4645108
160	0xc009b504	-2.1516733
161	0x3eaa083d	0.3320941
162	0x3ea3ff6c	0.3203081
163	0x3ea118d4	0.31464255
164	0x3daa91ac	0.08328566
165	0x3f089c03	0.53363055
166	0x3e6097a7	0.21932851
167	0x3f8dd124	1.107945
168	0x3f4dc451	0.8037768
169	0x3f0ad72e	0.5423459
170	0xbd58e908	-0.05295661
171	0xbfcb6168	-1.5889101
172	0x3dacfa54	0.08446184
173	0x3f1c5e59	0.61081463
174	0x3f6a6ba5	0.915705
175	0xbfb9171e	-1.446018
176	0xbee43ded	-0.44578496
177	0x3f456a47	0.7711529
178	0x3f16a38c	0.588433
179	0x3f1734e7	0.590651
180	0x3e4d56cb	0.2005264
181	0x3f4fc848	0.8116498
182	0x3eaf78e6	0.34271926
183	0x3f3c81e2	0.73635685
184	0x3eff238d	0.4983181
185	0x3f22f923	0.636614
186	0x3e6a4bf4	0.22880536
187	0xbf5e103a	-0.8674351
188	0x3ef4ae66	0.47789305
189	0x3eeabab2	0.45845562
190	0x3eb0b3c4	0.3451215
191	0xbed6b968	-0.4193833

fc2.bias f4 [12]
0	0x3eed5c60	0.4635954
1	0x3f228396	0.63482034
2	0x3ec2cf1f	0.38048646
3	0xbd8299ba	-0.06376977
4	0x3eda784c	0.42669904
5	0x3f53537d	0.8254927
6	0x3e2b75c1	0.16744138
7	0x3e9074e4	0.2821418
8	0x3e2fb696	0.17159495
9	0x3f030087	0.5117268
10	0x3e27694b	0.1634876
11	0x3eaccebc	0.33751476

fc3.weight f4 [10, 12]
0	0xbd2c8c1a	-0.0421258
1	0xbe53665a	-0.20644513
2	0x3cf30b1b	0.029668381
3	0xbe758405	-0.23976143
4	0x3dfd2a01	0.12361527
5	0xbcb51af8	-0.022107586
6	0x3e84dbda	0.25948983
7	0xbe814274	-0.25246012
8	0xbe01c0f7	-0.12671266
9	0xbcdb2319	-0.026750134
10	0xbdc2f9de	-0.09520315
11	0xbdfb4583	-0.12269118
12	0xbe4171ec	-0.18891114
13	0xbdf2dce4	-0.11858538
14	0xbdc0b5b0	-0.09409654
15	0x3e1b465a	0.15163556
16	0x3c9fd6a8	0.019511536
17	0xbecedd06	-0.40403003
18	0xbd6c8358	-0.057742447
19	0x3e4ff1b3	0.20307045
20	0xbcbf4580	-0.02334857
21	0xbe6c28a5	-0.2306238
22	0x3f0b46f4	0.5440514
23	0xbf02ef5a	-0.5114647
24	0x3d1034bf	0.035206553
25	0xbef6efb0	-0.48229742
26	0xbf598615	-0.8497022
27	0x3c4d1d89	0.012519249
28	0xbd117e8b	-0.03552107
29	0xbf616713	-0.88047904
30	0x3a365b35	0.000695634
31	0x3e204584	0.15651518
32	0x3d44b210	0.048021376
33	0xbf995923	-1.1980327
34	0x3f19e53e	0.6011542
35	0xbe9fd33e	-0.31215852
36	0x3e3b4927	0.18289624
37	0x3d354a96	0.044260584
38	0xbda6cc35	-0.08144418
39	0xbb9313f2	-0.0044884617
40	0x3e001021	0.12506153
41	0x3eb07609	0.34465054
42	0x3d16b9e4	0.036798373
43	0xbe9d47fb	-0.3071898
44	0xbe0da459	-0.13832225
45	0x3ef1fd56	0.47263592
46	0xbe436479	-0.19081296
47	0x3d785209	0.06062511
48	0xbdc8e121	-0.09808565
49	0x3ecd3658	0.40080523
50	0x3ead234d	0.33815995
51	0xbe089881	-0.13339426
52	0xbd4b705b	-0.049667697
53	0x3ece9cf6	0.40354127
54	0x3e773a1d	0.24143262
55	0x3da5f963	0.08104207
56	0x3e11cd38	0.14238441
57	0x3e1f59df	0.15561627
58	0xbe0c6886	-0.13711748
59	0x3ea9c2e6	0.33156508
60	0x3ea65339	0.3248537
61	0x3f475921	0.77870375
62	0x3ef6a227	0.48170587
63	0x3e5bb071	0.21454026
64	0x3ea4ae30	0.32164145
65	0x3f5a07a4	0.8516791
66	0xbe6387a5	-0.22219713
67	0x3dce11ab	0.10061964
68	0xbde774a6	-0.11301546
69	0x3e8aebb0	0.2713294
70	0x3ee03edb	0.43797955
71	0x3ee2fbe5	0.44332805
72	0xbf360597	-0.7110228
73	0xbe90d498	-0.28287196
74	0xbea5e011	-0.32397512
75	0x3d8de20d	0.069278814
76	0xbeac69f1	-0.33674577
77	0xbdb6bfff	-0.08923339
78	0x3c80d8ae	0.01572832
79	0xbf01355f	-0.5047206
80	0x3d1146c0	0.035467863
81	0xbf1de6f2	-0.6168052
82	0xbee008b0	-0.43756628
83	0x3e1e847c	0.15480226
84	0xbf5ad689	-0.85483605
85	0xbebc9e31	-0.3683944
86	0xbe1b0744	-0.1513949
87	0x3dc07815	0.09397904
88	0xbf62c917	-0.8858809
89	0xbe360510	-0.17775369
90	0x3d727ac7	0.05919912
91	0xbea46a17	-0.3211219
92	0xbcab44e0	-0.020906866
93	0xbe92a140	-0.2863865
94	0xbee873fd	-0.45400992
95	0xbec6dce1	-0.38840392
96	0xbf42b29c	-0.76053786
97	0xbf2d80c7	-0.67774624
98	0xbea4fcb6	-0.32224053
99	0xbcced5fa	-0.025248516
100	0xbf8b0ef3	-1.0863937
101	0xbe8059a4	-0.2506839
102	0xbceb51af	-0.028725473
103	0xbfb85447	-1.440072
104	0x3e5894d0	0.21150517
105	0x3fd45f72	1.6591628
106	0xbfa26790	-1.2687855
107	0xbf3c07b0	-0.7344923
108	0x3cc72118	0.024307773
109	0x3c04a8da	0.008096898
110	0x3e415b86	0.1888257
111	0x3daa0e03	0.08303454
112	0xbd98063a	-0.074230626
113	0xbde4d796	-0.11173932
114	0x3db52711	0.08845342
115	0xbd804851	-0.06263793
116	0xbd346de4	-0.044050112
117	0xbc19cc11	-0.009387032
118	0x3db4e892	0.08833422
119	0x3c808888	0.015690103

fc3.bias f4 [10]
0	0xbe11e616	-0.14247927
1	0xbe980775	-0.2969319
2	0xbe93e657	-0.28886673
3	0x3eed68c0	0.4636898
4	0x3dd60329	0.104498215
5	0x3ea77d87	0.32712957
6	0xbf26e6ba	-0.6519581
7	0xbdd51fd7	-0.104064636
8	0xbe26b34b	-0.16279332
9	0x3e666e57	0.22503029
