dqn_aggressive.pth (torch, 5006 bytes, 6 tensors)

fc1.weight f4 [16, 16]
0.16418713 -0.23999792 0.034792803 -0.096326336 -0.19338481 -0.1833555 0.12362722 0.11827803
-0.029559296 0.17395452 0.030668372 -0.11125533 -0.003987296 0.037342105 0.09799905 -0.13438858
-0.055606212 0.23053375 0.13150589 -0.07188052 0.1132243 0.04178164 0.18876179 -0.14281262
-0.25361833 -0.20229855 0.16371514 0.042881045 0.011922722 0.24242127 0.08502655 -0.05437118
-0.15716287 -0.003434245 0.019183537 -0.09204845 -0.19250944 0.06031044 0.17288831 -0.17591314
-0.07806745 -0.18442872 -0.15262213 0.09480903 0.25534296 -0.18517381 0.16097723 0.24763943
0.1111308 0.15451106 -0.0031254555 0.018981008 -0.09324294 0.023520153 0.20686123 -0.06997117
0.13962018 -0.19007553 0.12169143 0.053019505 0.12051884 0.18079723 0.12039072 -0.13763466
0.19175248 0.04075708 -0.23440161 0.24506131 0.13356546 -0.121005565 0.020998774 0.09095376
-0.10641525 -0.2258005 0.22992556 -0.07841903 0.13763136 -0.012545423 -0.23260178 -0.06955084
-0.10740488 0.05941657 0.049873076 0.012577429 -0.042989038 -0.040394083 0.13709502 0.013331016
0.23026718 0.11742509 -0.07194931 0.037033603 -0.16397227 0.09517208 -0.12515923 0.23163486
-0.26696467 0.18318708 0.08592121 0.21810934 -0.16000552 0.1915359 0.25439975 0.18472625
-0.067348726 0.14131804 -0.08913075 -0.18191555 -0.24341694 0.15880771 -0.16914567 -0.045849554
-0.16564666 -0.010560487 -0.08489377 0.022498304 -0.17445531 -0.0921222 0.00818296 -0.007923747
-0.20190124 0.20123471 0.2660998 0.06276429 0.11300586 -0.032221004 -0.052505076 -0.20777251
-0.1397785 -0.25026792 -0.2330044 0.0070203906 -0.104870185 0.07264765 -0.128688 0.0003582351
-0.040381957 0.2743141 -0.07168774 0.22704042 -0.018730527 0.056475755 -0.032637518 -0.13840416
-0.09494227 0.23949987 0.13913558 0.19193627 -0.09392797 0.0054129395 0.06642221 0.18259124
-0.1247871 0.14816459 0.044132106 -0.051614847 0.111194395 0.14766127 -0.06762052 -0.15319209
-0.10780249 -0.08454407 0.17353027 0.040261097 -0.13025096 -0.2576366 -0.32765195 0.1799489
-0.1239484 -0.04153399 -0.0686091 0.068375334 0.230548 -0.019668436 -0.06428853 0.21826878
0.033941578 0.028335396 -0.07942267 -0.030775448 -0.036533445 0.0373524 0.20228347 0.116778806
0.042820025 -0.1475809 0.20817788 0.10239413 -0.10741348 -0.122377194 0.14412586 -0.012044873
0.031071851 -0.096771054 -0.027280854 0.24396993 0.00053280534 0.032114424 0.16290948 0.28531936
0.0747607 0.01966437 -0.21327136 -0.04102116 -0.009446502 0.10596297 -0.25290367 0.067107834
0.07144544 -0.12854372 0.1391952 0.033838324 -0.124128066 -0.087084904 0.045580458 -0.09642016
0.056405228 0.0366484 -0.09169227 -0.1036326 -0.08666391 -0.06013813 -0.20892544 0.07742274
0.059717637 0.092904024 -0.029155822 -0.16086043 -0.21264465 0.17227659 0.21758708 0.0654291
0.2281268 0.18643352 0.00877962 -0.2199798 0.16512537 0.15996176 -0.10868179 -0.100905396
0.076630555 -0.17445679 -0.18416585 -0.15656391 0.18855529 -0.21435533 0.091323726 -0.09283085
0.20757678 0.11378454 -0.18575493 0.19263327 -0.05007374 -0.02244794 -0.27785566 -0.19943133
00000000: ac20 283e 04c2 75be e682 0e3d be46 c5bd
00000010: ab06 46be 8bc1 3bbe 4530 fd3d c03b f23d
00000020: 5626 f2bc 2221 323e 3d3c fb3c d6d9 e3bd
00000030: dda7 82bb 09f4 183d bab3 c83d 299d 09be
00000040: 57c3 63bd 0a11 6c3e 7ba9 063e 1836 93bd
00000050: 24e2 e73d 3a23 2b3d c54a 413e 793d 12be
00000060: 43da 81be 5a27 4fbe f1a4 273e 09a4 2f3d
00000070: 8557 433c 483d 783e 6622 ae3d 50b4 5ebd
00000080: 4eef 20be 1211 61bb cb26 9d3c e683 bcbd
00000090: 3221 45be 1408 773d a209 313e 9322 34be
000000a0: d4e1 9fbd e2da 3cbe fa48 1cbe 3d2b c23d
000000b0: 50bc 823e 349e 3dbe 37d7 243e 3195 7d3e
000000c0: 8b98 e33d 2638 1e3e 71d4 4cbb 0f7e 9b3c
000000d0: 28f6 bebd 56ad c03c 6ed3 533e 0b4d 8fbd
000000e0: 98f8 0e3e 29a3 42be 5b39 f93d fb2a 593d
000000f0: 95d2 f63d e922 393e 698f f63d 1af0 0cbe
00000100: c35a 443e e5f0 263d fa06 70be 5af1 7a3e
00000110: 62c5 083e c4d1 f7bd 9f05 ac3c f745 ba3d
00000120: 3df0 d9bd 3f38 67be 9b71 6b3e 289a a0bd
00000130: 3cef 0c3e 518b 4dbc 292f 6ebe ac70 8ebd
00000140: 17f7 dbbd ca5e 733d b647 4c3d 9011 4e3c
00000150: 4615 30bd 4474 25bd a362 0c3e 556a 5a3c
00000160: 29cb 6b3e 917c f03d 295a 93bd 8cb0 173d
00000170: 59e8 27be 94e9 c23d be29 00be b031 6d3e
00000180: 98af 88be 6595 3b3e 76f7 af3d 0e58 5f3e
00000190: 7dd8 23be fd21 443e af40 823e e128 3d3e
000001a0: 21ee 89bd adb5 103e 2f8a b6bd 1248 3abe
000001b0: 4a42 79be 7d9e 223e 8634 2dbe becc 3bbd
000001c0: 479f 29be e505 2dbc c9dc adbd 5d4e b83c
000001d0: 6aa4 32be 90aa bcbd d211 063c 9bd2 01bc
000001e0: 33bf 4ebe 7910 4e3e 3c3e 883e 908a 803d
000001f0: 9e6f e73d 2cfa 03bd 900f 57bd 51c2 54be
00000200: 1822 0fbe 1e23 80be b598 6ebe 4e0b e63b
00000210: 2ec6 d6bd 4bc8 943d c9c6 03be 80d1 bb39
00000220: 8d67 25bd e672 8c3e 06d1 92bd 497d 683e
00000230: c370 99bc 1f53 673d ebae 05bd d2b9 0dbe
00000240: 1871 c2bd 743f 753e 8f79 0e3e f18a 443e
00000250: 4f5d c0bd 075f b13b 5e08 883d 33f9 3a3e
00000260: 6190 ffbd 75b8 173e dec3 343d 176a 53bd
00000270: e3b9 e33d 8434 173e a17c 8abd 63de 1cbe
00000280: 8dc7 dcbd 7125 adbd ebb1 313e d2e8 243d
00000290: 8260 05be f2e8 83be ffc1 a7be 8644 383e
000002a0: a9d8 fdbd 8c1f 2abd ee82 8cbd 5e08 8c3d
000002b0: c614 6c3e b31f a1bc b4a9 83bd da81 5f3e
000002c0: 5306 0b3d a21f e83c 5aa8 a2bd cb1c fcbc
000002d0: 18a4 15bd d5fe 183d 6623 4f3e ba29 ef3d
000002e0: 0d64 2f3d 731f 17be 952c 553e 03b4 d13d
000002f0: 99fb dbbd e5a0 fabd bb95 133e dc57 45bc
00000300: 658a fe3c e72f c6bd 197c dfbc 41d3 793e
00000310: f6ab 0b3a 6a8a 033d bed1 263e 6115 923e
00000320: 231c 993d 2c17 a13c cf63 5abe ce05 28bd
00000330: 80c5 1abc 1d03 d93d 977c 81be d56f 893d
00000340: fd51 923d f7a0 03be 3089 0e3e 0e9a 0a3d
00000350: db36 febd 9259 b2bd 93b2 3a3d ef77 c5bd
00000360: 2b09 673d a21c 163d 28c9 bbbd 543d d4bd
00000370: d97c b1bd 6653 76bd 8df0 55be d08f 9e3d
00000380: 7b9a 743d 7744 be3d 31d8 eebc 99b8 24be
00000390: 85bf 59be 4669 303e 26cf 5e3e b1ff 853d
000003a0: 129a 693e 6ee8 3e3e 65d8 0f3c 6242 61be
000003b0: a016 293e 04cd 233e 8f94 debd 7da7 cebd
000003c0: 7bf0 9c3d cda4 32be f995 3cbe 4a52 20be
000003d0: a314 413e f77f 5bbe ef07 bb3d 1a1e bebd
000003e0: 028f 543e de07 e93d 8a36 3ebe a841 453e
000003f0: 1f1a 4dbd bee4 b7bc 1943 8ebe ba37 4cbe

fc1.bias f4 [16]
-0.14080286 0.1253166 0.0619902 0.11805694 0.23669924 -0.17411466 0.12240873 -0.02608305
0.15075102 -0.20236744 0.018040761 0.16783191 0.040406723 -0.24304545 0.103151985 -0.14276113
00000000: a02e 10be ff52 003e 70e9 7d3d d6c7 f13d
00000010: 4961 723e 1d4b 32be 6eb1 fa3d 1fac d5bc
00000020: 7a5e 1a3e 6939 4fbe 38ca 933c 21dc 2b3e
00000030: 8581 253d e8e0 78be 5941 d33d f92f 12be

fc2.weight f4 [12, 16]
0.15672606 0.13411143 0.082099766 -0.13811931 -0.13515267 -0.18379676 0.20104432 -0.08018127
-0.1607737 -0.19571105 0.115198106 -0.23684773 0.07400325 0.10933113 -0.22808933 0.23213977
-0.03612187 -0.003432502 0.02340408 0.09066547 0.123088896 0.20786306 -0.013730848 0.07664107
0.09186585 0.12193861 0.10287392 0.07850033 -0.05558212 0.038030174 -0.105016135 0.12010711
0.20573607 0.035046857 -0.23916075 -0.0135027915 0.03157531 -0.04729949 -0.0678927 0.19098225
0.15369892 0.23681052 -0.26638278 -0.14354447 -0.27448523 0.069258176 -0.012069176 0.05661634
0.19320348 0.014023173 -0.05887826 0.04245639 -0.07545724 0.029507054 -0.16146323 -0.19282559
-0.113335505 0.21517561 0.024356201 0.22176503 0.19494884 0.119825654 -0.015220253 0.25280365
0.22688387 0.088696875 -0.089237295 -0.062032666 0.06390937 -0.124680296 -0.18123512 -0.20285977
0.024592768 -0.27917212 0.06968789 0.12144025 -0.19567966 0.21537828 -0.06366961 -0.2232085
-0.09395076 -0.07438435 0.21548533 -0.18562005 0.04049634 0.17384319 -0.07468416 0.22372139
0.11653217 -0.04004119 0.16501455 -0.058107547 0.076891996 -0.13540167 0.0376455 -0.11624356
0.13959858 0.14685036 -0.10472694 0.071199566 0.23827171 0.19581585 0.0020724633 0.08814949
0.2678573 0.009376997 -0.00446895 0.112139046 -0.11441251 -0.23692197 0.00946997 0.2524097
-0.25770748 -0.11918585 0.07006144 -0.09032306 -0.044600785 -0.20617154 0.06641343 0.058040917
0.11862458 -0.1629352 0.2977286 -0.14400426 -0.2641363 -0.29416412 0.17477554 0.070853055
0.110926874 -0.24344468 -0.3195976 -0.24321194 -0.23027654 0.20286518 -0.16904724 -0.18456627
-0.047762346 -0.18773627 0.06062196 0.23192185 0.09411969 -0.09538133 -0.20052889 0.058525726
-0.2699981 0.17903084 0.07517665 -0.0859203 0.1823725 0.07040999 -0.17304942 0.16064507
0.11935945 0.15119757 0.17386259 0.13388032 -0.12821697 -0.011983724 -0.204742 0.15934503
-0.16482735 -0.00925451 -0.020101147 0.20943163 -0.13440257 0.19166727 -0.08548742 0.15843797
-0.16400987 0.0458711 0.003312771 0.0071659237 -0.25620788 0.1666189 0.0028919776 0.048130956
-0.058473483 -0.074138075 0.05375106 0.07111811 0.023078673 0.14135121 0.048282556 -0.14064743
0.092522494 0.17382407 -0.08562279 0.20426188 -0.16956416 0.02918254 0.053705588 -0.24355495
00000000: cc7c 203e 8254 093e ec23 a83d 266f 0dbe
00000010: 7665 0abe 3835 3cbe 90de 4d3e 1436 a4bd
00000020: dca1 24be 7a68 48be fcec eb3d 3688 72be
00000030: 048f 973d 00e9 df3d 4090 69be 0cb6 6d3e
00000040: 87f4 13bd d4f3 60bb eab9 bf3c d1ae b93d
00000050: 0816 fc3d 0eda 543e 5af7 60bc fef5 9c3d
00000060: 2a24 bc3d f3ba f93d 90af d23d c8c4 a03d
00000070: 14aa 63bd 87c5 1b3d b312 d7bd b7fa f53d
00000080: 7aac 523e 4b8d 0f3d 8ee6 74be d03a 5dbc
00000090: 1d55 013d 1cbd 41bd 540b 8bbd da90 433e
000000a0: 4063 1d3e 757e 723e 5363 88be 52fd 12be
000000b0: 5489 8cbe 3bd7 8d3d cbbd 45bc 89e6 673d
000000c0: 22d7 453e 73c1 653c 552a 71bd c0e6 2d3d
000000d0: 5389 9abd c7b8 f13c 9e56 25be 1274 45be
000000e0: 721c e8bd ff56 5c3e a886 c73c 5f16 633e
000000f0: aba0 473e 2767 f53d 5e5e 79bc 7b6f 813e
00000100: 3f54 683e b5a6 b53d 0bc2 b6bd f715 7ebd
00000110: eae2 823d 6258 ffbd b395 39be 79ba 4fbe
00000120: c676 c93c a6ef 8ebe 86b8 8e3d aab5 f83d
00000130: 4060 48be 208c 5c3e 3665 82bd c590 64be
00000140: 4269 c0bd d256 98bd 30a8 5c3e 2f13 3ebe
00000150: 7ddf 253d f303 323e 02f4 98bd 3817 653e
00000160: 6ba8 ee3d 3b02 24bd 93f9 283e 2e02 6ebd
00000170: 8d79 9d3d bca6 0abe 2b32 1a3d 1b11 eebd
00000180: eef2 0e3e f15f 163e 147b d6bd 14d1 913d
00000190: 80fd 733e f383 483e 2ad2 073b b887 b43d
000001a0: 9824 893e faa1 193c 4570 92bb 28a9 e53d
000001b0: 1b51 eabd ac9b 72be ef27 1b3c d83b 813e
000001c0: 3cf2 83be b617 f4bd 5f7c 8f3d 4cfb b8bd
000001d0: 50af 36bd a21e 53be c403 883d 50bc 6d3d
000001e0: 72f1 f23d 7cd8 26be e26f 983e da75 13be
000001f0: e03c 87be ae9c 96be 5cf8 323e 681b 913d
00000200: a12d e33d 9049 79be 4ca2 a3be 8d0c 79be
00000210: 9dcd 6bbe e4bb 4f3e b81a 2dbe f1fe 3cbe
00000220: 73a2 43bd f03d 40be bb4e 783d ec7c 6d3e
00000230: d3c1 c03d 4957 c3bd 7257 4dbe acb8 6f3d
00000240: 313d 8abe dc53 373e 37f6 993d fbf6 afbd
00000250: dbbf 3a3e 1d33 903d de33 31be 2480 243e
00000260: ba72 f43d 89d3 1a3e 0909 323e ec17 093e
00000270: 4f4b 03be 6257 44bc e3a7 51be 582b 233e
00000280: 80c8 28be 3aa0 17bc 29ab a4bc 3f75 563e
00000290: d4a0 09be 6d44 443e 0714 afbd 903d 223e
000002a0: 34f2 27be 56e3 3b3d 131b 593b 20d0 ea3b
000002b0: ae2d 83be 259e 2a3e 5587 3d3b f724 453d
000002c0: e481 6fbd b4d5 97bd 122a 5c3d 5fa6 913d
000002d0: 7c0f bd3c 5fbe 103e eec3 453d e105 10be
000002e0: 6f7c bd3d f0fe 313e 005b afbd 072a 513e
000002f0: 3aa2 2dbe 3910 ef3c 64fa 5b3d 7866 79be

fc2.bias f4 [12]
-0.15528175 0.015539078 0.24569477 -0.013143878 0.04672147 0.27614123 0.14524768 0.10880623
-0.21303235 -0.19014722 0.032038804 -0.10183712
00000000: 2e02 1fbe 9e97 7e3c 6997 7b3e 6c59 57bc
00000010: 035f 3f3d 6262 8d3e cfbb 143e cdd5 de3d
00000020: 2725 5abe f4b5 42be 1f3b 033d fb8f d0bd

fc3.weight f4 [10, 12]
-0.19236466 0.0197244 0.075751744 0.037176006 0.011894604 0.1862034 0.010296507 0.044803612
-0.22729489 0.26586762 0.082751185 0.06252892 -0.25855595 -0.11406645 0.1636417 0.1516824
0.110847786 0.0090123145 0.18611634 -0.05671478 -0.24808015 0.20689961 0.115904965 -0.14779364
0.23372674 0.17596212 0.16843115 -0.030655876 -0.16931836 0.2026556 -0.119636916 0.11980153
0.12064132 -0.034097865 -0.06484968 0.16993399 0.013397276 0.16595355 0.016811788 -0.13667418
0.09995511 -0.044430137 -0.15806437 -0.12594584 0.047907054 -0.016282022 -0.030748278 -0.19542906
0.06513274 -0.011260793 0.31923607 0.047577817 0.24612626 0.14003137 -0.15226385 -0.13888249
-0.08396293 0.13645636 0.18131648 0.22882311 0.18411818 -0.1650627 -0.11912208 -0.26435068
-0.025395745 0.2683944 0.17499046 0.20338471 -0.15721294 0.18185541 -0.122625634 0.19890423
0.04962647 0.1519543 0.1507378 -0.26531938 0.11632505 -0.0060251835 0.20829493 -0.14661954
-0.08008239 -0.09880854 -0.18356591 -0.12923302 0.17239079 0.11170949 0.19666158 0.16967766
-0.041546836 -0.032199148 0.065577835 0.12827277 -0.06734365 0.29902974 -0.04807253 0.2314573
-0.25290066 0.23569582 -0.113516584 -0.126098 0.06164886 0.23964185 0.084223054 0.16452105
0.11385413 0.05220158 0.08374361 -0.09640563 0.055383384 -0.18710165 0.2543431 -0.17222215
-0.28707293 -0.043423697 -0.1338677 -0.25299534 0.07268587 -0.1583174 -0.22201225 -0.13466176
00000000: 3efb 44be 1195 a13c bb23 9b3d de45 183d
00000010: 96e1 423c 1bac 3e3e aeb2 283c fe83 373d
00000020: febf 68be cd1f 883e 7479 a93d 2a0f 803d
00000030: 7261 84be ac9b e9bd b191 273e a252 1b3e
00000040: 2a04 e33d 63a8 133c 4895 3e3e c24d 68bd
00000050: b908 7ebe 7edd 533e 955f ed3d 3757 17be
00000060: 1056 6f3e 6a2f 343e 3779 2c3e 0822 fbbc
00000070: cb61 2dbe f384 4f3e 3304 f5bd 815a f53d
00000080: cc12 f73d 34aa 0bbd e9cf 84bd 2d03 2e3e
00000090: 4080 5b3c baef 293e e0b8 893c 51f4 0bbe
000000a0: 44b5 cc3d 60fc 35bd a0db 21be f2f7 00be
000000b0: 303a 443d e061 85bc d0e3 fbbc 8e1e 48be
000000c0: 5064 853d 307f 38bc e972 a33e f5e0 423d
000000d0: 8608 7c3e 6264 0f3e 0eeb 1bbe 3637 0ebe
000000e0: c2f4 abbd 37bb 0b3e 07ab 393e 9b50 6a3e
000000f0: 7a89 3c3e 3206 29be 47f6 f3bd f958 87be
00000100: bd0a d0bc fe6a 893e b330 333e 1544 503e
00000110: 6efc 20be 4e38 3a3e 2623 fbbd 8dad 4b3e
00000120: 2045 4b3d e899 1b3e 035b 1a3e f1d7 87be
00000130: d43b ee3d e76e c5bb 444b 553e 6f23 16be
00000140: 3c02 a4bd 225c cabd b4f8 3bbe a955 04be
00000150: 3687 303e f2c7 e43d a761 493e fbbf 2d3e
00000160: 042d 2abd 41e3 03bd ac4d 863d f059 033e
00000170: 78eb 89bd 6d1a 993e b4e7 44bd 2403 6d3e
00000180: 327c 81be 3f5a 713e 627b e8bd d61f 01be
00000190: 8483 7c3d ac64 753e 237d ac3d 3578 283e
000001a0: 5b2c e93d 53d1 553d c581 ab3d 5170 c5bd
000001b0: b0d9 623d 9397 3fbe 4239 823e 015b 30be
000001c0: 39fb 92be 0cdd 31bd 9d14 09be 9b88 81be
000001d0: 54dc 943d f51d 22be 2e57 63be c6e4 09be

fc3.bias f4 [10]
0.13873777 0.18426341 0.16865434 -0.25892136 0.22756107 0.20195109 0.32913464 0.05065986
0.12024301 -0.1418837
00000000: 4611 0e3e 8caf 3c3e b9b3 2c3e 5791 84be
00000010: c505 693e 44cc 4e3e 5684 a83e b780 4f3d
00000020: f841 f63d f649 11be
