dqn_normal.pth (torch, 5030 bytes, 6 tensors)

fc1.weight f4 [16, 16]
0	0x3ee85377	0.4537618
1	0x3e660b83	0.22465329
2	0x3ed28f0f	0.4112477
3	0x3f1de231	0.61673266
4	0x3f00b25d	0.5027216
5	0x3e6424fe	0.22279736
6	0x3f51a45d	0.81891423
7	0xbcbe956c	-0.02326461
8	0x3f559bd3	0.83440894
9	0xbcb234c4	-0.021753676
10	0x3d998198	0.07495421
11	0xbc119e31	-0.008887813
12	0xbc39f4f8	-0.011349909
13	0x3e86f229	0.2635663
14	0xbea20b7d	-0.3164939
15	0x3f1a8428	0.60357904
16	0xbe094b34	-0.13407594
17	0xbe324130	-0.1740768
18	0xbe114664	-0.14187008
19	0xbe07c716	-0.13259539
20	0x3e356476	0.17714104
21	0xbe7c5c44	-0.24644572
22	0xbe7bdb12	-0.24595287
23	0x3e711672	0.23543718
24	0xbe4b192a	-0.19833818
25	0x3d5bb820	0.053642392
26	0xbd448418	-0.047977537
27	0xbe68dad0	-0.2273972
28	0x3e6c9caa	0.23106638
29	0xbe413c3e	-0.18870637
30	0x3b81ec00	0.003964901
31	0xbe22acaa	-0.15886179
32	0x3eccc336	0.39992684
33	0x3e875dc6	0.2643873
34	0x3f5e20ce	0.86768806
35	0x3db6b614	0.089214474
36	0x3e9ff562	0.312419
37	0xbc66c9b0	-0.014086172
38	0xbf17abc9	-0.592465
39	0x3f343f69	0.70409256
40	0xbf231644	-0.6370585
41	0x3da32cf5	0.07967559
42	0x3ed48d66	0.41514128
43	0x3f525117	0.82154983
44	0xbb868cf2	-0.0041061575
45	0x3f0acfcf	0.5422334
46	0xbe98f06c	-0.29870927
47	0xbefba554	-0.49149573
48	0xbe2f8193	-0.17139272
49	0x3e3557cd	0.17709275
50	0xbe8f06dd	-0.27934924
51	0xbe3e2df9	-0.18572225
52	0x3c854bbe	0.016271468
53	0x3aa03a08	0.0012224326
54	0xbe7524a6	-0.23939762
55	0x3e47aac0	0.1949873
56	0xbe2ca132	-0.16858366
57	0x3da005e4	0.078136235
58	0xbd66ab88	-0.05631593
59	0xbe191398	-0.1494888
60	0xbe4979c7	-0.1967536
61	0x3e19b506	0.15010461
62	0xbe0d6149	-0.13806643
63	0xbde2ad6c	-0.11068234
64	0x3e10f804	0.1415711
65	0x3b269680	0.0025419295
66	0x3ce7ff30	0.028319925
67	0xbdde051c	-0.10840818
68	0xbe2e31a6	-0.17011127
69	0xbd32fb28	-0.043696553
70	0x3da32a5c	0.07967064
71	0x3e31bbb8	0.17356765
72	0x3d21ad40	0.039471865
73	0xbdcedb58	-0.1010043
74	0xbd329c10	-0.043605864
75	0xbc82b6e0	-0.015956342
76	0xbe21b388	-0.15791142
77	0x3e70234c	0.23450965
78	0x3ca5e1f0	0.020249337
79	0xbe3f867e	-0.18703648
80	0xbde92922	-0.113847986
81	0xbdd35044	-0.10318044
82	0xbe7b059e	-0.24513862
83	0x3eb19e63	0.34691152
84	0xbdb3a9cc	-0.087726206
85	0x3e12af75	0.14324744
86	0x3f976c73	1.1829971
87	0xbe9b37a9	-0.30315903
88	0xbe183870	-0.14865279
89	0xbd6b9071	-0.057510797
90	0x3d430ab9	0.047617648
91	0x3e4f151c	0.20222896
92	0x3e9cc27a	0.30617124
93	0x3de15f8d	0.11004553
94	0xbec50a3b	-0.38484368
95	0x3f0dea63	0.5543577
96	0x3ed68422	0.41897684
97	0x3e8f04c9	0.27933338
98	0x3e8c5015	0.27404848
99	0x3eb75e84	0.35814297
100	0x3cf80e55	0.030280272
101	0x3ef2d755	0.4742991
102	0x3f42ec7a	0.76142085
103	0x3e4477ec	0.19186372
104	0x3f3c177c	0.73473334
105	0xbf07d6c8	-0.53062105
106	0x3e6054a6	0.21907291
107	0xbde863e3	-0.11347177
108	0x3e3f3b91	0.18675067
109	0x3d157327	0.03648677
110	0xbe8f2c48	-0.2796347
111	0x3f2a6fc9	0.6657682
112	0xbe53d5b6	-0.20686993
113	0xbe175ba6	-0.14781055
114	0x3e37110a	0.17877594
115	0x3e32fce0	0.17479277
116	0xbcfdf550	-0.031000763
117	0x3e42e206	0.19031534
118	0xbdd396d8	-0.103315055
119	0xbe273548	-0.16328919
120	0x3e2c9fc8	0.16857827
121	0xbb85ccc0	-0.004083246
122	0xbc9d3240	-0.019189
123	0xbdd9e500	-0.106393814
124	0xbcead030	-0.028663725
125	0x3e4677a2	0.19381574
126	0x3cb2b460	0.021814525
127	0xbe453f30	-0.19262385
128	0x3ddaef6a	0.10690196
129	0x3cdc7cdb	0.026915004
130	0xbe4cae14	-0.1998828
131	0x3e2c5515	0.16829331
132	0xbe4fcc25	-0.20292719
133	0x3cbf89f0	0.023381203
134	0x3faf1c49	1.3680507
135	0xbdba730e	-0.09103976
136	0xbec7036b	-0.38869795
137	0xbc574c55	-0.013140758
138	0x3eae6783	0.34063348
139	0x3ea6dd22	0.32590586
140	0xbb16d23f	-0.00230135
141	0x3eae204a	0.3400901
142	0xbe87746b	-0.26456007
143	0x3ed855a2	0.42252833
144	0xbe3e02d8	-0.18555772
145	0xbf0960a4	-0.53663087
146	0xbe3b0ba4	-0.1826616
147	0x3dd13f08	0.102171004
148	0xbe2f4676	-0.17116722
149	0x3d65ecbd	0.056133974
150	0x3fc93946	1.5720603
151	0xbe15c2b0	-0.14625049
152	0xbf675fdc	-0.90380645
153	0xbeabbff1	-0.33544877
154	0x3d8f3671	0.06992806
155	0x3e8c3585	0.27384582
156	0x3e1ce525	0.15321787
157	0xbeafccc4	-0.3433591
158	0xbe48e5fa	-0.19618979
159	0x3ed1db50	0.40987635
160	0x3eaacc8e	0.33359188
161	0xbca41c70	-0.020033091
162	0x3d1ea387	0.03873017
163	0x3e290161	0.16504432
164	0xbe0afc36	-0.13572773
165	0xbd5d84eb	-0.05408184
166	0x3f8d98c1	1.1062242
167	0xbe335d49	-0.17516054
168	0x3e048036	0.12939534
169	0xbe09759f	-0.13423775
170	0xbd6a0691	-0.05713517
171	0x3e8bc73d	0.27300444
172	0xbc8e1d63	-0.017347997
173	0x3edf43a2	0.43606287
174	0xbdebfc59	-0.11522741
175	0x3f11c794	0.5694516
176	0x3e0cab41	0.13737203
177	0x3ef55c52	0.47921997
178	0x3ecac1e3	0.3960105
179	0x3eb6ac9f	0.35678574
180	0x3efed990	0.49775362
181	0x3e4435c9	0.19161142
182	0x3ef9a7cb	0.48760828
183	0x3eb13777	0.3461263
184	0x3f795fd5	0.97411853
185	0xbd776e52	-0.060407944
186	0x3e9bfe85	0.3046762
187	0xbe922005	-0.28540054
188	0x3e4b10f8	0.19830692
189	0x3e9e0450	0.30862665
190	0xbdcd6369	-0.100287266
191	0x3f5ca946	0.8619579
192	0x3ecdc959	0.4019268
193	0x3e170846	0.1474925
194	0xbdc87454	-0.09787813
195	0x3e688826	0.22708187
196	0x3db7d6c7	0.089765124
197	0x3e8e2876	0.27765244
198	0x3f44c5de	0.7686442
199	0xbe7d8dc1	-0.24761106
200	0x3f77356a	0.9656588
201	0xbe8e449d	-0.27786723
202	0x3e828bf3	0.25497398
203	0xbdf7699d	-0.12080691
204	0x3e1decce	0.15422365
205	0x3d95352c	0.07285532
206	0xbe59a675	-0.21254905
207	0x3f488f67	0.78343815
208	0x3e9b32e0	0.30312252
209	0x3ca7a491	0.020464214
210	0x3e701495	0.23445351
211	0x3e664b52	0.2248967
212	0x3bc80881	0.0061045294
213	0x3d6124d4	0.054966763
214	0x3f90a351	1.129984
215	0x3e2c344e	0.16816828
216	0x3eacf111	0.3377767
217	0xbeabf069	-0.33581856
218	0x3e9fe508	0.31229424
219	0xbd8b391f	-0.06798004
220	0x3ea15b89	0.31515148
221	0x3d816b0f	0.06319248
222	0xbec0569f	-0.37566087
223	0x3eca2ca1	0.39487174
224	0x3f63d395	0.88994724
225	0x3f897965	1.0740172
226	0x3ebb5572	0.36588627
227	0x3ee68f02	0.4503098
228	0x3f3030fe	0.68824756
229	0x3f3e16fa	0.7425381
230	0xbfae04a5	-1.3595167
231	0x3f5c115b	0.8596398
232	0x3faee609	1.3663951
233	0x3f1664e8	0.5874772
234	0x3da87c2b	0.08226808
235	0xbdcb8849	-0.09938104
236	0x3f24a0ea	0.64308035
237	0xbeab1cd4	-0.33420432
238	0xbc9715cd	-0.018443013
239	0x3d89113d	0.06692741
240	0x3e2daf26	0.16961345
241	0xbee8bae0	-0.45455074
242	0x3df86607	0.12128835
243	0xbd2fa860	-0.042885184
244	0x3db39b44	0.08769849
245	0xbd7680c7	-0.060181405
246	0x3faf9350	1.3716831
247	0xbd9f8465	-0.07788924
248	0x3e22c46c	0.15895241
249	0xbf70e069	-0.9409242
250	0xbe9e1b8e	-0.30880398
251	0xbe7b799a	-0.24558106
252	0xbdd6a47d	-0.104805924
253	0xbe33aa5e	-0.17545459
254	0xbf4668bd	-0.7750357
255	0x3f04e475	0.519111

fc1.bias f4 [16]
0	0x3f09bfc1	0.5380822
1	0xbe5e32e4	-0.216991
2	0xbe93a9e6	-0.2884056
3	0x3e374391	0.17896868
4	0xbe3a7504	-0.182087
5	0x3f1a68d3	0.603162
6	0x3f1686c6	0.587994
7	0xbe5c6416	-0.21522555
8	0x3e99011d	0.29883662
9	0x3e7bada6	0.2457796
10	0x3e870919	0.26374128
11	0x3f622836	0.8834261
12	0x3f36e502	0.7144319
13	0x3ef227a2	0.47295862
14	0x3f058c05	0.5216678
15	0x3ec45046	0.38342494

fc2.weight f4 [12, 16]
0	0xbdd37183	-0.10324385
1	0x3e4bddaa	0.19908777
2	0x3e19ad6e	0.15007564
3	0x3d0d24e0	0.034458995
4	0xbd91b2a0	-0.07114148
5	0xbde36a46	-0.111042544
6	0xbe05a196	-0.13049921
7	0xbdf9d068	-0.121979535
8	0xbe7c59be	-0.24643609
9	0xbdf8c5ac	-0.12147078
10	0x3e6ca268	0.23108828
11	0xbde5432b	-0.11194452
12	0x3d9572f5	0.07297317
13	0x3d3a7acf	0.045527276
14	0xbe349f60	-0.17638922
15	0xbe7e7f2c	-0.248532
16	0xbd243758	-0.040091842
17	0x3c4907c0	0.012269914
18	0xbe0d7acc	-0.13816375
19	0x3e46701a	0.19378701
20	0x3d9241b0	0.07141435
21	0xbc5c6632	-0.0134521
22	0x3e182196	0.14856562
23	0x3e367e2e	0.17821571
24	0xbe5b348c	-0.21406764
25	0xbcf22f30	-0.029563516
26	0xbe3a1da5	-0.18175371
27	0xbe8403be	-0.25784105
28	0xbdc14e14	-0.0943872
29	0x3da7beb6	0.08190672
30	0xbd94063c	-0.072277516
31	0x3e02531d	0.12727018
32	0x3e827c75	0.25485578
33	0x3d911214	0.07083526
34	0xbfdef00a	-1.7417004
35	0xbe05e95d	-0.13077302
36	0x3da9c120	0.08288789
37	0x3f2cc994	0.67495084
38	0x3e9b9c18	0.30392528
39	0x3d4c6640	0.0499022
40	0x3f2059dd	0.6263712
41	0x3f327b88	0.69719744
42	0x3f097560	0.53694725
43	0x3f2a2633	0.6646454
44	0x3f40a942	0.75258267
45	0x3ea6ba4a	0.32564002
46	0xbf0a33c9	-0.5398527
47	0x3ee58f0f	0.44835708
48	0xbe72c000	-0.23706055
49	0x3c881390	0.01661089
50	0xbe3e5eee	-0.185909
51	0xbdc7301c	-0.09725973
52	0xbe477c7a	-0.19481078
53	0x3dc54294	0.096318394
54	0xbe0d1d90	-0.13780808
55	0x3e17d5aa	0.148276
56	0xbdb035a0	-0.08603978
57	0xbe6f2e32	-0.23357466
58	0x3e12ba46	0.1432887
59	0x3d2c20e8	0.04202357
60	0xbd8c7ff8	-0.068603456
61	0xbe301b98	-0.17198026
62	0xbde0aabc	-0.10970065
63	0xbd3088f8	-0.043099374
64	0x3efad675	0.48991743
65	0x3e653052	0.22381714
66	0x3efd36e9	0.49455956
67	0x3e6516b5	0.22371943
68	0xbe4df9de	-0.20114848
69	0x3f507f04	0.8144381
70	0x3eef42e8	0.46730733
71	0xbdd35570	-0.1031903
72	0x3f32b564	0.6980803
73	0x3fb066eb	1.3781408
74	0x3f3a843e	0.72858036
75	0x3f0d9de2	0.55319035
76	0x3eae96d9	0.34099463
77	0x3eeb694b	0.4597877
78	0xbf491111	-0.78541666
79	0x3f431e90	0.7621851
80	0x3f1f78ad	0.6229351
81	0x3dedbb04	0.11607936
82	0xbfe278a5	-1.7693068
83	0xbd6234ba	-0.055226065
84	0x3daf5898	0.0856182
85	0x3f2b4515	0.66902286
86	0x3f03dd9f	0.5151004
87	0xbe4650b6	-0.19366726
88	0x3f267f9c	0.65038466
89	0x3f6bf032	0.92163384
90	0x3f1dbf85	0.6162036
91	0x3efba407	0.4914858
92	0x3ee074a3	0.43838987
93	0x3f2a512a	0.66530097
94	0xbf074f18	-0.5285506
95	0x3f2e956f	0.6819677
96	0xbe212839	-0.15738
97	0xbe7036e2	-0.23458436
98	0xbe4157ae	-0.18881103
99	0xbe50bd07	-0.20384608
100	0xbe3ff604	-0.18746191
101	0x3ac01709	0.0014655303
102	0xbe7d544b	-0.24739186
103	0xbe1f0146	-0.1552783
104	0x3d15eacf	0.036600884
105	0x3db9457b	0.090464555
106	0xbe76ada0	-0.2408967
107	0x3da59f1b	0.080869876
108	0xbe99bc4f	-0.3002648
109	0xbe8329c3	-0.256178
110	0x3d8d5918	0.06901759
111	0xbe8ad4d0	-0.27115488
112	0x3ebf41a2	0.3735476
113	0x3e2f9acc	0.17148894
114	0xbf8a2887	-1.0793618
115	0xbd6b713b	-0.057481032
116	0x3e2c5dd6	0.1683267
117	0x3f4bf133	0.79664916
118	0x3cb7cc8a	0.022436399
119	0x3e09d11e	0.13458678
120	0x3f195be2	0.5990583
121	0x3fab0e6e	1.3363779
122	0x3e943673	0.2894779
123	0x3e0cd5da	0.13753453
124	0x3e9156e3	0.28386602
125	0x3eb1ff3a	0.34765035
126	0xbfcbe4ec	-1.5929236
127	0x3f7218af	0.94568914
128	0x3f685bea	0.9076525
129	0x3d36ed70	0.04466003
130	0xbfed2118	-1.8525724
131	0xbd0f2a0b	-0.034952205
132	0xbe27093c	-0.16312116
133	0x3f2e1fe6	0.68017423
134	0x3f3830d3	0.719495
135	0xbdb8a69c	-0.09016153
136	0x3eee732f	0.46572253
137	0x3e5ba25b	0.21448652
138	0x3e9ca8bb	0.3059748
139	0x3f523b24	0.8212149
140	0x3f19e337	0.6011233
141	0x3e9f5497	0.31119224
142	0x3d97d3d5	0.07413451
143	0xbde5fe6a	-0.11230166
144	0x3db8f1f5	0.09030525
145	0xbe141fa8	-0.14465201
146	0xbda244f7	-0.0792331
147	0x3e4ea738	0.20180976
148	0xbe38a850	-0.18032956
149	0xbe14e5a6	-0.14540729
150	0xbe44c3b2	-0.19215277
151	0xbe6d161e	-0.23152968
152	0x3e362ae0	0.17789793
153	0xbd97bca9	-0.07409031
154	0x3d9981b6	0.074954435
155	0xbe0c05d0	-0.13674092
156	0xbe4bbc57	-0.19896065
157	0xbe7543e4	-0.2395168
158	0x3ab4e100	0.0013799965
159	0x3e49127c	0.19635957
160	0x3f2972e3	0.6619093
161	0xbd0f1550	-0.034932435
162	0xbf85c267	-1.0449952
163	0x3e85e056	0.26147717
164	0x3e702a3a	0.23453608
165	0xbe95d0be	-0.2926082
166	0x3f2b83ef	0.6699819
167	0x3d41e510	0.04733759
168	0xbf1bd43c	-0.6087072
169	0xc00f8c67	-2.2429445
170	0xbe2aa1ef	-0.16663335
171	0x3f6666c4	0.9000056
172	0x3f204b3d	0.62614805
173	0x3e1e8e4f	0.15483974
174	0x3fbf18ac	1.4929404
175	0xbf966ce6	-1.1751983
176	0x3e89d0cc	0.26917112
177	0x3df4b24c	0.1194807
178	0xbfcc1497	-1.5943784
179	0xbcd93291	-0.02651337
180	0x3d9c140c	0.07621011
181	0x3eb54954	0.35407507
182	0x3f251f6f	0.6450109
183	0x3d57d840	0.052696466
184	0x3ec30800	0.3809204
185	0x3f815426	1.0103805
186	0x3f319c42	0.69379056
187	0x3e93bd6d	0.28855458
188	0x3e876217	0.26442024
189	0x3ee37f29	0.44432953
190	0xbfb0558b	-1.3776106
191	0x3f52f1b3	0.82400054

fc2.bias f4 [12]
0	0x3e3c890e	0.18411657
1	0xbe164ca4	-0.14677674
2	0x3e8a3397	0.26992485
3	0xbd94bfe0	-0.0726316
4	0x3efd9567	0.49528047
5	0x3f0d7319	0.5525375
6	0x3c9dcf8a	0.019264001
7	0xbd49e67d	-0.049292076
8	0x3efcbc61	0.49362472
9	0xbe06b1dd	-0.13153787
10	0x3ed005ab	0.40629324
11	0x3e447d60	0.19188452

fc3.weight f4 [10, 12]
0	0x3e50f4e6	0.20405921
1	0xbe890685	-0.26762787
2	0x3e57ee13	0.21086912
3	0x3e6f4b18	0.2336849
4	0xbdef524f	-0.11685621
5	0x3ccc2214	0.024918593
6	0x3daaac19	0.08333606
7	0xbdc6c61e	-0.097057566
8	0xbcab2493	-0.020891463
9	0x3c2a44a0	0.010392338
10	0xbe641d2a	-0.2227675
11	0xbe106ad8	-0.14103258
12	0x3d957145	0.07296995
13	0xbce94710	-0.028476268
14	0xbe6ba429	-0.23011841
15	0xbe679aa9	-0.22617592
16	0xbdd219bf	-0.10258817
17	0xbe05708e	-0.13031217
18	0xbd3a8bd4	-0.045543507
19	0x3e55bc61	0.20872642
20	0xbe5c9480	-0.21541023
21	0x3e87ae49	0.26500157
22	0xbeef3c40	-0.46725655
23	0x3e859fac	0.26098382
24	0x3e06dd64	0.13170391
25	0xbe3c05b1	-0.18361546
26	0xbe4ad1d9	-0.19806613
27	0xbe4c421c	-0.19947094
28	0xbe86cb51	-0.26326993
29	0xbeb346dc	-0.35015
30	0xbdb05690	-0.086102605
31	0x3f063256	0.52420557
32	0xbf6a53d1	-0.91534144
33	0x3e3e5040	0.185853
34	0xbf903f7b	-1.1269373
35	0x3db47f1a	0.08813305
36	0xbdca2f82	-0.09872343
37	0x3def1bc0	0.11675215
38	0xbe904ac7	-0.2818205
39	0x3e731ba4	0.23741013
40	0xbd874a0b	-0.066059195
41	0x3e0a6a15	0.1351703
42	0xbe4f5ca4	-0.20250183
43	0xbd75c81e	-0.0600053
44	0x3e8d73e6	0.27627486
45	0xbe5a189f	-0.21298455
46	0x3f1fd611	0.62436014
47	0xbe72db9f	-0.23716591
48	0x3ddc1c94	0.10747638
49	0x3e7fca14	0.2497943
50	0x3d836343	0.06415417
51	0xbd3dc98c	-0.04633479
52	0x3ee51998	0.4474609
53	0x3cde3c7d	0.027128452
54	0x3e414a24	0.18875939
55	0xbef9b752	-0.48772675
56	0x3e64d32a	0.22346178
57	0xbb88aa80	-0.004170716
58	0x3f608d88	0.8771596
59	0xbd38eb4f	-0.045146283
60	0x3da7f0b8	0.0820021
61	0x3e491da0	0.19640207
62	0x3eed5c4d	0.46359482
63	0xbe88bf6e	-0.2670855
64	0x3ed22e86	0.4105112
65	0x3ea38cbd	0.31943312
66	0xbe80f737	-0.2518861
67	0xbd8127f7	-0.06306451
68	0x3efeecf5	0.4979016
69	0x3e19ac64	0.15007168
70	0x3fb15538	1.3854132
71	0x3ea91148	0.33020997
72	0x3e53d69e	0.20687339
73	0x3db1f933	0.08690109
74	0xbf4f76dd	-0.81040746
75	0xbe07d760	-0.13265753
76	0xbf37c611	-0.717866
77	0xbf303757	-0.6883444
78	0x3d6a231e	0.057162397
79	0xbf9439ec	-1.1580176
80	0xbedfc0f9	-0.43701914
81	0x3dcae1d0	0.099063516
82	0x3f8c0397	1.0938596
83	0xbf759de2	-0.95944035
84	0x3e06d3ce	0.13166735
85	0x3e3501d6	0.17676482
86	0xbea342d4	-0.31886923
87	0x3cfcbb70	0.030851096
88	0xbe9a5c24	-0.30148423
89	0xbe27601c	-0.16345257
90	0xbdf23180	-0.118258476
91	0xbef78189	-0.48341015
92	0xbeafe43e	-0.34353822
93	0xbde5ce6c	-0.112210125
94	0xbe288ab3	-0.1645916
95	0xbe0873d5	-0.13325436
96	0xbe5b6863	-0.21426539
97	0xbbee1040	-0.0072651207
98	0xbec33881	-0.38129047
99	0x3d6de9a0	0.05808413
100	0x3f081b54	0.531667
101	0xbeb097e6	-0.3449089
102	0x3e5a44e7	0.21315347
103	0x3ee58d8d	0.44834557
104	0xbefcf6e4	-0.49407113
105	0xbe1d142a	-0.15339723
106	0xbfa42122	-1.2822611
107	0xbeb406a2	-0.3516131
108	0x3c74b4d0	0.014935687
109	0x3d9892c4	0.07449868
110	0xbe394aff	-0.18095015
111	0x3e0c2014	0.13684112
112	0x3c6388ac	0.013887566
113	0x3dc4d10d	0.09610186
114	0x3e0bf40d	0.13667317
115	0x3c2b7011	0.01046373
116	0x3dbebf04	0.09313777
117	0x3e65257f	0.22377585
118	0x3b8dad54	0.004323641
119	0x3bf4b0ca	0.007467364

fc3.bias f4 [10]
0	0x3e455004	0.19268805
1	0xbed113e5	-0.4083549
2	0xbf7aaa80	-0.9791641
3	0x3f13503e	0.57544315
4	0x3f77d051	0.9680224
5	0x3f14e6e9	0.5816484
6	0xbecf7fce	-0.40527195
7	0xbf10db2a	-0.5658442
8	0xbedaa0f3	-0.4270092
9	0xbda7e0b1	-0.08197153
