dqn_normal.pth (torch, 5030 bytes, 6 tensors)

fc1.weight f4 [16, 16]
0	0xbe9bfef4	-0.3046795
1	0x3ee75197	0.45179436
2	0xbcb03037	-0.021507366
3	0x3d164ec3	0.036696207
4	0x3e17d660	0.14827871
5	0xbe3a55b3	-0.18196754
6	0x3f84ee10	1.0385151
7	0x3f0168cc	0.5055053
8	0xbd2bcc7d	-0.041943062
9	0xbdb27e23	-0.08715465
10	0x3e77ce77	0.24199854
11	0x3e78c025	0.24292047
12	0x3e5a8394	0.21339256
13	0x3ebeb731	0.3724914
14	0xbcb223dc	-0.021745615
15	0x3f1b1b1f	0.6058826
16	0xbf1ff0d5	-0.62476856
17	0x3e4f257b	0.20229141
18	0xbeb91741	-0.36150554
19	0x3ba5d613	0.00506092
20	0x3e065cbd	0.13121314
21	0xbe3a6ae0	-0.18204832
22	0x3ecddd43	0.40207872
23	0x3f8b9703	1.090546
24	0x3e991b5b	0.29903683
25	0x3d967d87	0.07348161
26	0xbe72e77e	-0.2372112
27	0x3e80dfd0	0.25170755
28	0x3e0bd290	0.13654542
29	0x3ed3d52d	0.41373578
30	0xbf04e858	-0.5191703
31	0x3f279efe	0.6547698
32	0xbde9f7f8	-0.114242494
33	0x3da5bb1f	0.08092331
34	0xbef6936d	-0.48159352
35	0x3e8ac9be	0.27107042
36	0x3ef31046	0.47473353
37	0x3ef8d9a3	0.48603544
38	0xbf93b8bd	-1.1540753
39	0x3ff470af	1.9096888
40	0x3da6300e	0.081146345
41	0x3dd5e02d	0.10443149
42	0xbec4e85b	-0.38458523
43	0x3ec44185	0.38331237
44	0x3e272f04	0.16326529
45	0xbe9e1574	-0.30875742
46	0xbf0af2c7	-0.542767
47	0x3e442cfc	0.19157785
48	0xbef59d10	-0.47971392
49	0x3ebff598	0.3749206
50	0xbecd0e24	-0.4004985
51	0xbe4afac6	-0.19822225
52	0xbe1e906c	-0.1548478
53	0xbe16341d	-0.14668317
54	0x3f0c056b	0.5469577
55	0x3f92a8c3	1.1457752
56	0x3c35fe12	0.011107938
57	0x3e6e5241	0.23273565
58	0xbe85b912	-0.2611776
59	0xbdc0987e	-0.094040856
60	0x3cf47b7a	0.029844034
61	0x3ecb63d7	0.3972461
62	0xbe8f3e55	-0.27977243
63	0x3ecab58e	0.3959164
64	0xbf008542	-0.50203335
65	0x3e107312	0.14106396
66	0xbe221725	-0.15829141
67	0x3e4da3ac	0.20081967
68	0xbe39e2c0	-0.18152905
69	0xbe9cbf10	-0.3061452
70	0x3f769576	0.9632181
71	0x3eee3029	0.46521118
72	0xbd4f73ea	-0.050647654
73	0xbe11020c	-0.14160937
74	0x3ddc065e	0.10743402
75	0x3e3da49f	0.18519829
76	0x3f053a38	0.5204196
77	0x3f0614e1	0.5237561
78	0xbebc096b	-0.36725935
79	0x3efc97aa	0.4933446
80	0xbe71d417	-0.23616062
81	0xbb789746	-0.0037931963
82	0xbdfd0ca2	-0.12355925
83	0x3e8ccf6f	0.2750201
84	0x3ddd27ea	0.10798629
85	0x3e1d8368	0.15382159
86	0x3f67559c	0.90365005
87	0x3ec4ac83	0.38412866
88	0xbb911989	-0.004428093
89	0x3dfc0310	0.123052716
90	0x3e026356	0.12733206
91	0x3e7d6555	0.24745686
92	0x3ee4c1b7	0.44679043
93	0x3ecbe8a1	0.3982592
94	0xbecd4d63	-0.40098104
95	0x3eb224d7	0.34793732
96	0xbf4ed83c	-0.807987
97	0x3cf0e950	0.029408127
98	0xbf1cebf0	-0.6129751
99	0x3d276c34	0.040874675
100	0x3e07c736	0.13259587
101	0xbed0209d	-0.40649882
102	0x3f17360a	0.5906683
103	0x3fa22b20	1.2669411
104	0xbe8634b6	-0.2621209
105	0x3e6fc007	0.23413096
106	0xbca04cca	-0.019567866
107	0xbddfe137	-0.10931628
108	0xbd047486	-0.032337688
109	0x3e5cf9a7	0.2157961
110	0xbe487612	-0.1957629
111	0x3f010002	0.50390637
112	0x3dea7bfe	0.11449431
113	0x3e3d50d6	0.18487868
114	0x3ef868a7	0.48517343
115	0x3f1ae1fd	0.6050108
116	0x3ef014b8	0.46890807
117	0x3f38056b	0.7188327
118	0xbfbae458	-1.4600935
119	0x3f66d3bf	0.9016685
120	0x3e21d283	0.1580296
121	0x3f289cb3	0.65864104
122	0x3d341a5f	0.043970462
123	0x3d04987b	0.03237198
124	0x3ea81b4b	0.32833323
125	0xbeb1a370	-0.34695005
126	0xbb88638a	-0.0041622566
127	0x3e9ad3f2	0.30239826
128	0xbe6a2ff3	-0.22869854
129	0x3edb0e6d	0.42784443
130	0x3c9b9f5f	0.018996892
131	0x3dab5782	0.083663
132	0xbce33916	-0.027737182
133	0xbe7ede78	-0.24889553
134	0x3f5b8674	0.85752034
135	0x3eb0a4d9	0.3450077
136	0x3db81dee	0.08990084
137	0xbe09e4e1	-0.13466217
138	0x3e379538	0.17928016
139	0x3e9b5972	0.3034168
140	0x3f10aafb	0.56510895
141	0x3e4d4e65	0.20049436
142	0xbe61d050	-0.22052121
143	0x3eb68ec7	0.35655805
144	0xbe1a23f9	-0.15052785
145	0x3debaa44	0.11507085
146	0xbec24536	-0.3794343
147	0xbc11f6b0	-0.008908913
148	0xbd804a35	-0.06264154
149	0xbe7014ae	-0.23445389
150	0x3f318f76	0.6935953
151	0x3f1b2d7b	0.6061627
152	0xbe000e1f	-0.12505387
153	0x3ec4a25b	0.38405117
154	0x3db706fe	0.089368805
155	0x3e450f1e	0.19244048
156	0x3f00deea	0.5034014
157	0x3d05c87a	0.032661892
158	0xbf0f3624	-0.5594199
159	0x3ed040bc	0.40674388
160	0xbf38d568	-0.7220063
161	0x3e1c69c7	0.15274726
162	0xbefe4020	-0.49658298
163	0xbe850db1	-0.25987008
164	0xbd8fdacd	-0.07024155
165	0xbeba88a0	-0.36432362
166	0x3e28f048	0.1649791
167	0x3f9cb54a	1.2242825
168	0x3e964c1a	0.29354936
169	0xbe94323f	-0.28944585
170	0xbf248a04	-0.64273095
171	0x3d8e8d8a	0.0696059
172	0x3e2dce71	0.16973282
173	0x3ef53948	0.47895265
174	0xbe7441e7	-0.23853265
175	0x3e82985f	0.25506875
176	0x3dc362fc	0.09540364
177	0x3ed8a0c3	0.4231015
178	0xbe95bdab	-0.29246268
179	0x3e8162eb	0.2527078
180	0x3e4ca480	0.19984627
181	0x3e288808	0.16458142
182	0x3fc1238c	1.5088973
183	0xbf605a1c	-0.87637496
184	0xbdd15b57	-0.102225
185	0xbef7f06d	-0.48425618
186	0x3de56bf1	0.11202229
187	0x3e173626	0.1476675
188	0x3dbcc8e5	0.09218005
189	0xbe90b8ad	-0.28265896
190	0xbf0e6d00	-0.5563507
191	0x3e4e4653	0.20144014
192	0xbe7d1dad	-0.24718352
193	0x3e2dc65f	0.16970204
194	0x3d9cc00d	0.07653818
195	0xbe95b4d7	-0.29239532
196	0xbe36e394	-0.17860252
197	0xbe87c704	-0.26519024
198	0xbd71e11b	-0.059052568
199	0xbd9961fd	-0.07489393
200	0x3db02ff5	0.08602897
201	0xbe52de82	-0.20592692
202	0x3d79bc99	0.060970876
203	0xbe45bfe6	-0.19311485
204	0x3d6446ea	0.05573169
205	0xbe4a0b0f	-0.19730781
206	0x3cc4d82a	0.024028856
207	0x3ce0752e	0.027399626
208	0x3f9ad682	1.2096713
209	0x3ef7be8d	0.48387566
210	0x3ef85ab2	0.48506695
211	0x3ed46146	0.41480464
212	0x3f464d2a	0.77461493
213	0x3f9bcbec	1.2171607
214	0xbed7e8b3	-0.42169723
215	0xbf8ee6d5	-1.1164194
216	0x3f003907	0.50087017
217	0x3f4c5500	0.798172
218	0x3f4b7472	0.79474556
219	0x3ec1cafd	0.3785018
220	0x3f1f1551	0.621419
221	0xbd13b0ad	-0.036057163
222	0xbdd67820	-0.10472131
223	0xbd7f2274	-0.062288716
224	0xbe0d05b7	-0.13771711
225	0x3f09c9db	0.5382363
226	0xbe7c89ec	-0.24661988
227	0x3e108a23	0.14115195
228	0xbdbcd8a2	-0.09221007
229	0xbe0d27c5	-0.13784702
230	0x3f6714a8	0.90265894
231	0x3e82c0b2	0.2553764
232	0x3e388dbe	0.1802282
233	0xbdb5a773	-0.08869829
234	0x3df4c7ba	0.11952157
235	0x3e2c2331	0.168103
236	0x3e49684b	0.19668691
237	0x3e25a4a2	0.16176084
238	0xbd157ac4	-0.03649403
239	0x3f08025b	0.53128594
240	0xbedd8536	-0.43265694
241	0x3d458a5a	0.048227645
242	0xbdc9e741	-0.09858561
243	0x3e82d4f2	0.2555309
244	0x3e490260	0.19629812
245	0x3dab931b	0.083776675
246	0x3e449418	0.19197118
247	0x3fb07339	1.3785163
248	0x3e4523aa	0.19251886
249	0x3da298a2	0.07939269
250	0xbec0c7b2	-0.37652355
251	0x3db3c387	0.08777528
252	0x3e0b6890	0.13614106
253	0x3df5d10e	0.12002765
254	0xbf00557e	-0.5013045
255	0x3f00a96c	0.5025852

fc1.bias f4 [16]
0	0x3eaabe56	0.3334834
1	0x3eeff672	0.4686771
2	0x3eefa68a	0.46806747
3	0x3f131280	0.57450104
4	0x3eca6b88	0.39535165
5	0x3e6549b5	0.22391398
6	0x3e6ab67e	0.22921178
7	0x3d6b7580	0.057485104
8	0x3f1ee9b2	0.6207534
9	0x3f2f9216	0.68582284
10	0x3eb09ebc	0.34496105
11	0x3f24df7f	0.6440353
12	0x3dce7b71	0.10082138
13	0x3e9ad986	0.30244082
14	0x3e47fa6e	0.19529125
15	0x3f2445ce	0.64169014

fc2.weight f4 [12, 16]
0	0x3ecf8cda	0.4053715
1	0x3e2dee69	0.16985478
2	0xc00531bc	-2.0811605
3	0x3dfa82dc	0.12231991
4	0x3f32cfb7	0.698482
5	0x3edcc847	0.4312155
6	0xbc06827f	-0.008209824
7	0xc0087243	-2.131974
8	0x3eb7b78a	0.35882217
9	0x3eb91860	0.3615141
10	0x3e98d514	0.29850066
11	0x40063403	2.0969245
12	0xbd818f29	-0.06326134
13	0xbf920b3e	-1.1409681
14	0x3f121e59	0.57077557
15	0xbdec1ccf	-0.11528932
16	0x3f3c9a5a	0.7367302
17	0xbc0e4c64	-0.008685205
18	0xbfb7c666	-1.4357421
19	0x3e1cb89d	0.153048
20	0x3ef28957	0.47370407
21	0x3f0d0c45	0.55096847
22	0xbd0b0772	-0.033942647
23	0xbf52b6db	-0.82310265
24	0x3ef6f8b0	0.48236609
25	0x3ee95cca	0.45578605
26	0xbee0d9c1	-0.43916133
27	0x4004d079	2.0752242
28	0xbe7457fa	-0.23861685
29	0x3f6f4fbc	0.9348104
30	0x3f2cc556	0.6748861
31	0xbd4a6cad	-0.049420048
32	0x3d611c84	0.054958835
33	0x3f2029c8	0.62563753
34	0x3fdf15aa	1.7428486
35	0x3ec87800	0.39154053
36	0x3e2ad8a3	0.16684203
37	0x3dce6b9a	0.10079117
38	0x3ee34e57	0.44395706
39	0x3fcb1604	1.5866094
40	0x3c06da34	0.008230735
41	0x3f085cf7	0.53266853
42	0x3f256923	0.6461355
43	0xbfecaa2c	-1.8489432
44	0x3e609b2f	0.21934198
45	0xbe5d33b8	-0.2160176
46	0x3e37ae36	0.1793755
47	0x3f396305	0.72416717
48	0x3f2e9f36	0.68211687
49	0x3f1a1fc5	0.60204726
50	0x3dcd7c1d	0.10033438
51	0x3f1bc2c9	0.60844094
52	0x3ef4ac75	0.47787824
53	0x3dcf22d3	0.10114064
54	0x3f0a1228	0.53933954
55	0xbf026670	-0.5093756
56	0x3df46b8e	0.11934577
57	0x3f045c50	0.5170336
58	0x3ece8f41	0.4034367
59	0x3f91af48	1.1381617
60	0xbe0a975f	-0.13534306
61	0xbf692640	-0.9107399
62	0x3ec14957	0.37751266
63	0x3e850326	0.25978965
64	0xbceab909	-0.028652685
65	0xbdf6c083	-0.120484374
66	0x3e576186	0.21033296
67	0x3c82f464	0.015985675
68	0xbe181727	-0.14852582
69	0xbe7dbc79	-0.24778928
70	0xbe0bf804	-0.13668829
71	0xbd700e92	-0.058607645
72	0xbe625ef0	-0.22106528
73	0xbda636b4	-0.081159025
74	0xbd9272c3	-0.07150795
75	0x3e7b6756	0.24551138
76	0x3dddde89	0.10833461
77	0x3e04f7e6	0.12985191
78	0xbe0f524c	-0.13996238
79	0x3da6ef50	0.08151114
80	0x3f0d9fc8	0.5532193
81	0x3eb63a1d	0.35591212
82	0x3ed859a8	0.42255902
83	0x3f126946	0.57191885
84	0x3f061ed7	0.5239081
85	0x3ed20a7e	0.4102363
86	0x3f3be67e	0.7339858
87	0xbef82f76	-0.4847371
88	0x3ef311fc	0.47474658
89	0x3e1d3a70	0.15354323
90	0x3f07c979	0.530418
91	0x3f1f0a55	0.6212514
92	0xbe385229	-0.18000092
93	0xbf611e71	-0.87937075
94	0x3e3882ce	0.18018648
95	0x3f10d4fb	0.5657498
96	0x3eb51740	0.353693
97	0x3e72cc36	0.23710713
98	0x3f021f39	0.5082889
99	0x3efce52f	0.49393603
100	0x3ebb679e	0.3660249
101	0x3e88af72	0.26696354
102	0x3f470cd7	0.7775397
103	0xbf2156fe	-0.63023365
104	0x3e241e00	0.16027069
105	0x3e964777	0.29351398
106	0x3f1aee4a	0.6051985
107	0x3f817237	1.0112981
108	0xbe05968f	-0.13045715
109	0xbf8d13e4	-1.1021695
110	0x3ec85915	0.39130464
111	0x3f2a314b	0.66481465
112	0x3f07e3e1	0.5308209
113	0x3f030ea4	0.51194215
114	0x3f739183	0.9514391
115	0x3f251624	0.6448691
116	0x3ea6370e	0.32463878
117	0x3ec635a2	0.38712794
118	0x3f398442	0.72467434
119	0xbe3cfe84	-0.18456465
120	0x3ea09590	0.31364107
121	0x3ecec39d	0.40383616
122	0x3eabfa6e	0.335895
123	0x3f4afc82	0.79291546
124	0xbd8bc45d	-0.06824563
125	0xbf59edf6	-0.85128725
126	0x3e662b47	0.22477446
127	0x3f1d4d65	0.6144622
128	0xbc188500	-0.009309053
129	0xbe7bd167	-0.245916
130	0x3d466f71	0.048446123
131	0xbe333b74	-0.17503148
132	0xbdc5966f	-0.096478336
133	0x3e436140	0.19080067
134	0xbe53bff8	-0.20678699
135	0xbe6def1c	-0.23235744
136	0x3dbd2342	0.092352405
137	0xbe4005d6	-0.18752226
138	0x3dd4280c	0.10359201
139	0x3d4aa060	0.04946935
140	0xbe779ad8	-0.24180162
141	0x3d823142	0.063570514
142	0xbc6f492a	-0.014604846
143	0xbe0f6f24	-0.1400724
144	0x3e83f913	0.25775966
145	0x3eb4db60	0.3532362
146	0x3e059289	0.1304418
147	0x3ea5fa58	0.3241756
148	0x3dedb457	0.11606663
149	0x3ed392c9	0.41322926
150	0x3eed0b29	0.46297577
151	0xbf712b01	-0.94206244
152	0x3df30c50	0.11867583
153	0x3e8edd29	0.27903107
154	0x3e859300	0.26088715
155	0x3f593a52	0.84854615
156	0x3cc6e424	0.024278708
157	0xbfa02abe	-1.2513044
158	0x3ea40b80	0.32040024
159	0x3e919a1b	0.28437886
160	0x3e4057e5	0.18783529
161	0x3e3fccee	0.18730518
162	0x3f80f161	1.0073663
163	0x3f2af481	0.66779333
164	0x3da5a574	0.08088198
165	0x3e2bcddc	0.16777748
166	0x3f0a0579	0.539146
167	0x3d32629b	0.04355107
168	0x3d0734c5	0.03300931
169	0x3e94d036	0.29065102
170	0x3f168255	0.5879262
171	0x3ea27f6f	0.3173785
172	0xbdce75b9	-0.100810476
173	0xbf9ff2b5	-1.2495943
174	0xbd274e5b	-0.04084621
175	0x3eb2cc0d	0.34921303
176	0xbcde4431	-0.027132126
177	0x3ee72230	0.4514327
178	0x3ffcdd9d	1.9755131
179	0x3f08c60c	0.53427196
180	0x3cba487b	0.02273964
181	0x3d9d43ce	0.07678948
182	0x3e2b881c	0.1675114
183	0x3fb19c4c	1.3875823
184	0xbaeea33d	-0.0018206608
185	0x3e8a654e	0.27030414
186	0x3ec1cb6b	0.37850508
187	0xbfa81103	-1.3130192
188	0xbe2f7e5a	-0.17138043
189	0x3dc800f4	0.09765807
190	0x3c43f912	0.011961238
191	0x3f2bac2d	0.67059594

fc2.bias f4 [12]
0	0x3da34b58	0.07973355
1	0x3eb3afb5	0.3509499
2	0x3f13752f	0.5760068
3	0x3ef4ab11	0.47786763
4	0x3d92d59d	0.0716965
5	0x3e4b8f23	0.19878821
6	0x3e2dd714	0.16976577
7	0x3eca9de2	0.3957358
8	0x3dd984f1	0.1062106
9	0x3e0c5055	0.13702519
10	0x3ecbf818	0.39837718
11	0x3d725f64	0.059173003

fc3.weight f4 [10, 12]
0	0x3dcf7095	0.10128895
1	0xbdb227dd	-0.086990096
2	0xbe8b64b2	-0.27225262
3	0x3dbdea9e	0.09273265
4	0xbdad59e2	-0.084644094
5	0xbd80e563	-0.06293752
6	0x3d78874a	0.060675897
7	0xbe12353c	-0.1427812
8	0x3e90c89e	0.2827806
9	0xbe84f9d7	-0.25971863
10	0xbdb7fc6b	-0.08983692
11	0x3ea23868	0.3168366
12	0x3dbf6402	0.09345247
13	0xbea4ebf6	-0.32211274
14	0x3cd2d745	0.025737414
15	0x3dd59457	0.10428684
16	0x3e0589a0	0.13040781
17	0xbe3ef0b9	-0.18646516
18	0x3de0ad97	0.1097061
19	0xbedd24e7	-0.43192217
20	0x3c423fe0	0.011856049
21	0x3e7ca1ac	0.24671048
22	0xbe7181b1	-0.2358463
23	0xbdfd09eb	-0.12355407
24	0x3e834c0f	0.25643966
25	0xbf62daf8	-0.8861537
26	0xbf6b29c6	-0.91860616
27	0xb98aea55	-0.00026496002
28	0x3e2fe728	0.17178023
29	0xbe461f20	-0.19347811
30	0xbe5c04da	-0.21486226
31	0xbeb40f7e	-0.3516807
32	0x3da260f8	0.079286516
33	0x3e76d989	0.2410642
34	0xbd4dd391	-0.050250594
35	0xbf078ae7	-0.52946323
36	0xbd730d63	-0.05933894
37	0x3e7a2414	0.24427825
38	0x3e0dc1dd	0.13843484
39	0x3c968380	0.018373251
40	0x3e5052aa	0.20344034
41	0xbd33108c	-0.043716952
42	0x3dca75e2	0.098857656
43	0x3c939652	0.018016014
44	0xbdca860e	-0.0988885
45	0x3e12765d	0.14302965
46	0xbce7faa0	-0.02831775
47	0x3e14de38	0.14537895
48	0x3e05c1d1	0.13062216
49	0x3ec57976	0.3856923
50	0x3dc77185	0.09738449
51	0x3e5a3db6	0.21312603
52	0x3e3206fc	0.17385477
53	0x3e33b443	0.17549233
54	0x3e15c3c3	0.14625458
55	0x3dd89fe8	0.10577375
56	0xbe8c479e	-0.2739839
57	0xbd5c2530	-0.053746402
58	0xbd300d2e	-0.04298132
59	0x3ead4472	0.33841282
60	0x3f2436f1	0.64146334
61	0x3ed1282d	0.40850964
62	0x3f1787eb	0.5919177
63	0x3eee6212	0.46559197
64	0xbe6c3ccc	-0.23070067
65	0x3ed89521	0.42301276
66	0x3e115ccc	0.14195555
67	0x3eba0b18	0.3633659
68	0xbde871d4	-0.11349836
69	0x3e8de040	0.27710152
70	0x3d8bf902	0.06834604
71	0x3e988956	0.2979228
72	0xbf9a348a	-1.2047284
73	0xbf8ec56e	-1.1154001
74	0x3eb99726	0.3624813
75	0xbf39d0c5	-0.7258418
76	0xbd4e04d9	-0.05029759
77	0xbf2c38c9	-0.6727415
78	0xbf4c168d	-0.7972191
79	0xbedf8435	-0.43655553
80	0x3dc78c74	0.09743586
81	0xbf5ec982	-0.87026227
82	0xbeb12115	-0.34595552
83	0x3fa14ed0	1.2602177
84	0x3e3b73f5	0.18305953
85	0x3fe8ba16	1.8181789
86	0xbf52d838	-0.82361174
87	0xbef33937	-0.4750459
88	0xbd953620	-0.07285714
89	0xbf2c03f8	-0.67193556
90	0xbf0e1e7c	-0.55515265
91	0xbf1654a9	-0.5872293
92	0x3df4a694	0.11945835
93	0xbf22e578	-0.6363139
94	0xbf3962f7	-0.72416633
95	0xbf76a308	-0.96342516
96	0xbf4b0627	-0.7930626
97	0x3d7ea744	0.062171236
98	0xbee5042d	-0.44729748
99	0xbee2cf9c	-0.44299018
100	0x3e7a412c	0.24438924
101	0xbe2855af	-0.16438936
102	0xbf1472b3	-0.5798752
103	0x3dee8603	0.116466545
104	0x3e42a108	0.19006741
105	0xbef76c40	-0.48324776
106	0xbe2ea4c7	-0.17055045
107	0xbdc0e438	-0.09418529
108	0x3d08ce44	0.033399835
109	0x3d3d89ca	0.046273984
110	0x3d75045b	0.059818607
111	0xbe887493	-0.2665144
112	0x3dc0e224	0.09418133
113	0x3cecab0d	0.028890157
114	0x3d8fa47e	0.07013796
115	0x3e3baf71	0.18328644
116	0xbe30260d	-0.17202015
117	0xbdb2c1d6	-0.087283775
118	0x3d123f2a	0.03570477
119	0xbde796da	-0.113080695

fc3.bias f4 [10]
0	0x3e14821d	0.1450276
1	0xbef5177a	-0.47869474
2	0xbf1bb080	-0.6081619
3	0x3ee11ff5	0.43969694
4	0x3f22dd78	0.63619184
5	0x3c2a19d7	0.010382137
6	0xbe7aea22	-0.24503377
7	0xbe8d40cf	-0.27588508
8	0xbf021a98	-0.5082183
9	0x3e5957fa	0.21224967
