dqn_normal.pth (torch, 4966 bytes, 6 tensors)

fc1.weight f4 [16, 16]
2.65726 2.5169075 0.42198303 2.491135 2.7428656 2.5104046 0.9237378 0.5056973
1.1180748 0.8830729 0.65628123 0.85672593 -0.5445553 -1.2421317 -1.3534002 1.7813917
2.4597898 2.4190674 0.8068664 2.5719333 2.3707771 2.644479 1.157637 0.34336963
1.5776374 0.5016162 0.6902409 0.6675755 -0.7001329 -1.1124626 -1.0175915 1.4951149
2.557182 2.344872 0.8140744 2.6063178 2.396217 2.6349573 1.0703629 0.55109686
1.3819051 0.6637219 0.81762177 0.67690146 -0.40591925 -1.0949464 -1.1043121 1.864488
2.9901161 2.4907012 0.56684184 2.8792424 2.5592215 2.7137375 0.74445283 0.2819288
1.1940619 0.7088368 1.1174496 0.9414975 -0.2913175 -1.2014532 -1.6036866 1.5604693
2.8009033 2.363615 0.34957245 2.823405 2.6781561 2.2062762 0.89886767 0.6244064
1.3668071 1.0114362 0.64048266 0.6402272 -0.8223799 -0.8971891 -1.2189732 1.7536396
2.1816792 2.552738 0.23793128 2.1640868 2.3020644 2.0029218 -0.120885104 -0.9447183
0.43407598 1.5389053 1.6782944 1.5747448 -0.076905526 -1.158368 -1.2397302 1.1735096
2.8587923 2.2931232 0.526214 2.9866114 2.652341 2.2974405 0.51656485 0.07496337
0.88815844 0.5928588 1.1079268 1.0004878 -0.41080123 -1.2067884 -1.1222656 1.4090918
-0.16277173 -0.14742556 0.093034804 0.14725146 -0.09915483 0.10050157 -0.018479437 0.01190269
-0.022611827 -0.063672304 -0.19228044 0.013806194 0.070278555 -0.06315729 0.13987297 -0.20091957
-0.10901043 0.16965526 -0.13930488 -0.0050947666 -0.008115679 -0.22110027 0.009509295 -0.15119353
-0.17636439 -0.122531205 -0.12518498 -0.19142938 0.04004836 0.061867207 0.091546655 -0.072205156
-0.10816187 -0.1476396 -0.18206052 -0.05753152 0.15027517 -0.079497434 -0.19212665 -0.16941813
0.08772615 0.072853774 -0.1921286 0.06930683 -0.15987425 -0.060398456 0.084922224 -0.019105682
2.4906201 2.3113434 0.19305527 2.3439677 2.4507427 2.4057622 0.31374067 -1.0442504
0.1902395 1.4222133 1.5052346 1.443196 0.008882617 -1.3727239 -1.7257916 1.3893969
2.5576358 2.4680161 0.49958608 2.3774922 2.3505127 2.5815704 0.52399695 0.5925701
1.2256567 0.71940374 0.82338506 0.85663736 -0.57131326 -0.81343776 -1.1194013 1.4249978
3.0666149 2.5627139 0.930971 2.7961202 2.8640127 2.5676522 1.1772695 0.4359471
1.5905755 0.413711 0.685496 0.58406097 -0.75485706 -1.2339559 -1.409349 1.7530394
2.6315432 2.5165324 0.8741149 2.7977314 2.5224116 2.4446416 1.043279 0.24552737
1.2457123 0.57852024 0.83429945 0.5596641 -0.41061634 -1.2267005 -1.3608054 1.6815534
2.7790687 2.704558 0.4850527 2.630428 2.5211682 2.5004919 0.707124 0.38509467
1.2750922 0.72075725 0.8784596 0.8015399 -0.884879 -0.9281003 -1.0159986 1.8075515
2.5746193 2.456301 0.15552609 2.5177023 2.204653 2.3944678 0.56753045 0.6408494
1.1126032 1.0839998 0.81050646 0.6093498 -0.39534342 -0.9643467 -0.91109055 1.3098012
00000000: 8c10 2a40 0315 2140 290e d83e c16e 1f40
00000010: 1c8b 2f40 78aa 2040 157a 6c3f 6175 013f
00000020: 131d 8f3f 1111 623f 0c02 283f 6452 5b3f
00000030: fa67 0bbf 2cfe 9ebf 383c adbf a504 e43f
00000040: 326d 1d40 00d2 1a40 cc8e 4e3f 8e9a 2440
00000050: d0ba 1740 253f 2940 732d 943f 25ce af3e
00000060: 06f0 c93f eb69 003f a1b3 303f 3ae6 2a3f
00000070: e93b 33bf 2d65 8ebf 7040 82bf ed5f bf3f
00000080: dfa8 2340 6212 1640 2e67 503f e9cd 2640
00000090: 9f5b 1940 24a3 2840 a701 893f af14 0d3f
000000a0: 44e2 b03f aee9 293f a94f 513f 6a49 2d3f
000000b0: a6d4 cfbe 3427 8cbf 195a 8dbf 8ba7 ee3f
000000c0: 105e 3f40 a667 1f40 8c1c 113f 8245 3840
000000d0: 49ca 2340 e0ad 2d40 7694 3e3f f958 903e
000000e0: 05d7 983f 5476 353f 9708 8f3f fb05 713f
000000f0: 9127 95be 38c9 99bf 9a45 cdbf 75bd c73f
00000100: 0042 3340 7845 1740 29fb b23e abb2 3440
00000110: e966 2b40 a133 0d40 311c 663f 19d9 1f3f
00000120: 89f3 ae3f be76 813f acf6 233f eee5 233f
00000130: 7d87 52bf 2fae 65bf 5007 9cbf 4377 e03f
00000140: a2a0 0b40 0f60 2340 42a4 733e 6680 0a40
00000150: 0655 1340 df2f 0040 9c92 f7bd 0fd9 71bf
00000160: 353f de3e d9fa c43f 5ad2 d63f 3d91 c93f
00000170: a580 9dbd 6745 94bf 7baf 9ebf 9035 963f
00000180: 74f6 3640 88c2 1240 f6b5 063f a424 3f40
00000190: f4bf 2940 4409 1340 983d 043f 6586 993d
000001a0: 5a5e 633f 98c5 173f 8cd0 8d3f fc0f 803f
000001b0: 8a54 d2be 0b78 9abf 66a6 8fbf 1f5d b43f
000001c0: a2ad 26be baf6 16be 0889 be3d 16c9 163e
000001d0: b011 cbbd c4d3 cd3d 3062 97bc 8003 433c
000001e0: 703c b9bc a066 82bd 2ae5 44be 6033 623c
000001f0: 34ee 8f3d 9c58 81bd dc3a 0f3e dcbd 4dbe
00000200: dc40 dfbd 1cba 2d3e f0a5 0ebe 00f2 a6bb
00000210: a0f7 04bc 1c68 62be e0cc 1b3c 7ad2 1abe
00000220: de98 34be a4f1 fabd 7e30 00be 1006 44be
00000230: c009 243d 7868 7d3d d07c bb3d 4ce0 93bd
00000240: f883 ddbd d62e 17be 136e 3abe 2ca6 6bbd
00000250: bce1 193e 8dcf a2bd d9bc 44be f27b 2dbe
00000260: c5a9 b33d 5c34 953d 5cbd 44be bdf0 8d3d
00000270: 13b6 23be 5f64 77bd b4eb ad3d 8583 9cbc
00000280: 5266 1f40 0ded 1340 48b0 453e 9103 1640
00000290: f8d8 1c40 02f8 1940 9ea2 a03e ffa9 85bf
000002a0: 25ce 423e 160b b63f 87ab c03f a6ba b83f
000002b0: 6588 113c 6bb5 afbf bde6 dcbf c2d7 b13f
000002c0: 4eb0 2340 faf3 1d40 bfc9 ff3e d528 1840
000002d0: cd6e 1640 7338 2540 aa24 063f adb2 173f
000002e0: 52e2 9c3f d82a 383f 5dc9 523f 964c 5b3f
000002f0: 9641 12bf 753d 50bf 8b48 8fbf 5466 b63f
00000300: 6b43 4440 8103 2440 1e54 6e3f a2f3 3240
00000310: fc4b 3740 6a54 2440 c4b0 963f 7534 df3e
00000320: fa97 cb3f eed1 d33e aa7c 2f3f 0585 153f
00000330: 503e 41bf 44f2 9dbf 8c65 b4bf 9863 e03f
00000340: 346b 2840 de0e 2140 fec5 5f3f 080e 3340
00000350: 316f 2140 0275 1c40 2b8a 853f 876b 7b3e
00000360: 8073 9f3f e719 143f a694 553f 2546 0f3f
00000370: 4e3c d2be 8604 9dbf df2e aebf 243d d73f
00000380: 43dc 3140 7a17 2d40 d458 f83e ef58 2840
00000390: d25a 2140 0f08 2040 1406 353f 212b c53e
000003a0: 3936 a33f 8c83 383f bae2 603f b831 4d3f
000003b0: 6e87 62bf fb97 6dbf 3e0c 82bf d95d e73f
000003c0: 90c6 2440 0934 1d40 3b42 1f3e 0922 2140
000003d0: 0919 0d40 f63e 1940 ad49 113f b50e 243f
000003e0: c869 8e3f 81c0 8a3f 5a7d 4f3f 59fe 1b3f
000003f0: 746a cabe 6ddf 76bf 3b3d 69bf 91a7 a73f

fc1.bias f4 [16]
1.834088 1.4634721 1.7695129 1.8681285 1.6279056 1.254144 1.5302157 -0.114876956
0.17480353 -0.2576399 1.209133 1.6989465 1.827832 1.6881055 1.685627 1.7190185
00000000: 65c3 ea3f 0e53 bb3f 667f e23f d61e ef3f
00000010: 365f d03f ca87 a03f 1cde c33f 9c44 ebbd
00000020: b2ff 323e 61e9 83be dfc4 9a3f 1477 d93f
00000030: 66f6 e93f d713 d83f a0c2 d73f cc08 dc3f

fc2.weight f4 [12, 16]
-0.22976337 0.15697838 0.14384381 -0.13630345 -0.20989312 0.10413242 0.027615458 0.07091528
0.008242846 -0.2225413 0.02088958 0.02131935 -0.016651755 0.14018641 -0.093330435 -0.18192591
0.44108614 0.69836354 0.32940018 0.31218344 0.04204111 -1.1030406 0.108165696 0.105392605
0.03047195 0.16135687 -1.0142765 0.1979635 0.36179906 0.29097393 0.11283589 0.09431322
0.36741325 0.4651172 0.42323738 -0.03858521 0.3997368 -1.2129961 0.07824162 -0.0510571
0.053224713 0.058695167 -1.2589118 0.19286904 0.10548147 0.21420483 -0.05546543 0.37500176
2.0111756 2.3278813 2.091445 2.2441335 2.097815 1.9065241 2.3267612 -0.0806061
0.13337672 0.017706603 2.3987541 2.1567378 2.3928397 2.3394446 2.0745354 1.8119428
-0.17776112 0.013947813 -0.1796904 -0.07305764 -0.15927505 0.17693274 -0.11635515 -0.07893935
0.0793969 -0.07024166 0.086856216 -0.10985738 0.14754751 0.00015211636 -0.105814815 -0.156518
1.8920058 1.5936425 1.5624954 1.725858 1.4452609 1.5221167 2.1204603 -0.06734514
-0.039045513 0.124184 1.7648404 1.9071051 1.5520393 1.5549197 1.6568793 1.5272173
1.1778932 1.7409319 1.2604148 0.7329641 1.3311423 -0.22092573 1.0598438 0.1703411
0.000269413 -0.09368588 -0.23265077 1.3909547 1.7700403 1.4067085 1.3455821 1.2078211
1.5277108 1.5301372 1.3599612 1.1372254 1.7494689 0.8673138 1.2873802 0.10608572
-0.17307019 0.13250946 0.814407 1.8124039 1.4714817 1.4333663 1.4714013 1.7939745
2.032247 2.33056 1.8293573 2.1422768 1.9612157 1.7610263 2.3544626 0.1643272
-0.11884028 -0.18829039 1.9718568 2.0703192 2.258451 2.1648376 2.108509 1.8158416
-0.1859937 -0.018789262 0.19856852 -0.22256348 -0.20033062 0.018117964 -0.22307578 -0.12627766
-0.20410594 -0.0929718 -0.17259645 0.14165372 -0.2096299 -0.05813989 -0.1571069 -0.20088023
0.14260487 0.23183896 0.11904126 0.28875294 0.2522499 -0.8594957 0.07788394 0.039366394
-0.03327909 -0.20008892 -1.216863 0.37942493 0.122227594 0.24309479 0.43359467 0.54453903
0.9862498 1.38746 1.2200749 0.77090675 1.2987128 -0.6913887 0.4302389 -0.19632089
0.17585516 -0.009135032 -0.8392021 1.0557443 1.2254143 1.1788491 1.1043993 0.973401
00000000: 1747 6bbe f1be 203e cb4b 133e 2293 0bbe
00000010: 39ee 56be 6143 d53d d039 e23c 083c 913d
00000020: 000d 073c dee1 63be a020 ab3c eba5 ae3c
00000030: 4369 88bc 078d 0f3e 0724 bfbd c94a 3abe
00000040: 0bd6 e13e f4c7 323f 24a7 a83e 82d6 9f3e
00000050: 4d33 2c3d 6f30 8dbf fa85 dd3d 14d8 d73d
00000060: 50a0 f93c bc3a 253e d0d3 81bf f2b6 4a3e
00000070: ba3d b93e 89fa 943e 8116 e73d 4a27 c13d
00000080: 971d bc3e d723 ee3e 92b2 d83e 860b 1ebd
00000090: 4daa cc3e 7543 9bbf 243d a03d 4021 51bd
000000a0: 2802 5a3d 586a 703d 0624 a1bf 767f 453e
000000b0: ab06 d83d 8358 5b3e b82f 63bd 3b00 c03e
000000c0: 1ab7 0040 02fc 1440 3cda 0540 e29f 0f40
000000d0: 9a42 0640 fb08 f43f a8e9 1440 d014 a5bd
000000e0: e893 083e 700d 913c 3085 1940 fe07 0a40
000000f0: 4924 1940 76b9 1540 30c5 0440 beed e73f
00000100: 0307 36be 5e85 643c c300 38be 3e9f 95bd
00000110: 0019 23be db2d 353e 9c4b eebd f4aa a1bd
00000120: d89a a23d dcda 8fbd ace1 b13d e8fc e0bd
00000130: b216 173e 6d81 1f39 70b5 d8bd 4146 20be
00000140: 3f2d f23f 7afc cb3f d9ff c73f eae8 dc3f
00000150: 4ffe b83f b8d4 c23f 9fb5 0740 40ec 89bd
00000160: 30ee 1fbd 2e54 fe3d 4ae6 e13f 051c f43f
00000170: 39a9 c63f 9c07 c73f 9f14 d43f db7b c33f
00000180: 34c5 963f dbd6 de3f 4655 a13f 89a3 3b3f
00000190: df62 aa3f 5b3a 62be f6a8 873f e66d 2e3e
000001a0: 0040 8d39 62de bfbd 013c 6ebe ce0a b23f
000001b0: ae90 e23f 060f b43f 093c ac3f e299 9a3f
000001c0: 078c c33f 89db c33f 3513 ae3f 9a90 913f
000001d0: 99ee df3f 4708 5e3f e0c8 a43f 7843 d93d
000001e0: 5039 31be 8fb0 073e fa7c 503f dafc e73f
000001f0: 8359 bc3f 8c78 b73f e156 bc3f f5a0 e53f
00000200: 5610 0240 e527 1540 6128 ea3f 101b 0940
00000210: 1e09 fb3f 4f69 e13f 84af 1640 6445 283e
00000220: 8862 f3bd 32cf 40be ce65 fc3f 1c80 0440
00000230: 768a 1040 b38c 0a40 d0f1 0640 7f6d e83f
00000240: 2275 3ebe f0eb 99bc 8c55 4b3e aee7 63be
00000250: 7823 4dbe 206c 943c fa6d 64be ee4e 01be
00000260: 2601 51be 0068 bebd 20bd 30be ac0d 113e
00000270: 38a9 56be 1824 6ebd a2e0 20be 8cb3 4dbe
00000280: 0307 123e 3167 6d3e e7cb f33d 6dd7 933e
00000290: e626 813e e907 5cbf 9d81 9f3d a83e 213d
000002a0: a84f 08bd 1ce4 4cbe 2bc2 9bbf fc43 c23e
000002b0: 7652 fa3d d7ed 783e 1f00 de3e e966 0b3f
000002c0: de7a 7c3f 4a98 b13f 6a2b 9c3f 255a 453f
000002d0: 393c a63f dafe 30bf 4648 dc3e 5808 49be
000002e0: 6013 343e 1aab 15bc f3d5 56bf a122 873f
000002f0: 60da 9c3f 87e4 963f f55c 8d3f cf30 793f

fc2.bias f4 [12]
-0.04613153 0.32220417 0.5588196 1.3842843 -0.18850595 1.5210207 0.9325635 1.2656131
1.268502 0.09024015 0.5788396 1.0134
00000000: 6af4 3cbd f2f7 a43e cd0e 0f3f 3a30 b13f
00000010: b407 41be ceb0 c23f 7bbc 6e3f 9cff a13f
00000020: 465e a23f d4cf b83d d52e 143f 17b7 813f

fc3.weight f4 [10, 12]
0.18766484 1.5130354 1.1912146 1.1810101 -0.15821254 0.7636849 1.1640887 0.79217625
0.90009564 0.22146142 1.1426697 1.017788 0.2738245 0.7898365 0.7467895 1.1904575
-0.053779047 0.9221686 0.79788125 0.636968 0.87115884 -0.04134786 0.80247027 1.08969
0.12962627 0.60372746 0.7222248 0.92518646 0.10821626 0.48347765 1.3242168 0.8997608
1.0482488 0.20903128 0.59923 0.8153647 0.2638762 1.2190546 1.3437773 1.0262332
0.19878957 1.0532426 0.8325885 0.9876106 0.8853113 0.062297076 1.5181558 1.1739179
0.14397404 1.0956655 0.9802931 0.93964434 -0.17694709 0.9873614 0.81990546 1.0041625
0.8096111 0.25731564 1.0625428 1.1059155 -0.2741855 0.8287827 0.53267956 1.1637665
0.28130686 0.5808534 1.016928 1.0560358 0.6502618 -0.08416635 0.61892503 1.0788144
0.23542207 -0.5894478 -0.6820701 1.161488 -0.15331721 0.9592504 0.3174752 0.9290282
1.2654419 0.24015671 -0.20666899 0.41866827 0.22102004 0.42507663 -0.32226634 1.4238969
-0.05008684 0.8486788 0.70150226 0.6091201 1.4997087 -0.23937586 -0.13153091 0.5060375
-0.17313553 -0.9911326 -1.4733542 1.326906 0.25583634 1.1864593 0.27576452 0.6553889
1.1332783 0.018712044 -1.1428343 -0.09792806 0.12688303 0.05561389 0.37070215 1.0704495
-0.027435077 0.9578459 0.82632136 0.6021011 0.77343225 -0.11343941 0.038753226 0.71969897
00000000: 362b 403e 25ab c13f b879 983f 572b 973f
00000010: 7802 22be db80 433f dc00 953f 10cc 4a3f
00000020: ab6c 663f c8c6 623e 0043 923f e146 823f
00000030: ba32 8c3e ba32 4a3f 992d 3f3f e960 983f
00000040: 6b47 5cbd 3e13 6c3f f241 4c3f 5610 233f
00000050: 4404 5f3f 605c 29bd b16e 4d3f f67a 8b3f
00000060: c0bc 043e e28d 1a3f b9e3 383f 05d9 6c3f
00000070: 7da0 dd3d 628a f73e f07f a93f b956 663f
00000080: 042d 863f 4c0c 563e 2367 193f bebb 503f
00000090: c81a 873e fb09 9c3f e500 ac3f 9c5b 833f
000000a0: 7e8f 4b3e a7d0 863f 8524 553f 0cd4 7c3f
000000b0: c3a3 623f 382b 7f3d ee52 c23f f142 963f
000000c0: ee6d 133e c43e 8c3f 7df4 7a3f 888c 703f
000000d0: 9e31 35be b7c3 7c3f 53e5 513f 6688 803f
000000e0: ac42 4f3f e0be 833e 6701 883f a48e 8d3f
000000f0: 0b62 8cbe 1a2b 543f b05d 083f 4df6 943f
00000100: 7407 903e cfb2 143f b22a 823f 2e2c 873f
00000110: 8f77 263f 685f acbd df71 1e3f 9716 8a3f
00000120: 7c12 713e 0de6 16bf 259c 2ebf a4ab 943f
00000130: 30ff 1cbe 6f91 753f 1c8c a23e cbd4 6d3f
00000140: 00fa a13f a4eb 753e 09a1 53be b05b d63e
00000150: 1453 623e a5a3 d93e 1800 a5be 4142 b63f
00000160: dc27 4dbd 0443 593f a795 333f 4bef 1b3f
00000170: 74f6 bf3f f21e 75be 0ab0 06be ac8b 013f
00000180: 714a 31be deba 7dbf df96 bcbf 0ed8 a93f
00000190: fbfc 823e e6dd 973f 0231 8d3e 91c7 273f
000001a0: 430f 913f 004a 993c 6548 92bf 828e c8bd
000001b0: a0ed 013e 64cb 633d accc bd3e 7d04 893f
000001c0: 87bf e0bc 6435 753f cc89 533f 4c23 1a3f
000001d0: a8ff 453f ec52 e8bd b4bb 1e3d 313e 383f

fc3.bias f4 [10]
0.61436945 -0.12161846 -0.13967502 0.96843874 0.49143437 0.42581326 0.5742347 0.052783903
0.33283713 0.5279323
00000000: 5147 1d3f 1913 f9bd f806 0fbe 9aeb 773f
00000010: 499d fb3e 3204 da3e 0c01 133f ef33 583d
00000020: a169 aa3e 9226 073f
