dqn_conservative.pth (torch, 5026 bytes, 6 tensors)

fc1.weight f4 [16, 16]
0	0x3dd6782e	0.10472141
1	0x3d590092	0.05297906
2	0xbd23b8fa	-0.03997133
3	0x3e911d62	0.2834273
4	0x3e37ea1d	0.17960401
5	0x3e161edc	0.1466021
6	0x3e0738c1	0.13205244
7	0xbdc19423	-0.09452083
8	0x3e559da5	0.20860918
9	0xbdb2dde7	-0.08733731
10	0x3a615f1e	0.00085972424
11	0xbe04b5ed	-0.12960024
12	0xbd87b65f	-0.066265814
13	0x3e3025a8	0.17201865
14	0x3ca174b1	0.019708963
15	0x3e724c4c	0.23661917
16	0x3dd7c3e9	0.10535414
17	0x3c57f402	0.013180735
18	0xbc84ad70	-0.016195983
19	0xbd052c2b	-0.032512825
20	0xbd1c6c03	-0.038188946
21	0xbe95daa7	-0.2926838
22	0xbe83797c	-0.25678623
23	0xbe1c708a	-0.15277305
24	0xbdbbd7e3	-0.091720365
25	0x3e8c198e	0.27363247
26	0xbe7fe9fa	-0.24991599
27	0x3ceb7df9	0.028746592
28	0x3d357817	0.04430398
29	0x3e4c4a31	0.19950177
30	0xbe4412cd	-0.19147797
31	0x3e45b173	0.19305973
32	0xbe5d1eaa	-0.21593729
33	0x3df07212	0.11740507
34	0xbdf0cc60	-0.117577314
35	0x3dc6a096	0.09698598
36	0xbe41eace	-0.18937227
37	0xbe53f54b	-0.2069904
38	0xbe00191d	-0.1250958
39	0xbdb2ecd0	-0.08736575
40	0xbbf7bd53	-0.007560411
41	0x3e11896c	0.14212579
42	0x3e7ae23e	0.24500367
43	0x3b60d262	0.0034305085
44	0x3e1ee87d	0.15518375
45	0x3cd15f8b	0.025558254
46	0xbde30f60	-0.11086917
47	0xbe2836e1	-0.16427185
48	0xbe67163a	-0.22567073
49	0xbdd50c8c	-0.10402784
50	0x3e2240af	0.15844987
51	0xbe432d1a	-0.19060174
52	0xbe19bb7b	-0.15012924
53	0xbd9d81e2	-0.07690789
54	0xbe4acf50	-0.19805646
55	0xbccb949b	-0.024851134
56	0xbe2e8f9f	-0.17046975
57	0x3cdeb019	0.02718358
58	0x3e2bff22	0.16796544
59	0x3e3ac8de	0.18240687
60	0xbda40fa4	-0.08010796
61	0x3def0aeb	0.11672004
62	0xbe0cdfb3	-0.1375721
63	0x3d38a628	0.045080334
64	0xbe001f1a	-0.12511864
65	0xbe399b2e	-0.18125603
66	0x3e15ba4f	0.14621852
67	0x3dccc18b	0.09997853
68	0x3ded3d7f	0.11583995
69	0x3ba11715	0.0049160817
70	0x3acb715d	0.0015521456
71	0xbd18038a	-0.03711275
72	0xbe1574ff	-0.14595412
73	0x3e3ef16f	0.18646787
74	0xbe0024f5	-0.12514098
75	0xbdedab10	-0.11604893
76	0xbe1a5159	-0.15070094
77	0x3e03e755	0.12881215
78	0xbe87479b	-0.26421818
79	0xbd2fe773	-0.042945337
80	0xbd94d284	-0.07266715
81	0x3e5abefe	0.2136192
82	0xbdb9c768	-0.09071237
83	0xbd633e09	-0.055479083
84	0xbdf1948a	-0.1179591
85	0xbd74a301	-0.059725765
86	0xbe22e49e	-0.15907523
87	0x3dffb972	0.12486543
88	0x3c850f46	0.016242635
89	0x3e1181da	0.1420969
90	0xbe6f6766	-0.23379287
91	0x3e24d651	0.1609738
92	0xbdeea8ba	-0.11653276
93	0xbe729c04	-0.23692328
94	0x3e3d8b42	0.18510154
95	0xbe6141bb	-0.2199773
96	0xbd89b917	-0.06724756
97	0x3e2cab4a	0.16862217
98	0x3d84966c	0.06474003
99	0xbe174c07	-0.14775096
100	0xbd798b7f	-0.06092405
101	0x3df55503	0.11979105
102	0x3e0ed87c	0.1394977
103	0xbc83681e	-0.016040858
104	0x3e927ea3	0.2861224
105	0xbd7bf367	-0.061511423
106	0xba2980a9	-0.000646601
107	0x3dfa5c31	0.12224615
108	0x3e1a992c	0.15097493
109	0xbc02a2c5	-0.007973378
110	0x3ddc2f40	0.107512
111	0x3e3cccf0	0.18437552
112	0x3d9b3597	0.07578581
113	0x3d13f2bf	0.036120173
114	0xbde7e884	-0.11323646
115	0x3e35200e	0.17688009
116	0x3cc77755	0.024348894
117	0x3bf56c0d	0.0074896873
118	0x3d91df5b	0.0712268
119	0xbd907b48	-0.07054764
120	0x3e733851	0.23751952
121	0x3e7bef72	0.2460306
122	0x3df1979a	0.11796494
123	0xbda80847	-0.08204704
124	0x3db02300	0.08600426
125	0xbd96c4af	-0.07361733
126	0xbc5b6813	-0.013391512
127	0x3c6ceb14	0.014460344
128	0x3daed525	0.08536748
129	0xbe0dcfb4	-0.13848764
130	0x3e0c21d4	0.1368478
131	0xbe2317c6	-0.15927038
132	0x3e0285ff	0.12746428
133	0x3cff87e6	0.031192731
134	0x3e85ecc4	0.261572
135	0x3e624be1	0.22099258
136	0xbccb5227	-0.024819447
137	0x3cb9fce4	0.022703595
138	0x3de40386	0.111334845
139	0x3ce7de4a	0.028304238
140	0xbe10f7ba	-0.14157
141	0x3df812c9	0.12112958
142	0x3d488944	0.04895903
143	0x3d9b5dcf	0.07586252
144	0xbda48e1e	-0.08034919
145	0xbd94ba16	-0.072620556
146	0x3df36287	0.11884027
147	0x3de92b58	0.1138522
148	0x3e5c56fb	0.21517555
149	0x3da49cec	0.08037743
150	0xbd92afc1	-0.07162429
151	0x3e063e6e	0.13109753
152	0x3e6815cf	0.2266457
153	0xbe04eee9	-0.12981762
154	0xbe4198fa	-0.18906012
155	0xbe15ebcc	-0.1464073
156	0xbd57e4ca	-0.052708425
157	0x3d89d408	0.06729895
158	0x3ded069b	0.115735255
159	0x3e6978e6	0.22800025
160	0xbe7062cc	-0.23475188
161	0x3db800e9	0.089845486
162	0xbe08763a	-0.1332635
163	0xbe9336a9	-0.2875264
164	0xbe70ff46	-0.23534879
165	0x3daa6e55	0.083218254
166	0xbe9ad5c1	-0.30241206
167	0x3e0f1c8b	0.13975732
168	0x3dd1837b	0.10230156
169	0x3d536075	0.05160566
170	0x3e249eab	0.16076152
171	0xbe28b101	-0.16473772
172	0x3e272efc	0.16326517
173	0x3d92220a	0.07135399
174	0xbddac2d1	-0.106816895
175	0xbd65a558	-0.056065887
176	0x3d410f05	0.047133464
177	0xbe04ce48	-0.12969315
178	0x3c75e030	0.015007064
179	0xbd91a974	-0.07112399
180	0x3d8d9b49	0.06914384
181	0xbabb2514	-0.0014278018
182	0xbd39f500	-0.045399666
183	0x3e4131f0	0.18866706
184	0xbd55244d	-0.052036572
185	0xbc900c5d	-0.01758402
186	0x3e37b020	0.1793828
187	0xbe2eea48	-0.17081559
188	0x3a8fe5ae	0.0010978484
189	0xbe2530dd	-0.16131921
190	0x3c9b52ce	0.018960383
191	0xbd777806	-0.060417198
192	0x3e3124ac	0.17299145
193	0xbe2eeeef	-0.17083333
194	0x3e37588c	0.17904872
195	0x3e9920d1	0.2990785
196	0xbd9c3010	-0.07626355
197	0xbd3ef39b	-0.04661904
198	0xbdc55b10	-0.096365094
199	0xbdb3718b	-0.08761891
200	0x3d183afd	0.03716563
201	0xbe47e42c	-0.19520634
202	0xbc51cb1e	-0.012804775
203	0x3e67101b	0.22564737
204	0x3cd3e82f	0.02586755
205	0x3dbc8d21	0.09206606
206	0x3dcac7f4	0.09901419
207	0x3c5e37df	0.013563125
208	0xbd9d0f1e	-0.07668899
209	0xbdd419ef	-0.10356509
210	0xbe8a9408	-0.27066064
211	0xbe5d712b	-0.21625201
212	0xbd6856b0	-0.056723297
213	0xbd240d8e	-0.04005199
214	0xbd9236e9	-0.071393795
215	0xbe6ef759	-0.23336543
216	0x3d2a5131	0.041581336
217	0x3e4395b4	0.19100076
218	0x3e3ec8a8	0.18631232
219	0x3e2f1cfb	0.17100899
220	0x3d2c0b04	0.042002693
221	0xbd85e61a	-0.06538029
222	0x3e4d7113	0.20062666
223	0xbd7d433d	-0.0618317
224	0xbda57f6f	-0.08080947
225	0xbeaee4b1	-0.34158853
226	0xbe0bdd35	-0.13658603
227	0xbe69b748	-0.22823822
228	0xbe59ae0e	-0.21257803
229	0xbe305755	-0.17220815
230	0x3e1fd344	0.15607935
231	0xbdefac31	-0.11702765
232	0xbe4b3368	-0.19843829
233	0x3d03c40a	0.03216938
234	0x3e1a4afe	0.1506767
235	0x3dfd79d5	0.12376753
236	0xbe2f301e	-0.17108199
237	0xbd9ec317	-0.07752054
238	0xbdf510b0	-0.119660735
239	0x3e187367	0.14887773
240	0x3e3175eb	0.17330138
241	0x3e4fe14d	0.20300789
242	0xbd8b42d1	-0.067998536
243	0xbe10ca06	-0.14139566
244	0x3d01c19f	0.031678792
245	0x3db51c28	0.08843261
246	0x3d609598	0.054830164
247	0xbe1a1488	-0.15046895
248	0x3d387751	0.045035664
249	0x3cf10054	0.029419102
250	0x3e460b23	0.19340186
251	0x3dfa27ab	0.12214597
252	0x3d8f8d2a	0.07009347
253	0x3e00b6d5	0.12569745
254	0x3e019c8c	0.12657374
255	0x3e01d90f	0.12680458

fc1.bias f4 [16]
0	0x3d3b9a33	0.045801353
1	0xbe04ee08	-0.12981427
2	0x3cbfa187	0.023392452
3	0xbddff6b8	-0.1093573
4	0x3e82c4d2	0.25540787
5	0x3d1573e9	0.036487494
6	0xbe6dd8c9	-0.23227228
7	0x3e6654d3	0.22493295
8	0x3b7cd7f4	0.0038580867
9	0x3dba3b7c	0.09093377
10	0x3c1a4538	0.009415917
11	0x3e4715a8	0.19441855
12	0x3e1a7d3c	0.15086836
13	0xbe5ba5f7	-0.2145003
14	0x3e4370e2	0.1908603
15	0x3e8a51fb	0.2701567

fc2.weight f4 [12, 16]
0	0x3d1d01a9	0.03833166
1	0xbe406ca6	-0.18791446
2	0xbc64f98d	-0.013975513
3	0xbd964c8a	-0.073388174
4	0x3e4781e6	0.19483146
5	0xbe3ce241	-0.18445684
6	0x3ca17f9c	0.01971417
7	0xbe02c571	-0.1277063
8	0x3c9c3311	0.01906732
9	0x3dd7cb52	0.10536827
10	0xbb5ddd16	-0.0033853701
11	0x3e1c1c5e	0.15245196
12	0x3e13a937	0.14420019
13	0xbe613d32	-0.21996
14	0x3d010668	0.03150025
15	0xbdc72bac	-0.097251266
16	0xbe386fb4	-0.18011361
17	0x3e5a3101	0.21307756
18	0x3e1e2c9f	0.15446709
19	0x3e59c6ee	0.21267292
20	0x3dece950	0.11567938
21	0xbde172fb	-0.11008259
22	0xb9ee1cb1	-0.00045416274
23	0x3d31aed8	0.043379635
24	0xbd5e5108	-0.054276496
25	0xbc1f966c	-0.009740453
26	0x3e1a2248	0.1505214
27	0x3d6fad98	0.05851516
28	0xbe6e50af	-0.23272966
29	0x3dc2291b	0.094804965
30	0x3e0a67e7	0.13516198
31	0x3e49fbed	0.19725008
32	0xbdf87ede	-0.12133573
33	0x3dbfe2d9	0.0936944
34	0x3e092874	0.13394338
35	0xbaac2a99	-0.0013135254
36	0xbe37b381	-0.17939569
37	0xbda3c9e9	-0.07997496
38	0xbe70e538	-0.2352494
39	0xbd684414	-0.05670555
40	0x3d722767	0.05911961
41	0x3e24a9ba	0.1608037
42	0x3e3efdf1	0.18651558
43	0x3cd19d9c	0.02558785
44	0x3d187dac	0.037229225
45	0x3d9376ee	0.072004184
46	0x3e189a22	0.14902547
47	0x3d716eaf	0.058943447
48	0xbde42c74	-0.11141291
49	0xbd1c61fd	-0.038179386
50	0x3c9127d6	0.01771919
51	0x3cf05009	0.029335039
52	0x3e7252a1	0.23664333
53	0x3e533820	0.20626879
54	0xbbc524f9	-0.0060163704
55	0xbdd0739c	-0.10178301
56	0xbe221169	-0.15826954
57	0xbe092030	-0.13391185
58	0xbe680993	-0.22659902
59	0xbd4f893a	-0.05066798
60	0xbe08639c	-0.13319248
61	0x3d7c4d83	0.06159736
62	0xbc62e686	-0.013848906
63	0x3d2695e7	0.0406703
64	0x3c936023	0.017990177
65	0xbe5ace92	-0.21367863
66	0xbe12e5a4	-0.14345413
67	0x3df04e0f	0.117336385
68	0x3e75ad13	0.23991804
69	0x3e48cf88	0.19610417
70	0x3d276cee	0.040875368
71	0xbe055eda	-0.13024464
72	0x3d6093f6	0.054828607
73	0xbd95fa3c	-0.07323119
74	0xbe0c85fe	-0.13722989
75	0x3e72b9ee	0.23703739
76	0x3d7956a9	0.06087366
77	0x3a4b82b1	0.000776331
78	0x3e5140b5	0.2043484
79	0xbe59d9a8	-0.21274436
80	0x3e2b5a99	0.16733779
81	0x3cdf2c9e	0.027242955
82	0xbd250246	-0.04028537
83	0xbe552031	-0.20813061
84	0x3df63922	0.12022616
85	0x3e8ec4b5	0.2788445
86	0x3cf5aee7	0.029990626
87	0x3d02f94b	0.031976026
88	0x3ddb444c	0.10706386
89	0xbdb50515	-0.0883886
90	0xbe248888	-0.16067708
91	0xbe23b7fa	-0.1598815
92	0x3dea67f7	0.11445611
93	0xbe37cb4d	-0.17948647
94	0x3d59d95f	0.053185817
95	0xba7f381b	-0.00097358384
96	0x3bc7dc85	0.006099286
97	0x3d3dacfd	0.046307553
98	0xbdf6932b	-0.12039789
99	0x3dc7428d	0.097294904
100	0xbe857ff4	-0.26074183
101	0x3ce7d9dd	0.028302127
102	0x3ca42002	0.020034794
103	0xbe13dfa9	-0.14440788
104	0xbe549699	-0.20760573
105	0xbd552dd2	-0.05204565
106	0x3dba6baa	0.091025665
107	0x3e241909	0.16025175
108	0x3d9b1a97	0.07573431
109	0x3dba1ba2	0.09087302
110	0x3e1fe345	0.1561404
111	0xbe7e1e63	-0.24816279
112	0x3df72d33	0.12069168
113	0x3e9bf8e7	0.30463335
114	0x3e4c68c2	0.19961837
115	0x3e4c97d3	0.19979791
116	0x3e228634	0.15871507
117	0x3db39b4e	0.087698564
118	0xbe175fa4	-0.14782578
119	0x3dadd81f	0.084884875
120	0x3e71b5db	0.23604529
121	0xbd38602d	-0.045013595
122	0x3e2ffcae	0.17186233
123	0x3c4532db	0.012036051
124	0xbc50bce2	-0.012740346
125	0x3e79ebb2	0.24406317
126	0xbdc96b6e	-0.09834944
127	0x3c651871	0.013982878
128	0x3dd91983	0.10600569
129	0x3e256a60	0.1615386
130	0xbde7444d	-0.11292324
131	0xbd4afb2c	-0.049555942
132	0xbd159590	-0.036519587
133	0x3e4abaf9	0.19797887
134	0xbe0b06e4	-0.13576847
135	0xbe892af3	-0.2679058
136	0x3ddf3826	0.10899381
137	0x3db133cb	0.08652457
138	0x3e3098a8	0.17245734
139	0x3e193593	0.14961843
140	0xbde5deba	-0.11224122
141	0xbd9e00b7	-0.0771498
142	0xbe3448a5	-0.17605837
143	0x3d63596a	0.055505194
144	0xbd666914	-0.056252554
145	0xbd1a4263	-0.037660968
146	0x3e37a6ce	0.17934725
147	0x3b2172d7	0.00246351
148	0x3e3fdc5f	0.18736409
149	0x3e2a8bad	0.16654845
150	0x3ba585cf	0.0050513516
151	0xbd907974	-0.07054415
152	0x3e2284ae	0.15870926
153	0xbe7a9ffd	-0.24475093
154	0xbd1b4ee9	-0.03791705
155	0x3e4e3acc	0.20139617
156	0x3de02810	0.10945141
157	0x3e2fd342	0.17170432
158	0xbd8b1a2a	-0.067921
159	0xbe0ce905	-0.13760765
160	0xbe43f4a6	-0.19136295
161	0x3e294394	0.16529685
162	0x3e7753ab	0.2415301
163	0x3d8f6716	0.07002084
164	0xbe0ef592	-0.13960865
165	0xbd8d6470	-0.069039226
166	0x3dc63f55	0.096800484
167	0x3e7c4dff	0.24639128
168	0x3dd3b2e5	0.10336856
169	0x3eae390d	0.340279
170	0xbddb2534	-0.10700455
171	0x3e3db23a	0.1852502
172	0x3e25c982	0.1619015
173	0xbde68746	-0.1125627
174	0x3ea8dfc8	0.32983232
175	0x3e350106	0.17676172
176	0xbe4f34f5	-0.20235045
177	0xbdb9af18	-0.090665996
178	0x3d913c4f	0.07091581
179	0xbe051921	-0.12997867
180	0x3e32b1fc	0.17450708
181	0x3da4aed8	0.08041161
182	0xbde6da9b	-0.112721644
183	0xbdec8ac3	-0.11549904
184	0xbda1aab3	-0.078938864
185	0x3e8ba39e	0.27273268
186	0x3d3fd66c	0.046835348
187	0x3cc5d590	0.024149686
188	0x3e3f73b6	0.18696484
189	0xbd9f5bb5	-0.077811636
190	0x3e90da99	0.28291777
191	0x3e3e61d1	0.18592001

fc2.bias f4 [12]
0	0xbdcb2f37	-0.09921115
1	0xbd8900bc	-0.06689593
2	0xbe8ddc85	-0.27707306
3	0xbe5ecfc5	-0.21758945
4	0xbd24b276	-0.040209256
5	0x3e0dbb4c	0.1384098
6	0xbd144d17	-0.03620633
7	0xbcc84032	-0.024444673
8	0xbe017d44	-0.12645441
9	0x3dcc2567	0.099680714
10	0x3d995aa4	0.074879915
11	0x3e6789e5	0.22611196

fc3.weight f4 [10, 12]
0	0x3e80b010	0.25134325
1	0x3dad2cb7	0.08455794
2	0x3e4c2427	0.19935666
3	0xbd455b67	-0.04818287
4	0x3e9ecd8a	0.3101619
5	0xbdf23c1b	-0.118278705
6	0xbc225834	-0.009908725
7	0x3ca5ec2b	0.020254215
8	0x3e5bbc0e	0.21458456
9	0xbd16b040	-0.03678918
10	0x3e58a4d6	0.2115663
11	0xbd961bee	-0.07329546
12	0xbe292802	-0.16519168
13	0xbca08883	-0.019596344
14	0xbb3ad975	-0.0028510962
15	0xbdbf904d	-0.09353695
16	0xbe6da330	-0.23206782
17	0x3da231c3	0.079196475
18	0x3da08ec8	0.07839733
19	0x3e282ae1	0.16422607
20	0x3e6f7274	0.23383504
21	0xbd832216	-0.06402986
22	0x3e45b620	0.19307756
23	0xbd89254d	-0.06696568
24	0x3dad48bc	0.084611386
25	0xbd5dc49d	-0.054142583
26	0xbe2db565	-0.16963728
27	0x3c974730	0.018466562
28	0x3e1bd996	0.15219721
29	0xbe2c1d7c	-0.16808122
30	0xbe41ce01	-0.1892624
31	0x3de430aa	0.111420944
32	0x3d9584bd	0.073007084
33	0xbde76cfb	-0.11300083
34	0x3e86d39d	0.26333323
35	0x3d08ca83	0.033396255
36	0x3da4f380	0.080542564
37	0x3dd706a5	0.10499314
38	0xbe83f367	-0.2577164
39	0x3e306f8c	0.17230052
40	0x3e16e93c	0.1473741
41	0xbea2f1a9	-0.31824997
42	0xbe1451be	-0.14484307
43	0x3db30df6	0.08742897
44	0x3d5eeb35	0.05442353
45	0xbd815754	-0.06315485
46	0x3d61e042	0.05514551
47	0x3e8a49d9	0.27009466
48	0xbe39999f	-0.18125008
49	0xbded39b5	-0.11583272
50	0xbeb42031	-0.3518081
51	0x3e086c99	0.13322677
52	0xbdd48571	-0.103770144
53	0xbe5cebef	-0.21574377
54	0xbc83420d	-0.016022706
55	0x3e8ec1dd	0.2788228
56	0xbe9f0d29	-0.31064728
57	0x3e7d3d51	0.24730422
58	0x3c8bc795	0.017062942
59	0x3e32772c	0.17428273
60	0xbe2138d7	-0.15744339
61	0xbe6826b9	-0.22671022
62	0xbe5ad3fb	-0.21369927
63	0x3df7a041	0.12091113
64	0xbd121d53	-0.035672497
65	0xbe2b1c13	-0.16709928
66	0xbb4526b4	-0.0030082883
67	0x3e61bd2a	0.22044817
68	0xbdecfac2	-0.11571266
69	0x3e180705	0.14846428
70	0x3e59c4fb	0.21266548
71	0x3ec2e9e4	0.3806907
72	0xbe326035	-0.17419513
73	0x3e0c161a	0.13680306
74	0xbe5b4d6e	-0.21416256
75	0x3e56b853	0.20968752
76	0xbe2d5691	-0.16927554
77	0xbd4cf0a3	-0.050034177
78	0x3dbf2843	0.09333851
79	0x3da9c85a	0.08290167
80	0x3d646804	0.05576326
81	0x3e23455b	0.15944426
82	0x3d1145cf	0.035466965
83	0x3e131705	0.1436425
84	0xbc1787c3	-0.009248677
85	0x3e23c9f3	0.15995006
86	0x3df3c43a	0.119026616
87	0x3dbf1e5f	0.09331965
88	0x3df42008	0.11920172
89	0xbe38f521	-0.1806226
90	0xbe79e952	-0.24405411
91	0x3bb9f6f7	0.0056751925
92	0x3dfa3b8a	0.122183874
93	0x3e3209a8	0.17386496
94	0x3c7e9623	0.015538725
95	0x3d5e810a	0.05432228
96	0xbdabd597	-0.083903484
97	0x3e8a351f	0.26993653
98	0xbe4fb3dc	-0.20283455
99	0xbe6a58b8	-0.22885406
100	0xbe170cfa	-0.14751044
101	0x3d8a042a	0.067390755
102	0xbe05bdf2	-0.1306074
103	0x3c25160e	0.010076059
104	0x3a8c7598	0.0010716198
105	0xbde648ba	-0.1124434
106	0x3dc33d22	0.095331445
107	0x3e55428d	0.20826168
108	0xbe97f282	-0.29677206
109	0xbe1911e1	-0.14948227
110	0xbe299687	-0.16561328
111	0xbe15129c	-0.1455788
112	0x3d074b77	0.033030953
113	0xbec769c9	-0.38947895
114	0xbd63486a	-0.05548898
115	0x3e6be9e1	0.23038436
116	0xbe5e99b8	-0.21738327
117	0x3e94321a	0.28944474
118	0xbb51a7c8	-0.0031990875
119	0x3e842975	0.2581288

fc3.bias f4 [10]
0	0xbaad97d0	-0.0013244096
1	0xbe02a81e	-0.12759444
2	0xbd43d57f	-0.047811028
3	0x3e7cbc2f	0.24681161
4	0x3e52bd91	0.20580126
5	0xbca1b7c5	-0.019740948
6	0x3e0f4b47	0.1399356
7	0x3e8d9abf	0.27657124
8	0x3d2061d4	0.039155796
9	0x3eb7a679	0.35869196
