Players/0.1_1_0.1_True.pth (torch, 5006 bytes, 6 tensors)

fc1.weight f4 [16, 16]
00000000: ab8d 1bbe c126 143d 9809 dd3d eabd 0b3e
00000010: ded2 0d3e ea2d 103e e621 95bd 91fd 343e
00000020: a93a 03be e19d 163e 80c5 413e 179f a6bd
00000030: b8cc 473e aced 013e 69a1 fdbd e213 073e
00000040: 96e0 0fbe b901 143e 2bfe c5bd e420 87be
00000050: 1cbd 943e f8ff 9c3d fc5a b93c be37 fcbd
00000060: e733 78be 7e94 463e 644a a5bd 76fe 9c3d
00000070: 934a 9e3d 7ae7 b03d 6918 383e 54d0 213e
00000080: 59f4 e23d a8f5 fc3d 086c b63d 45d2 003e
00000090: 8350 13be cb4e c1bc 0fa6 0abe 9ac4 fa3d
000000a0: 5fab b73d 571d e63d c166 56bd 343d 503e
000000b0: edab fc3d c53b f4bd 9819 523d c672 f3bd
000000c0: 1a8a 933e 9ada fe3d b056 a33d 88b9 c63d
000000d0: ce36 903e 4cc8 843d 3a44 30be 92ee 3f3e
000000e0: 2a7b d43d 37cf a8bd 4f4f 863d ffc5 c0bc
000000f0: 26ac 1c3e 6e5f a7bd a5b9 033e e22f 0e3e
00000100: 848c 53bd 6c8b 193e ce95 593d f300 973d
00000110: 4aa9 90be 2904 95bd 5ec0 dbbd 352d 88bd
00000120: 88d6 7ebe 0b2f ecbd 60cf 40bc c93c 823c
00000130: 7bfe f23d 2ac9 343e fc62 17be 7fe5 a1bd
00000140: b699 eb3e 192c aa3e 3f9b 7a3e f709 713e
00000150: c8b4 1f3e 65c7 5b3e 11d3 c53d 144a 383e
00000160: 093f 903e 9ad2 07be b6a7 63bd bf64 e0bd
00000170: f93d 1c3e 03fc 39bd 35d6 22ba 6929 83be
00000180: ad66 c23c 50be 1ebe b7e1 88be ff71 393d
00000190: 88c7 d93d 57e3 cfbd 99b3 76bd 4220 1e3e
000001a0: 25a6 7b3a 53e1 5c3d 793c 053d 8259 0c3e
000001b0: c7e1 a33d e2b6 e13d 60d2 4bbe a3b3 e13d
000001c0: 13a0 873e 6ed7 933e f9f3 973d 3e3f 963e
000001d0: 2989 363e 3d8e be3e 74f3 ed3d ba7b a33e
000001e0: 55d4 6a3e 09bb dabd ec34 febd f097 abbd
000001f0: 28d2 81bd 4fa7 273d 5751 033e 4c46 38bc
00000200: 47ce ab3d 7483 a2bd 8d80 84bd 9aab ddbd
00000210: 8a1c 59be 8171 68be 0b21 2fbe 568b bebd
00000220: 21e0 3ebe 8810 9cbe 9538 8a3e a4a0 743d
00000230: a379 413e 3c03 87bd 52cf 3bbe 31cf e8bc
00000240: 8fda c33e 6853 843e 28e4 df3e a669 823e
00000250: faa3 ab3e e532 6c3e 0945 b43e fc2c ad3e
00000260: bc24 573e 0aeb 16be bb71 4dbe 9781 34be
00000270: 642c 403d 908a 28bd ba11 9f3d 73a2 85bd
00000280: f773 d13b 51aa 083e c70a 19be 0ccd 39be
00000290: 68a8 35be 328c 493e ff62 123e 049a 67be
000002a0: 7fb1 2c3e 8429 ad3d 2963 803c 7b4d a0bd
000002b0: 2a03 d9bd 6bf3 73ba b420 143e 9bb2 de3c
000002c0: 774f 57bd 31c5 2e3e a010 ec3c eddb acbd
000002d0: 0a57 ffbd c993 eabc da6f d2bc 5ec5 a73c
000002e0: 7025 8b3d 849a 28bd bb7c 4cbe 31fb dcbd
000002f0: 88d3 7c3e e236 a9bd 7a71 c33c 9e17 8d3e
00000300: 20c4 213d 34da 46be 6e65 5a3e e54f bdbd
00000310: 37ad 37be e5d2 a9bd 1f6d 7bbe eda7 5fbc
00000320: 4c06 ec3d 4fb1 313d 461e 6ebe 077b 093e
00000330: 9d41 9ebd c0ee d6bd 4d50 253e 7b9b 6cbe
00000340: c3b8 0a3e 9236 9b3e 1b93 2a3e 184b c53e
00000350: cf8c 153e 39cc 0c3e ec59 723d f74f 043e
00000360: 9fdd 563d 8d70 323d 0bda 38be 1326 c1bd
00000370: cb6b 71bd 2099 343e aea9 15bd cb96 833c
00000380: d20c 0dbe 2149 90bd 6f2d 473e cdca bb3d
00000390: 5247 53be b78f f33d ec08 a4bd bba7 393e
000003a0: 58c8 0abe ff3a 783e 4206 803c 2b5c 12be
000003b0: 9a0d 32be ed98 22be d3c6 073e 8789 6c3e
000003c0: 0dfb a5be 0388 ad3d 246d 9abe c8d6 dcbd
000003d0: 5577 8cbe d257 403b 849e ce3d c538 28be
000003e0: e768 893e df15 653e 6d7a 93bd 7404 3cbd
000003f0: 002f dbbd 57cb 8abe 7a19 82be ea5b 2abe
-0.15190761 0.03616977 0.107928455 0.13646665 0.1384997 0.14080015 -0.07281856 0.17674853
-0.12815346 0.14708664 0.18922997 -0.08135813 0.19511688 0.12688321 -0.12384302 0.13191178
-0.14050516 0.14453782 -0.09667619 -0.2639228 0.2905053 0.0766601 0.022626393 -0.123153195
-0.24238549 0.19392583 -0.080708295 0.07665722 0.07729068 0.08637901 0.17978062 0.15802127
0.11081762 0.12351543 0.08907324 0.12580211 -0.14386182 -0.023597142 -0.13539909 0.1224453
0.08968233 0.11236065 -0.052344088 0.20335847 0.1233748 -0.11925463 0.05129394 -0.11887126
0.288163 0.12444039 0.07975519 0.09703356 0.28166813 0.06483516 -0.17213526 0.18743351
0.10375054 -0.08242648 0.06558096 -0.023531912 0.15300044 -0.08172499 0.12863787 0.13885453
-0.051647678 0.14994591 0.05312138 0.07373228 -0.28254157 -0.07276184 -0.107300505 -0.066492476
-0.24886525 -0.1153241 -0.011768192 0.015898125 0.118649445 0.17654863 -0.14783853 -0.07905101
0.4601571 0.3323677 0.24473284 0.23538958 0.15596306 0.21462782 0.09659398 0.17997009
0.28173092 -0.13263932 -0.055579863 -0.10956716 0.15258016 -0.045406353 -0.0006211729 -0.2561753
0.0237306 -0.15502286 -0.26734707 0.04527473 0.10633761 -0.101507835 -0.06022987 0.15441993
0.00095996476 0.053925823 0.032528374 0.1370602 0.08002048 0.1102121 -0.1990447 0.11020591
0.26489314 0.28875297 0.07419581 0.29345125 0.1782576 0.37217894 0.116187006 0.31930333
0.2293256 -0.106802054 -0.12412438 -0.08378589 -0.06338912 0.040931042 0.12823997 -0.011247229
0.08388954 -0.07935229 -0.064698316 -0.10823746 -0.21202293 -0.22699548 -0.17102449 -0.0930392
-0.18640186 -0.30481362 0.26996294 0.05972351 0.18894057 -0.06592414 -0.18340805 -0.028419109
0.38252684 0.25844884 0.43728757 0.25471228 0.33523542 0.2306629 0.3520892 0.33823383
0.21010107 -0.14738098 -0.20062916 -0.1762756 0.046917334 -0.04114777 0.07767053 -0.06525125
0.006391998 0.1334622 -0.14945517 -0.18144625 -0.17740023 0.19682387 0.14295577 -0.22617346
0.16864584 0.08455184 0.015672283 -0.07827278 -0.105963066 -0.00093059865 0.144656 0.027184775
-0.052566018 0.1706741 0.028816521 -0.08440385 -0.12467773 -0.028634923 -0.0256881 0.020479854
0.0679425 -0.041162983 -0.19969456 -0.107900985 0.24690068 -0.08262421 0.02385782 0.2755708
0.03949368 -0.19419175 0.21327755 -0.09243754 -0.1793717 -0.08292178 -0.24553345 -0.0136508765
0.115246385 0.043381985 -0.23253736 0.13425837 -0.077273585 -0.10494757 0.16143914 -0.23106186
0.13547044 0.3031507 0.16657679 0.38533854 0.14604495 0.1374978 0.059167787 0.12921129
0.052457448 0.043564368 -0.18051927 -0.0943109 -0.05894069 0.17636538 -0.036538772 0.016063115
-0.13774422 -0.07045198 0.19450925 0.091695406 -0.20632675 0.11892646 -0.08009514 0.1813039
-0.13552988 0.24241255 0.015627984 -0.14292972 -0.17388001 -0.15878649 0.13259439 0.23099338
-0.324181 0.08473208 -0.30161393 -0.10783154 -0.27434793 0.002934922 0.10088828 -0.16427906
0.26837847 0.22371624 -0.07201085 -0.045902684 -0.10702324 -0.2710826 -0.25410062 -0.16636625

fc1.bias f4 [16]
00000000: 015c e1bd 4c30 1b3d 971d 463e c92a 6cbe
00000010: 6f06 8fbe 08fb c13d 0423 923c c5b7 49be
00000020: 442f 6e3c 88b5 323e fd02 00be bd02 263d
00000030: bbd6 fabd fadd 853e abbb c13d 3cc4 853e
-0.110038765 0.037887856 0.19347225 -0.23063196 -0.27934596 0.094717085 0.017838962 -0.19699009
0.014537636 0.17452061 -0.1250114 0.040529955 -0.12247988 0.26145917 0.09459623 0.26126277

fc2.weight f4 [12, 16]
00000000: 293b 7cbc 9c95 e63d d674 1b3e e8f2 313d
00000010: 8c56 65bc f2dd 20be efc2 cd3d 3356 7bbe
00000020: 152b 8f3e ccd1 c2bd 9711 d93d a7fc 3fbe
00000030: ddf7 3f3e cc48 b4bd 67af 2d3c a26c 06be
00000040: f2a1 3abe b5e7 3e3c ed17 983d 6f60 15be
00000050: d8ce 69be 4480 5bbe 9088 03be 5198 673d
00000060: cad6 3fbe f3f5 3bbe dabe 763c 8cac d1bd
00000070: b43f f4bc 338b 463e 2bae 32bd c225 593d
00000080: cedd babd 82cf 513c 8e07 473e 992e 393e
00000090: 6747 463d 7eca 65be 1033 003e fd20 b0be
000000a0: 4859 2ebd d7f6 7bbe 3b8e 36bc 5725 143e
000000b0: a050 573e 1db1 40be 9831 c73d 2946 ff3c
000000c0: c048 bd3d c9bc cbbc 2e4f 06be 0508 f23d
000000d0: 0124 c93c 076f 343d 067d c43d 03d8 7b3e
000000e0: 223d b9be ad38 c73d 9ae2 51be 7e9b 093c
000000f0: 58b7 3b3d 9709 893c 3a4b 463e 16fe 22bd
00000100: c48e 223c e1f4 8dbd ac41 e8bd ca57 883e
00000110: 5446 1dbe 637a 2b3e 3611 cbbc b29b 723e
00000120: c2ac 35be 381d 623d c360 eabd 6612 f5bc
00000130: 3c90 03be 443e a73e 9810 83bd e006 c93d
00000140: 7570 ae3d 8a37 903e 0442 ebbd 96fb 89bd
00000150: b91d 193e cdc0 27be 26aa 9c3d 1732 20be
00000160: c9e9 4aba 16ce 8d3c 130a 603e b327 50be
00000170: 78e4 0c3e 5d9c 833d 2eb0 23bd 9409 463e
00000180: 3b9b a9bd 621c 97be a837 a738 e9a1 2ebe
00000190: 84b5 153e ec92 05be f49b b13d a0d8 23bd
000001a0: a349 323d f6c3 823d bb24 763d aeb0 113d
000001b0: 2506 563e 2ddd c8bd dcbf 633d 89ef 233e
000001c0: c829 3a3e 0f53 47bd 0037 353d e319 eb3d
000001d0: a89b c53d 8173 2fbd 2eec 25be bb75 1b3e
000001e0: f52b 213c 682c 973e 6a6e 303e 1d2c 60be
000001f0: 5b75 c8bb cd62 e43d 9b5e 95be 9cc7 a03d
00000200: dc03 e1bd a9e4 063c 5b81 1abe 6cbf 3b3e
00000210: 97e6 7f3e 54c8 2c3e 861b 713d 8486 083e
00000220: 7c14 793e 8a3e b13d d0b1 97be 3cc8 4a3d
00000230: c498 5cbe 07d1 313e 19e7 cf3d ad7d 95bd
00000240: 1104 773c d981 cdbd ced3 ab3d 94f6 c3bd
00000250: b6ba 4e3e 10da cd3c 35f4 ba3d f3c9 a8be
00000260: 7bfe 413d a947 43be ba03 843e ae83 683e
00000270: 261a 6c3e 31af d33d c83d 633d bdbc e7bd
00000280: 7632 7d3e c7a9 23be 226a ae3d f6e5 9dbc
00000290: a412 d2bb 0b5b 68be cd8f 413d d515 45be
000002a0: 2a79 253d b59c d7be 6de0 dbbd fcf2 893d
000002b0: e000 6abe d9da 8bbe 1f3a 463e 5301 fabd
000002c0: 58cf de3d 0bc1 303e d931 e0bd 9f76 563d
000002d0: fb6d 85be 7cf7 ccbe 42f8 553e dfcb a2be
000002e0: bc35 c83d c6e6 15bf af32 8b3d e53e e63e
000002f0: 28e0 8b3d 9b2f abbd 5221 ac3d 8930 423e
-0.015394964 0.112590045 0.15181288 0.043444544 -0.013997685 -0.15709665 0.10046946 -0.24544601
0.27962556 -0.09512672 0.10599058 -0.18748723 0.18746896 -0.088029474 0.010600901 -0.13127378
-0.1822584 0.011651923 0.074264385 -0.14587568 -0.22832811 -0.21435648 -0.12845063 0.056541745
-0.1873428 -0.18355541 0.015060151 -0.10237989 -0.029815532 0.19389038 -0.04362313 0.053014524
-0.09124337 0.012805821 0.19436476 0.18084182 0.04840794 -0.22440526 0.12519479 -0.34400168
-0.042565614 -0.2460588 -0.011142309 0.14467369 0.2102685 -0.18817563 0.09726256 0.031161385
0.092423916 -0.024870293 -0.13116142 0.11817936 0.0245533 0.044051196 0.09594159 0.2459412
-0.36179453 0.09727607 -0.20496598 0.008398889 0.045829147 0.016728206 0.19364634 -0.039793096
0.009921733 -0.069314726 -0.11340651 0.26629478 -0.1535886 0.16745906 -0.02478848 0.23692206
-0.17741683 0.055203646 -0.11444237 -0.029916 -0.1284799 0.32664692 -0.063996494 0.098157644
0.08517543 0.28167373 -0.11487201 -0.06737439 0.14952745 -0.16382141 0.07649641 -0.15644108
-0.0007740525 0.017310183 0.21878843 -0.20327644 0.13759029 0.06426308 -0.03996294 0.19339591
-0.08281561 -0.29513842 7.973547e-05 -0.17053951 0.14620024 -0.13044327 0.08672324 -0.04000151
0.043527257 0.06385033 0.060093623 0.035568886 0.20900781 -0.09807811 0.055602893 0.16009344
0.18180001 -0.048663195 0.044241905 0.11479547 0.0964883 -0.042834762 -0.16203377 0.1518163
0.00983714 0.29526067 0.1722962 -0.21891828 -0.0061175055 0.11151657 -0.2917374 0.078505725
-0.10987064 0.008233228 -0.15088408 0.1833474 0.24990307 0.16873294 0.05886414 0.13332564
0.2432422 0.086545065 -0.29627848 0.049507365 -0.2154265 0.17364894 0.101515 -0.072993614
0.015076653 -0.10034532 0.08390008 -0.095685154 0.20188412 0.025128394 0.0912861 -0.32966575
0.047361832 -0.19070305 0.25784093 0.22706482 0.2305685 0.103361495 0.05547884 -0.11315296
0.2472628 -0.15982734 0.08516337 -0.019274693 -0.0064109135 -0.2269098 0.04725628 -0.1924661
0.040398754 -0.42111745 -0.10736165 0.06735799 -0.22851896 -0.27315405 0.19358109 -0.12207284
0.108793914 0.1726114 -0.10947008 0.05235922 -0.2606047 -0.40032566 0.20895484 -0.31796166
0.09775874 -0.5855526 0.067967765 0.4496986 0.06829864 -0.083586894 0.08404793 0.18963827

fc2.bias f4 [12]
00000000: 0638 a1bc bde3 f93d 2300 963e f7bc a0bd
00000010: 58e4 583c 1739 21bd d651 1ebe 4f45 b33b
00000020: 3bac 9ebe 9ea2 893d 2c6a a93e 38c4 bc3e
-0.019680034 0.12201641 0.2929698 -0.07848542 0.013238035 -0.039361086 -0.15460905 0.0054709087
-0.30990776 0.0672047 0.33088815 0.36868453

fc3.weight f4 [10, 12]
00000000: eb3d ee3d 6bd9 44be 964a a73d 3a58 d9bd
00000010: 7f09 363e c020 133d da53 66be 422b 4abe
00000020: 2225 edbc 43d4 883c 582a 573e b24a 3f3e
00000030: fb4b a93c 2da5 0d3e 3cf0 823e e40d f4bd
00000040: 2aeb d0bb 7d24 883e b36f 9abd fa46 263e
00000050: ece0 8ebd 63ec 0e3e b4d3 833e 1f1e 863d
00000060: 91fd 35be e08b 1e3e 9472 803e ad0b 7dbe
00000070: f399 31bb 4925 aabd 0532 40bc 59fa 173e
00000080: 7202 513c 9cd6 9cba 0a67 643e c6c6 3a3e
00000090: ce3a 763e 5a8a f0bd 458e 023c 5c8f b5bc
000000a0: d365 34bd 2ad0 963d c390 a83e eb73 5dbe
000000b0: 219a 6f3e 9fe0 573e a122 963e e171 78bc
000000c0: 1057 92bd 9dec 013d 921a 453e f31a 8bbd
000000d0: 178b 8abd 629f a73d 8be7 a6bc 6fd3 cf3b
000000e0: d419 fa3d f3d9 c23d c337 fd3c d866 653e
000000f0: 46a2 9cbc 9dec 273e e609 a53e 0e5d f83d
00000100: 7f03 3fbe 30c4 8e3e 2585 b13e fc5a 3e3e
00000110: abf3 193b e847 3abd ba41 9bbb b696 113e
00000120: 46a3 08bd 5c00 953d 2bb6 0e3e 2c53 923d
00000130: 7ff0 57be d2b3 2c3d 0e62 2e3e 56da 95bd
00000140: b11e 873e 7d56 973d f13f 8dbd 61de ae3e
00000150: 16bd 643e 37a4 5c3e 7abd 1ebe b2ac 01be
00000160: e70d d43d 8835 48be f18b 863e 4b22 6ebe
00000170: 0418 a83d d217 87bc fb22 a43e b003 853e
00000180: aec6 173e 0379 11be aaab 843e cea8 13be
00000190: 0f40 1abe 31b8 073e 7a91 813b adc9 8dbd
000001a0: 4960 a13e cbde a63e 259e 463d cd1b a63c
000001b0: 484e 153e 95af 493e b4b1 16bd 3e97 cabd
000001c0: 9a6d af3d ea3b 18be c5c8 9c3d c035 8bbe
000001d0: 5e8d 173e 8463 5e3d a33e ae3d b336 9a3e
0.11632904 -0.19223563 0.08168523 -0.10612531 0.1777706 0.035919905 -0.22492924 -0.19743064
-0.02894837 0.016702777 0.21012247 0.18680838 0.020666113 0.13832541 0.2557391 -0.11916712
-0.00637569 0.26590338 -0.07540836 0.16238013 -0.06976494 0.13957362 0.25747454 0.06548714
-0.17772509 0.15483046 0.25087416 -0.24711485 -0.0027099818 -0.08307893 -0.011730676 0.14841594
0.012756931 -0.0011965814 0.22304931 0.18239889 0.2404587 -0.117451385 0.00796849 -0.022163086
-0.04404242 0.07363923 0.32922944 -0.2162625 0.2339864 0.2108178 0.29323295 -0.01516387
-0.07145512 0.031719793 0.19248417 -0.067922495 -0.067648105 0.08184697 -0.02037408 0.0063423435
0.122119576 0.09514227 0.030910378 0.22402513 -0.019120347 0.16398855 0.32234114 0.12127124
-0.18653677 0.27884054 0.34671894 0.18589395 0.0023491185 -0.04547873 -0.00473806 0.14217648
-0.033358835 0.07275459 0.13936679 0.0714477 -0.21087836 0.042163678 0.17029592 -0.07317035
0.26390603 0.07389543 -0.068969615 0.34154037 0.22337756 0.21547018 -0.15501967 -0.12663534
0.10354214 -0.1955167 0.26278642 -0.23255269 0.082077056 -0.01649085 0.32057938 0.25979376
0.14821884 -0.14206319 0.2591222 -0.14419863 -0.15063499 0.13253857 0.0039541097 -0.06923232
0.31518772 0.32591853 0.048490662 0.020276928 0.14580643 0.19695885 -0.036790565 -0.098921284
0.08565827 -0.14866605 0.07655481 -0.27189445 0.14800021 0.054294124 0.08508041 0.30119857

fc3.bias f4 [10]
00000000: d01b 063e 30eb da3b 9299 db3d 8246 453e
00000010: cc95 aa3d 998a 8abd cad2 0c3e 8f8d 4d3e
00000020: 4794 723e 489d 453e
0.13096547 0.0066808686 0.107226506 0.19265178 0.08329353 -0.06764717 0.13752285 0.20073532
0.23689376 0.1929828
