Players/0.1_100_1_False.pth (torch, 5016 bytes, 6 tensors)

fc1.weight f4 [16, 16]
000000 15 e6 69 3d ac 4a 4b 3e 9d fd 09 3e 03 70 cc 3c
       0.05710419 0.19852704 0.13475652 0.024955755
000010 9d df 53 bc d1 1b f5 3c 12 a1 56 be 08 d1 52 3e
       -0.0129317315 0.02992049 -0.20959881 0.20587552
000020 7f ba d5 bd a5 a4 1b be e5 de 10 3e ea 1e 73 3e
       -0.10435962 -0.15199526 0.14147528 0.23742262
000030 fb cc 32 3e 95 43 c9 bd d8 93 19 be fb 1f de 3d
       0.17461006 -0.098273434 -0.14997804 0.108459435
000040 77 08 28 be 0c dd 35 bd 36 66 23 be 9e 8b 9a bd
       -0.16409479 -0.04440026 -0.15956959 -0.07546161
000050 f4 e1 12 be c2 c8 40 be 2d ab fe bd 55 3d cc 3d
       -0.14344007 -0.18826583 -0.12434993 0.09972636
000060 00 77 40 be c6 a0 23 3e d1 4c 06 3d 1e e4 81 3e
       -0.18795395 0.15979299 0.0327881 0.25369352
000070 fa c6 0b 3d 1d 86 38 be 6b a9 01 bd fe a6 60 3d
       0.034125306 -0.1801991 -0.03165571 0.054846756
000080 8e 6d 08 be 66 59 35 be 6e 03 42 be e6 66 27 be
       -0.13323042 -0.17709884 -0.18946621 -0.16347846
000090 ae ec 08 3e b7 cb 0c bd af 40 34 3c f7 39 bb bd
       0.13371536 -0.034373965 0.01100175 -0.09141915
0000a0 9c e2 65 3d 0c 1e e3 bd 49 a2 f9 bd 49 81 78 3e
       0.056124315 -0.11089715 -0.121891566 0.24268068
0000b0 5d 54 9a bc 41 50 58 3e 7d 0d 12 be a8 36 ab bd
       -0.018839056 0.21124364 -0.14262958 -0.08360034
0000c0 d0 c6 28 be d3 75 7a bd d5 a0 d5 3d 7a b9 dc 3a
       -0.16482091 -0.061147522 0.10431067 0.0016839944
0000d0 63 1c b2 3d 7a 77 09 3e e3 a3 52 be a6 c5 20 3e
       0.086968206 0.13424483 -0.2057033 0.15700397
0000e0 90 b9 60 be 79 f6 51 be 27 ea 1b bd 14 dc 18 3d
       -0.21945786 -0.20504178 -0.038065102 0.037319258
0000f0 50 f4 1f 3d ed 18 f6 bd 99 79 14 be d0 86 50 bd
       0.039051354 -0.12016473 -0.14499511 -0.050909817
000100 ee 7b 70 be cc 8f c9 bd a6 70 7f 3d a2 f6 e5 3d
       -0.23484775 -0.0984188 0.06236329 0.11228682
000110 fc 37 ed 3d ef 63 d4 bd 6c 00 81 3d de 34 40 be
       0.11582944 -0.10370623 0.062989086 -0.18770167
000120 47 47 51 3e e3 e8 14 3e 1e 6c 8f 3d 99 09 53 3d
       0.20437346 0.14541964 0.070030436 0.051522825
000130 ea be 41 bd a4 6f a3 3d 32 ba 85 3d ef d7 77 be
       -0.04730121 0.07980278 0.065296546 -0.24203466
000140 fe 48 7d 3e 35 5a 07 3e 03 55 c4 bb d0 43 4e 3e
       0.24734876 0.13218005 -0.0059915795 0.20143056
000150 82 ee b2 3d 30 c3 6d 3e 79 32 89 3d 85 eb 14 3e
       0.08736898 0.2321899 0.0669908 0.14542969
000160 5c b5 1f 3e 4c de 09 be 6e 16 15 3c b4 db 4c 3e
       0.15596527 -0.13463706 0.009099586 0.20005685
000170 e2 20 1d bd 3c 4c 0d be c3 b4 4d 3c 53 aa f7 3d
       -0.038361438 -0.13798612 0.012555304 0.12093034
000180 d2 47 1b 3e b3 18 1e 3e 8d 31 57 be 6f 50 a8 bd
       0.15164116 0.1543911 -0.21014996 -0.082184665
000190 60 72 23 be 4a 0b 10 3e 7b 5d 17 be 6f e7 7b bd
       -0.159616 0.14066806 -0.14781754 -0.06150001
0001a0 8e 21 af bd 98 01 7b be f6 37 4d 3e 58 09 52 be
       -0.08551322 -0.24512327 0.20040879 -0.20511377
0001b0 e4 e3 7e bd 10 c5 ac bd d6 e0 4f 3e 7e 5b 8a be
       -0.062229052 -0.08436024 0.20300612 -0.27022928
0001c0 ac d0 2e be 85 7a 9a be 24 39 58 3e 68 ed a6 3c
       -0.1707179 -0.301716 0.21115547 0.020376876
0001d0 82 d1 9c bd 94 60 23 bc ab 79 a6 3e 33 ff f0 bd
       -0.07657148 -0.0099717565 0.325147 -0.117674254
0001e0 38 2a 44 bc 64 f5 f0 bb e0 1f 13 3e b8 00 0a bd
       -0.011972956 -0.0073534716 0.14367628 -0.03369209
0001f0 10 e7 8f 3d 75 ca 03 3e 95 48 7b be 7d fa 68 3e
       0.070264935 0.128702 -0.24539407 0.22751804
000200 b6 7f fd bd d0 d0 ca 3c df eb a4 3b 5d 38 46 be
       -0.123778746 0.024757773 0.005033001 -0.19357438
000210 f7 ab a8 3d 57 e6 9b 3c 8f d7 6a be 6d 9e 5a 3c
       0.08235925 0.019030733 -0.22933792 0.013343436
000220 7f 6d 3a 3e 02 96 bf 3d 47 9b 81 3e 84 96 2d be
       0.18205832 0.093547836 0.2531378 -0.16951948
000230 8c 77 fe bd 41 9c 07 be d1 f9 af bd 95 16 ab bc
       -0.124251455 -0.132432 -0.085925706 -0.020884791
000240 62 18 34 3e 6c 62 3e 3e 98 56 40 3e 01 7c 3e 3d
       0.17587426 0.18592232 0.18783033 0.046504978
000250 da 79 53 3d 41 53 78 3e a5 23 d1 bd 6f 32 73 3d
       0.05162988 0.24250509 -0.10211877 0.05937427
000260 f0 54 39 3d 93 dc 7c 39 77 29 55 ba bd 98 3a be
       0.04524702 0.00024114763 -0.0008131484 -0.18222328
000270 98 b8 9e bd c4 ee 99 3c 99 bd e3 bd d1 4d 3a bd
       -0.07750052 0.01879061 -0.11120147 -0.045484368
000280 53 f6 80 bd cc a9 d2 3d 10 ab 82 be 5b e2 44 3d
       -0.062969826 0.102862924 -0.25521135 0.048067432
000290 37 28 b9 be 46 c4 ad 3d 79 d4 03 be da 6f 76 be
       -0.36163494 0.08484702 -0.1287402 -0.24066105
0002a0 84 57 c3 3d 9a ce 55 3e 81 82 ae 3d 6d a5 61 3e
       0.09538177 0.20879593 0.085209854 0.22035761
0002b0 14 4a bb bc 0e 7e 32 be 35 d0 0b 3e a3 ba 68 3e
       -0.022862472 -0.17430899 0.13653643 0.22727446
0002c0 86 10 80 3e 49 ff 01 3f f5 1e e4 3e ed 52 b5 3e
       0.25012606 0.5078016 0.44554868 0.3541483
0002d0 5e 51 bb 3e 4b 57 c5 3e 59 84 bc 3e e5 95 53 3e
       0.36585516 0.38543162 0.36819723 0.20662649
0002e0 dd 8c 6c 3e 32 3d 50 be 71 05 26 be 72 11 58 be
       0.2310061 -0.20335844 -0.16213013 -0.21100405
0002f0 bd bc 21 bd d6 f1 b0 bc 4b d6 1a 3e e6 bd 8f 3e
       -0.039486635 -0.021599691 0.15120809 0.2807457
000300 9b 9c 14 be 68 52 1b 3e 10 5e 52 3e f9 0b 7d bd
       -0.14512865 0.15168154 0.20543694 -0.061778996
000310 0c fb 4b be fa 58 0b 3e c8 5e 05 3e 5a 8f 3a 3d
       -0.19919986 0.1360816 0.13024437 0.045546867
000320 da f6 a6 3d 1b 3b ee bb e7 5e fd 3d 82 e5 19 be
       0.08152552 -0.0072702295 0.12371617 -0.15028957
000330 93 e3 82 3e 8f 3f a7 bc 07 96 e5 bc ac ee 82 3e
       0.2556425 -0.02041605 -0.02802564 0.25572717
000340 59 63 51 3e bc 51 2a bd e9 c7 51 3e d3 ac 8a be
       0.20448054 -0.041581854 0.20486416 -0.2708498
000350 c3 09 ec 3d 67 e7 0f 3e dd ea 61 be dc af c1 3d
       0.115252994 0.14053117 -0.2206225 0.09457371
000360 bc c2 5d 3d f4 85 61 be 00 d9 f1 3c 18 02 5f be
       0.05414079 -0.22023755 0.029522419 -0.21778142
000370 42 93 64 be 30 9a 1e be 20 91 fa 3d 3e e0 e2 bd
       -0.223218 -0.15488505 0.12234712 -0.11077927
000380 29 9a 90 bd 6e 76 44 bc a1 25 2e 3d ce 12 78 be
       -0.07060654 -0.011991126 0.042516354 -0.24225923
000390 84 17 33 3e e5 d5 25 3d 1d 1e 0f 3e 36 d5 4b be
       0.17489439 0.04048719 0.13976331 -0.19905552
0003a0 e3 22 f8 bd 13 49 41 3e b7 6a 2a be 94 d2 75 3d
       -0.12116029 0.18875532 -0.16642271 0.060015276
0003b0 0e ec ee 3c ef e1 48 3d ad 13 56 3d 40 f2 ee 3c
       0.029165294 0.049043592 0.052264858 0.029168248
0003c0 5a 22 a2 bd 6b 16 3b bd 58 18 05 bb 2b 04 c9 bd
       -0.07916708 -0.045675676 -0.00203087 -0.09815248
0003d0 f0 31 4c 3e 37 ba bc 3d 67 08 e1 bd 53 c8 b5 3d
       0.19940925 0.09215205 -0.10987931 0.088760994
0003e0 9f 6b 27 be 2c 9f 87 3c d0 76 82 3e 71 a3 65 be
       -0.16349648 0.016555391 0.25481272 -0.22425629
0003f0 5c ba 36 be 05 41 87 bb c9 eb 75 3d 4f 5a 24 3e
       -0.17844528 -0.004127624 0.060039315 0.16050075

fc1.bias f4 [16]
000000 1d 4b 4d 3e 79 1b 4b 3e 20 61 4e 3c f2 2d b0 bd
       0.20048185 0.19834699 0.012596399 -0.086025134
000010 3e 69 69 be e8 08 04 be 47 90 3d 3e 74 b6 f9 3d
       -0.22794053 -0.12894022 0.18512069 0.12193003
000020 33 f2 23 be c5 e8 e6 bd 65 58 64 3e 3e a2 84 3d
       -0.1601036 -0.11274866 0.22299345 0.06476258
000030 e4 35 ab 3e 5b 20 0d 3e c2 b1 97 3d 3e fb 26 3e
       0.33439553 0.13781874 0.074069515 0.16306779

fc2.weight f4 [12, 16]
000000 f7 a0 7a be a3 bf 53 be fc 70 39 3e b6 eb 4a be
       -0.24475466 -0.20678572 0.18109506 -0.19816479
000010 b0 67 10 3e 33 f0 80 be 7e a0 3b 3e 08 b9 4b 3c
       0.14102054 -0.25183257 0.18322942 0.012434252
000020 26 90 b8 3d 10 c7 48 3d b2 ca f5 bd 50 a8 2d 3e
       0.09011869 0.049017966 -0.12001552 0.16958737
000030 ea 5d 4c be 94 64 a5 3d 4d d5 43 3e e0 47 7e be
       -0.199577 0.080758244 0.19124337 -0.24832106
000040 e3 d5 1a be db 45 b2 3d b9 94 a2 3e 70 c7 86 be
       -0.15120654 0.0870473 0.3175409 -0.26324034
000050 20 41 c5 bc 02 73 84 3e f0 d9 50 be 3b 9d 95 3d
       -0.024078906 0.25868994 -0.20395637 0.0730538
000060 ac 8c 2a be 6e c2 0c 3d 97 33 d4 bc 8f 15 52 be
       -0.16655225 0.03436511 -0.025903506 -0.20516036
000070 b5 0e d4 3d bf 57 a2 bc b7 de fe 3d 67 fb 3e 3e
       0.10354368 -0.019817231 0.12444823 0.1865059
000080 b0 c2 91 be 11 b8 1b bd fd b1 95 bc 5a ab 22 3e
       -0.28468847 -0.038017336 -0.018273348 0.15885678
000090 cc a5 c1 3d c7 a3 75 be f8 7d 57 bd 91 83 b7 bd
       0.09455451 -0.23988257 -0.052610368 -0.08960641
0000a0 07 0f 92 3d 10 ad e1 bd 73 58 2c 3e 37 1f 3c 3c
       0.071317725 -0.11019337 0.16830616 0.011482052
0000b0 8d 90 ff 3d ec 8c ef 3d c1 e1 5d be 45 32 a1 bd
       0.12478743 0.116968006 -0.2166815 -0.07870916
0000c0 51 93 0a be 55 0a 3d 3d be 91 5b be 24 05 28 bd
       -0.13532759 0.04615243 -0.21442315 -0.041020527
0000d0 b4 33 74 bd 1e 83 1a 3e b0 3a 7d 3d 31 94 80 3d
       -0.05961962 0.1508908 0.061823547 0.06278265
0000e0 60 7c 1d 3e 68 3e 41 3e 60 a5 26 be 90 3a 9b 3d
       0.15379477 0.18871462 -0.16274023 0.07579529
0000f0 d3 f4 4f 3e e5 3c f7 bd 9b cd 3d be e5 7b 8f be
       0.20308237 -0.120721616 -0.18535464 -0.28024212
000100 03 de 44 3d ab 79 6f 3e 70 43 c4 3d ac 62 61 3d
       0.04806329 0.23386256 0.09583175 0.05502574
000110 5c b0 e0 bc aa ce b1 bd a3 74 89 be 6e 72 2e 3e
       -0.027427845 -0.08681996 -0.268468 0.17035839
000120 d0 42 bb bd b4 09 b1 bd 73 83 93 3d ba 0a ea be
       -0.09143603 -0.08644429 0.07202806 -0.4571131
000130 07 ba f6 bc 88 ff d2 3d c7 e6 dc 3d a5 00 b8 3e
       -0.030118002 0.10302645 0.10786205 0.35937992
000140 3c 78 86 3b 35 af 1b 3d ec 17 02 3e cc 54 b3 bd
       0.0041036885 0.038008887 0.12704438 -0.08756408
000150 a7 9d 54 be 1a 76 f2 bd ca c9 6a 3e 9a 8c 2b 3e
       -0.20763265 -0.11838932 0.22928539 0.16752854
000160 4b 6d ad 3d ea 54 f9 bd 5f 65 91 3e ef 19 16 bf
       0.084681116 -0.12174399 0.28397653 -0.5863332
000170 26 99 d1 3d de bf 39 be 06 aa 52 3e d7 07 b9 3d
       0.10234289 -0.18139598 0.20572671 0.090346985
000180 18 52 1f be a4 34 5f be d8 96 1b bd 68 dc 73 3e
       -0.1555866 -0.21797425 -0.037985653 0.23814547
000190 60 f0 9d bc c0 80 a9 3c 88 64 e6 bd f0 43 82 3d
       -0.019279659 0.020691276 -0.112496436 0.06360614
0001a0 50 2b da 3d 8a 1f 2a be 5e 9a 75 be c4 2c 13 be
       0.106527925 -0.16613594 -0.23984668 -0.14372545
0001b0 b0 e0 e3 bc 1c 01 6b 3e e0 63 38 be 1c 20 fc bd
       -0.0278171 0.22949642 -0.1800685 -0.12310812
0001c0 ab 48 10 3e 07 26 3a 3e 5d 80 39 3e 1b 43 19 be
       0.1409022 0.18178569 0.18115373 -0.14967005
0001d0 30 b1 a8 3d 09 9c 1f be 7c 9a 5c 3e 7d 0a 9c bd
       0.08236921 -0.15586866 0.21543306 -0.07619188
0001e0 dc 21 93 3e 99 40 a1 be 58 a6 30 3e cb ef 50 bf
       0.2873677 -0.31494597 0.17250955 -0.81615895
0001f0 36 22 48 3e fb f0 5f bd e0 bd d4 b9 f0 35 88 3d
       0.195443 -0.054673176 -0.0004057726 0.06650913
000200 59 92 b9 bd f5 1f 57 3d 62 74 d6 3d a0 6b 1c bc
       -0.09061117 0.05252071 0.10471417 -0.009547144
000210 69 e1 36 bd 54 15 f4 bd 38 fd 46 3e d5 05 84 be
       -0.04464856 -0.119181305 0.19432533 -0.257857
000220 ba 97 63 3e 6a 19 7a 3e 31 33 2b 3e d0 7a ad 3c
       0.22225848 0.24423757 0.16718747 0.021176726
000230 99 07 ce bd 30 45 94 3d 4b c9 41 3e 3c 71 8f bc
       -0.10060043 0.07239759 0.18924443 -0.017510049
000240 dd d4 fe 3d f8 24 e4 3d 14 4a e3 bc 82 67 6e 3e
       0.12442944 0.11139864 -0.027745284 0.23281673
000250 ec de ab bb 56 18 a6 be 4f 0f 67 be d2 22 f7 bd
       -0.00524508 -0.32440442 -0.22564434 -0.12067188
000260 fe 9c 0c 3e e9 21 bf bc 91 02 78 3e e2 12 0b bf
       0.13731763 -0.0233316 0.24219729 -0.5432569
000270 6a a6 e8 bd 20 42 a5 bc 4d f0 8d bd 39 eb 8c 3e
       -0.11359866 -0.020173132 -0.06930599 0.2752321
000280 8f 27 97 be 50 a1 9a bd 8b 29 1a be 08 0f 42 bd
       -0.29522368 -0.07550299 -0.1505491 -0.047377616
000290 9e bb 81 3d 0e 8c 03 be 88 1a 10 3d b8 4a e4 3b
       0.06334613 -0.12846395 0.035181552 0.006966915
0002a0 3a 42 1c 3e 42 8b bf 3d 82 18 f1 bd 0d 90 d1 bd
       0.15259638 0.09352733 -0.117722526 -0.10232554
0002b0 09 03 c7 3d 93 8d 62 3d 23 23 6d 3b 27 e4 a3 3e
       0.09717376 0.055310797 0.0036184273 0.32010004
0002c0 fb ba 1c be c1 a2 38 3e 5d 1a 9b 3d c0 73 bf bd
       -0.15305702 0.18030836 0.07573388 -0.093482494
0002d0 33 10 28 be 9b 71 7f be 38 8a e3 bd 3f fa 65 be
       -0.1641243 -0.24945681 -0.111103475 -0.22458743
0002e0 e7 97 1f 3e ba 98 07 bd 55 52 d3 3d f6 27 74 be
       0.1558529 -0.033104636 0.10318438 -0.23843369
0002f0 09 67 a4 3d 78 02 da bd a8 b1 03 be 08 c8 f9 bd
       0.08027465 -0.10645002 -0.12860739 -0.12196356

fc2.bias f4 [12]
000000 71 05 0c 3c d2 15 26 3e 26 d1 09 3e 9c 3e 7c 3c
       0.008546219 0.16219261 0.1345869 0.015395787
000010 d0 ca 00 be c0 14 7f bd d8 36 3d be c6 ac 8e 3e
       -0.12577367 -0.062275648 -0.18477952 0.2786619
000020 24 61 4a 3e a1 2f 8f be 04 00 32 3e 35 e3 a2 bd
       0.19763619 -0.27966025 0.17382818 -0.079534926

fc3.weight f4 [10, 12]
000000 83 96 df 3d 5d 7a 39 3e 17 f1 a2 3e 2f 9e 61 3d
       0.1091738 0.18113084 0.31824562 0.055082496
000010 67 09 e9 bb 9d 03 93 3e c4 d2 07 3e 06 ac fb 3d
       -0.0071117165 0.28713694 0.13263994 0.1228867
000020 8e 96 0e be c6 06 9c bc c4 bd 61 be 98 b0 f4 bd
       -0.1392462 -0.019046199 -0.22045046 -0.11947745
000030 6d 15 8c 3e c2 5d 14 be ae ba 8b bd c7 d9 f8 bd
       0.27360097 -0.14488891 -0.06822716 -0.12150913
000040 52 12 7c 3e 78 08 28 3e c8 ef 3e 3d b2 91 13 3e
       0.24616364 0.1640948 0.046615392 0.14411047
000050 91 7c a4 3e 76 09 72 be 63 3f 3c 3d c2 f7 71 3e
       0.32126287 -0.23636422 0.045958888 0.23629668
000060 6c 7f 2d be 83 84 df 3d 33 29 67 3d f7 83 9e bb
       -0.16943139 0.109139465 0.056435775 -0.004837509
000070 f2 b1 0e 3d a6 51 ac 3e 67 fd 0d be 8d 71 52 3d
       0.03483767 0.33656043 -0.13866197 0.05137782
000080 d6 a0 91 3c 7e 29 6c bc 84 91 86 be 02 cc 1e be
       0.017776888 -0.014414189 -0.26282895 -0.1550751
000090 58 4d 24 3e 65 e8 86 3e a6 c7 ed bd 9d af f2 3d
       0.1604513 0.26349178 -0.116103455 0.11849902
0000a0 58 31 86 bd d4 78 b8 3e cf b4 7d be d1 78 d6 3d
       -0.0655238 0.36029685 -0.24776004 0.10472263
0000b0 1a d1 22 3b c3 89 56 3d 34 9f 2b 3c 24 46 a1 bd
       0.0024843873 0.052377474 0.010474969 -0.078747064
0000c0 24 e1 7c 3e 69 69 6b 3e 6f e6 99 3e 8b fb b1 3d
       0.2469526 0.2298943 0.3005862 0.08690556
0000d0 19 04 86 3e 9c 49 24 bd da 85 f6 bd df 22 29 3e
       0.26175 -0.040109262 -0.12037249 0.16517209
0000e0 9c e4 af bc e8 8c b0 3c f1 0a 7f be 71 10 80 ba
       -0.021471314 0.021551564 -0.24906518 -0.0009770525
0000f0 54 fe 6d be b1 61 9f 3e 6a 85 3d 3d 6a c9 e0 3d
       -0.2324155 0.3112922 0.04626981 0.10975917
000100 95 04 a9 bc 7d 04 6c 3d 7b 37 81 be f3 cb 45 3e
       -0.020632068 0.057621468 -0.2523764 0.19316082
000110 a2 d4 93 bd e0 af 17 3e f1 57 c1 bd 87 93 2b bd
       -0.07218291 0.14813185 -0.094406016 -0.04188874
000120 b2 a2 70 be 5d 3d 89 bd 3c 3b 18 3e a7 c4 c3 bd
       -0.23499563 -0.06701157 0.14866346 -0.09558993
000130 fb bc b1 3e f0 6f 37 3e 7a 97 85 be 3d 31 34 3d
       0.34714493 0.17913795 -0.2609213 0.04399227
000140 98 b5 4f 3e e0 c3 02 be e7 9a 1c 3e 68 ad a8 bd
       0.20284116 -0.12770033 0.15293466 -0.082361996
000150 91 88 85 bd 7c 9c 0a be 73 04 32 3d 7a 67 ee bd
       -0.065201886 -0.13536257 0.043461274 -0.1164083
000160 df 4d 13 3e d0 a4 28 bd a8 db 4d 3e e7 8b b6 3e
       0.14385174 -0.041172802 0.20103323 0.35653612
000170 a8 a8 6f be 0e 94 60 be 13 98 cf 3d c1 8c c1 3d
       -0.23404181 -0.21931478 0.10136428 0.09450675
000180 16 1e 84 be df 0c 3e 3e 2c 8e 40 3d cc 67 59 3d
       -0.25804204 0.18559597 0.047010586 0.053077504
000190 ee ff da 3d 4d 03 ee 3c 54 bd 89 3d 04 5f 94 3e
       0.10693346 0.029054308 0.067255646 0.2897874
0001a0 7f 00 63 3e 88 12 3e be 7d be 04 be 51 13 97 3e
       0.22168158 -0.18561757 -0.1296329 0.29506925
0001b0 ec 40 0a 3e ea 6b d4 bc 7a e0 75 3e e0 2c e0 bd
       0.13501328 -0.025930364 0.24011412 -0.10946059
0001c0 df a2 9b 3e b2 d5 92 3e c4 ae 33 be 3d b3 a5 bc
       0.30397698 0.28678662 -0.17547137 -0.020227069
0001d0 30 cb fc 3d 21 6c 3f be 39 64 72 bc 26 2c 98 be
       0.123434424 -0.18693592 -0.014794403 -0.29721183

fc3.bias f4 [10]
000000 72 d5 4f bd e1 f1 1e 3e 64 ec c0 3c 40 0d d3 bd
       -0.050740667 0.15521957 0.02355022 -0.103052616
000010 f1 41 a2 bd 88 9d dc bd 78 6c 00 3e 56 08 1d 3e
       -0.079227336 -0.10772234 0.12541378 0.15335211
000020 e0 95 4b bd bd 92 0a 3e
       -0.04970348 0.13532539
