Players/0.1_100_1_True.pth (torch, 5006 bytes, 6 tensors)

fc1.weight f4 [16, 16]
000000 cd 00 d2 bd 2f 9e 86 3e 0f 0b 11 bc 05 ce b0 bd
       -0.10254059 0.2629256 -0.008852734 -0.08633045
000010 3a 9c a1 be 6f 5b 39 be 00 a4 d0 3d 37 cb 26 be
       -0.31564504 -0.18101285 0.101875305 -0.16288458
000020 63 a9 28 3e 6b cb 14 be 95 33 c9 bc 6b 72 02 3e
       0.16470866 -0.14530723 -0.024560729 0.1273896
000030 78 c5 17 be 8a 84 34 be c3 1c d4 bc d8 82 3c 3e
       -0.14821422 -0.17628685 -0.02589262 0.18409288
000040 4d 65 70 bd a0 c6 22 be ab 13 63 bc 8a fa 27 3d
       -0.058690358 -0.15896082 -0.01385967 0.041010417
000050 9c fb 81 3e 3e 38 68 be 8b a7 94 be 08 81 40 3e
       0.25387275 -0.22677705 -0.29034075 0.18799222
000060 59 4f f8 bd 8b c1 c4 bd 91 13 84 bd af 26 3a 3e
       -0.12124509 -0.09607228 -0.064490445 0.18178819
000070 34 b6 a5 3d 58 24 c2 3d ee c2 bc 3d 85 cb 1d 3d
       0.08091393 0.09479588 0.092168674 0.03852417
000080 30 cf 19 bd f3 3b 87 be 09 6e 96 be 74 a2 c4 be
       -0.037551105 -0.26412925 -0.29380825 -0.38405192
000090 92 16 c4 bd 8f b0 8e be 52 a4 1a be f8 aa 49 be
       -0.095746174 -0.2786908 -0.15101746 -0.19694126
0000a0 3f 3f 18 be ae 9e da 3d 64 3a f8 3d fb e7 05 3e
       -0.14867876 0.10674797 0.12120512 0.13076775
0000b0 9e 79 bf bd 3a 28 ec 3d 2c 04 25 be 59 0c 73 3e
       -0.093493685 0.1153111 -0.16114873 0.23735179
0000c0 da 39 b3 3e cd 2c b9 3e 55 ff a1 3e fb 16 b2 3e
       0.35005075 0.36166993 0.31640115 0.34783158
0000d0 c6 59 d9 3e 6f c0 49 3e fa a6 ad 3e 4e 11 9e 3e
       0.42451304 0.19702314 0.33916456 0.30872577
0000e0 1d b5 99 3e 78 ac ed bd 1b d0 25 be 1a 38 30 be
       0.3002099 -0.116051614 -0.16192667 -0.17208901
0000f0 34 0f 91 bd 29 b4 1d 3d b8 21 36 3e 81 27 9c 3a
       -0.07082978 0.038501892 0.177863 0.0011913629
000100 21 5c 2b 3d 33 a7 85 be d4 1a 85 bd 65 be 6d 3d
       0.041835908 -0.26104125 -0.06499258 0.058042902
000110 16 42 08 be 08 2c 92 be 7b f3 db bd b1 df 91 bd
       -0.1330646 -0.28549218 -0.107397996 -0.07122744
000120 62 97 01 bd 0e 42 cf bd 27 6a 46 3e e9 b7 0c be
       -0.03163851 -0.10120021 0.19376431 -0.13742031
000130 9d e2 d6 3d b6 2f c0 bd f1 7a 3b be 26 3e 98 3e
       0.10492442 -0.093841 -0.18308617 0.29734915
000140 fd f2 65 bd 2c b3 90 3e 10 33 3d 3d 55 01 d7 3d
       -0.056139935 0.28261697 0.046191275 0.10498301
000150 18 f8 27 3e 57 27 88 3e f2 7d ca 3c 2a 41 0e 3e
       0.16403234 0.26592514 0.024718259 0.13892046
000160 84 75 9e bd 0a d5 03 3e e3 da 8f 3d bd 33 39 3b
       -0.07737258 0.12874237 0.07024171 0.0028259598
000170 b0 1b 2d 3d cd 53 4a be fc f6 70 3e 6a e5 13 3d
       0.042262733 -0.1975853 0.23531717 0.03610746
000180 c2 7a ab 3e 63 f9 fb 3d 10 bb f8 3c 0e 84 74 3e
       0.33492094 0.12303426 0.030362636 0.238785
000190 f1 b6 e3 3d 39 a9 15 be 2e da 4e bd 20 b4 5d 3e
       0.11118878 -0.14615335 -0.05050104 0.21650743
0001a0 a6 3d 78 3e cd ee 27 bd 8d 59 4a bd 32 12 e2 3d
       0.24242267 -0.040999223 -0.04940181 0.11038627
0001b0 6f fe 15 be 88 2c 71 3e 94 aa 5f be bd 2a 17 be
       -0.1464784 0.23552144 -0.21842414 -0.14762397
0001c0 8d bf 0b be 5a cf 61 bd a5 b1 40 3e 33 50 9f bd
       -0.1364729 -0.055129386 0.18817766 -0.07778969
0001d0 99 37 3a 3d 9e 45 05 3d 11 0a 4e 3e e6 f8 a2 3c
       0.04546318 0.032537095 0.20121028 0.019894075
0001e0 d2 a3 8c 3e 5f 17 2e be ce e0 80 3e 17 8b 87 bd
       0.27468735 -0.17001103 0.25171512 -0.06618326
0001f0 ec f8 64 bc 1f 57 b1 3d 1a b1 93 3c 0d e0 52 be
       -0.013975363 0.08659195 0.018028785 -0.20593281
000200 1e 80 85 be b8 82 98 be d3 54 8e be 9c dc a4 be
       -0.26074308 -0.2978723 -0.2779909 -0.32199562
000210 9e 6d 7d be 62 54 6b be 8d 73 bb bc 53 b9 47 3d
       -0.24748847 -0.22981408 -0.022882247 0.048760723
000220 68 9e 3a ba 90 79 3a 3e 26 8d 0f 3e b6 bd 77 3e
       -0.0007118941 0.18210435 0.14018688 0.24193463
000230 6e 98 0a be 43 b9 80 bd a7 36 6b 3e ad 62 2e bd
       -0.1353471 -0.06285336 0.22970067 -0.042574573
000240 5c ff 6a be 2e 09 2c 3b 0d 3b c3 3d 03 07 51 3d
       -0.22948974 0.0026250589 0.095327474 0.051032078
000250 1e 9d 1f bd 65 bb b4 3d 5a 12 3b 3e 03 b2 22 bd
       -0.038968198 0.08824805 0.1826872 -0.039720546
000260 3b a9 ce bd 2e 28 7c 3e e5 28 3e 3e de be a5 3c
       -0.10090872 0.24624702 0.18570288 0.020232614
000270 80 2f 13 bd 7f 88 60 3d 5b 72 97 3d 4a 43 28 3e
       -0.03593397 0.054817673 0.073948584 0.16431919
000280 9b 85 2b 3b 62 0c 26 be e6 03 51 bd b3 0b 95 be
       0.0026172164 -0.16215661 -0.05102911 -0.29110488
000290 2b c0 20 bb a0 d0 62 be cd 97 00 3d 67 50 67 be
       -0.0024528604 -0.22149897 0.03139477 -0.22589265
0002a0 4b df 36 be 9a 32 3d 3e 2b 90 2b 3e 3a 1d 73 3d
       -0.17858617 0.18476334 0.16754214 0.059354044
0002b0 d4 67 00 bd b1 b9 86 bd 90 a1 41 3d 0a 39 b8 be
       -0.03134902 -0.065783866 0.04727322 -0.35981017
0002c0 30 2a aa bd 92 f2 ca bd b2 25 f3 3b 10 23 ff 3d
       -0.08308828 -0.09909548 0.007420265 0.124578595
0002d0 c2 ea ff bd 26 b5 09 be 84 9a 80 3a 98 7e 03 be
       -0.124959484 -0.13448009 0.0009811674 -0.1284126
0002e0 da aa 54 3e 76 a3 39 be 3e 77 2b be 3a 66 2d be
       0.207683 -0.18128762 -0.16744706 -0.16933528
0002f0 4f 19 2c 3e d2 da bb bd 70 23 90 3d b9 c2 79 be
       0.1680653 -0.09172596 0.07038009 -0.24390687
000300 08 eb 29 3e 36 26 94 bc e0 9a 1c 3b c6 b5 b3 be
       0.16593564 -0.018084627 0.0023896024 -0.3509962
000310 3a 43 04 be e5 b6 3d be a1 e1 b2 3d 9e 73 a0 3d
       -0.1291627 -0.185268 0.087344415 0.07834552
000320 1a 62 1a 3d 29 4a d6 bc 87 8d 96 be 64 ca 1f 3e
       0.037691213 -0.02615841 -0.29404852 0.1560455
000330 8a ee 74 bc 61 b4 15 3e f3 4f db bd a1 af b5 bd
       -0.01494945 0.1461959 -0.107086085 -0.08871389
000340 9d fc 13 be dc 67 64 3d 5e 6b 6a 3d 42 84 8e bb
       -0.14451833 0.05576311 0.0572313 -0.0043492625
000350 47 25 8e bc 4e a7 15 3e 92 aa 10 be 20 a9 86 bd
       -0.01735176 0.14614603 -0.14127567 -0.06575227
000360 a7 39 68 3d 57 72 26 be f5 76 29 3e 9f 7e b4 3d
       0.056695607 -0.16254555 0.16549285 0.088132136
000370 c3 9c 36 be 44 66 b1 3b 49 3c 21 3e 7a 63 ea 3c
       -0.17833237 0.0054138023 0.15745653 0.028611887
000380 83 c4 f0 bd 00 b7 4f bd 1b 4a 8f 3d 02 8b 1f be
       -0.11756232 -0.05071163 0.06996556 -0.15580371
000390 c7 08 96 bc 99 93 3a 3d 83 d8 4c bb eb ff 2f be
       -0.018314732 0.045550916 -0.003125698 -0.17187469
0003a0 20 75 2c bc e5 25 5c 3c 28 73 36 be 22 f0 18 3e
       -0.010525972 0.013436769 -0.17817366 0.14935353
0003b0 59 17 34 3e 1d e5 51 3d 35 9e c3 3d eb 98 c3 3c
       0.17587031 0.05124389 0.0955166 0.023876628
0003c0 f9 4b 1a be 6e 61 6b 3c 7b f3 07 be 55 80 0b be
       -0.15068044 0.014366491 -0.13276474 -0.13623174
0003d0 8a f1 24 3c 01 2d f7 bd 3b 09 29 be cf a8 d9 bc
       0.010067353 -0.12069131 -0.16507427 -0.026569752
0003e0 15 9a 8f 3e dc c1 b7 3c f2 41 21 bd 79 82 e7 bd
       0.28047243 0.022431307 -0.03936953 -0.113041826
0003f0 ee 15 6f bc 88 3e 3d bd 28 9c 06 3e f3 ab 70 3e
       -0.014592631 -0.046202213 0.13145506 0.23503093

fc1.bias f4 [16]
000000 5c aa 99 bb c9 cc e7 bd 75 2c 68 3e f5 32 37 be
       -0.004689498 -0.113183565 0.22673209 -0.17890532
000010 ff 7e 4d 3e ee 82 6a 3e a0 14 87 be df c5 1e 3e
       0.20067976 0.22901508 -0.26382923 0.1550517
000020 07 08 4c be 77 59 fa 3d 7f e2 c4 bc 61 5f 0f bd
       -0.19924937 0.12224095 -0.024033783 -0.03500307
000030 69 7c 4e 3d 25 7f 15 3e 5e 13 86 3e a7 54 5b 3e
       0.050411616 0.14599283 0.2618665 0.21419011

fc2.weight f4 [12, 16]
000000 d5 f7 4d 3e e7 25 50 3e d9 a1 0a be 84 12 76 bc
       0.20114072 0.20326959 -0.13538302 -0.015019063
000010 24 e9 86 3d 24 db 34 3e 56 16 88 bd cb 99 0c 3e
       0.06587437 0.1766172 -0.06644885 0.13730542
000020 05 65 2a 3e 85 2c 31 be 06 85 7a 3e 11 40 01 3e
       0.16640098 -0.17302139 0.24464807 0.12622096
000030 90 d8 fa 3d b8 dc 65 3e f3 28 58 be 63 0f 1e be
       0.12248337 0.22447479 -0.21109371 -0.15435557
000040 b9 4f 6f 3e a6 32 7c be 0c c3 59 be 1f 79 8e be
       0.23370256 -0.24628696 -0.2126581 -0.27826783
000050 4e eb 8b 3e 97 ea 3b be 0c a0 3e be b3 bc 38 3e
       0.2732796 -0.18351208 -0.1861574 0.18040733
000060 06 ba 98 be 97 49 aa 3d 98 3c fa bd 35 ef 1d 3e
       -0.29829425 0.083148174 -0.122185886 0.15423281
000070 cd 60 80 be b8 11 5c bb 8f d1 42 be 00 0e a1 bd
       -0.25073853 -0.0033579897 -0.19025253 -0.078639984
000080 b3 e7 9e be f2 2e 83 bc 42 ae 38 be d2 d9 27 be
       -0.31036147 -0.016013596 -0.18035224 -0.16391686
000090 5f 5e 95 bd 6b 01 54 be 56 6e 0f bd 35 cf 8b bd
       -0.072933905 -0.20703666 -0.035017334 -0.06826631
0000a0 af d1 09 3e e5 a9 f5 3d b6 ec fb bd fc 3b b4 3b
       0.13458894 0.119952954 -0.123010084 0.0055003148
0000b0 60 37 57 bd 27 d2 e4 bc 88 27 a7 3e 37 5f 96 3e
       -0.052543044 -0.02793224 0.32647347 0.29369518
0000c0 f7 f0 f3 bd 1f 0f b3 3d 6b 9c 2e 3e 6e e0 30 bf
       -0.11911195 0.087431185 0.17051856 -0.6909245
0000d0 0e c6 87 3e 73 33 8e bd 28 3d 55 bd a5 23 4e be
       0.2651829 -0.06943407 -0.052060276 -0.20130785
0000e0 6c 35 cf 3c 82 26 5e 3e 7e b4 52 be 06 80 ea 3d
       0.025294028 0.21694377 -0.20576665 0.114502
0000f0 df 6b ae 3b 5a 75 5a 3e 94 f3 20 3e 9d 31 3a 3e
       0.005322918 0.21333829 0.15717918 0.18182988
000100 25 b1 e9 3c c6 f8 33 be 34 fa cf 3d 52 7e 2f bd
       0.028526852 -0.17575368 0.10155144 -0.042845078
000110 64 78 6a 3e 73 75 5a 3e f6 d3 cf 3d 13 90 b2 b9
       0.22897488 0.21333866 0.1014785 -0.0003405815
000120 25 44 97 bc 19 a8 1f bd 2e b1 7d bc 82 ab b1 bd
       -0.018465111 -0.03897867 -0.015484137 -0.08675291
000130 54 92 7a bd f4 48 4d be d1 2f 4f 3e 27 3c 4c 3e
       -0.061174706 -0.2004736 0.20233084 0.19944821
000140 1a f9 83 3e 4d 1d 23 3c 8a 18 ff bd 9d b3 eb be
       0.25775987 0.009955716 -0.12455852 -0.46035472
000150 eb 26 20 3e 8e b3 74 bb d5 47 dd 3d af 96 27 be
       0.15639846 -0.0037338468 0.108047165 -0.16366075
000160 f4 25 06 3e 49 cf a3 3d 8d 09 09 be 87 7f 96 bd
       0.13100415 0.07998521 -0.1338255 -0.07348543
000170 3b 5a 30 3e a4 36 07 bc 3f df 42 3d f9 1e 4b 3e
       0.1722192 -0.008252773 0.047576185 0.19836034
000180 d7 06 10 3e 78 72 d7 3d 6d ed 13 3e 34 90 8c bd
       0.14065109 0.1051988 0.1444604 -0.06863442
000190 89 3b 9e 3d 45 1e 4b be 0c d4 68 be 64 92 9d 3d
       0.07726199 -0.19835766 -0.2273714 0.076939374
0001a0 d6 5a e7 3d 16 96 fa 3d f7 26 45 be f6 e3 2d 3e
       0.112966225 0.12235658 -0.19253145 0.16981491
0001b0 db cf cc 3d 05 20 5e 3d 60 4a 2f 3e 59 3d 00 be
       0.10000583 0.054229755 0.17118216 -0.12523402
0001c0 36 41 f5 3d 1f c6 a6 3d d7 26 b3 bc 6c 30 0b bf
       0.119753286 0.08143257 -0.021869106 -0.5437076
0001d0 b1 b2 46 3e 36 93 3d 3e 15 2e 12 3c 96 b0 bf 3d
       0.19404103 0.18513188 0.00892212 0.09359853
0001e0 d2 26 46 bc be df 04 bc 6e d3 97 be 64 cf 1a 3e
       -0.012094216 -0.008109985 -0.29653496 0.15118176
0001f0 d1 67 12 3e 13 c7 10 3d 8a 51 d2 3c 7e c9 2f bd
       0.14297415 0.035346102 0.025673646 -0.042916767
000200 12 33 d6 3d 7e 50 a8 3d 2c 3b 78 3e 80 ff f6 be
       0.1045896 0.08218478 0.24241322 -0.48241806
000210 92 bc de bc 03 81 35 3c 26 3d 4c be 90 8d 79 be
       -0.027189527 0.011078122 -0.19945201 -0.24370408
000220 07 e0 87 3d 60 4b 14 3e 61 cd f4 bd 90 9c 20 bc
       0.06634527 0.14481878 -0.119532354 -0.009802952
000230 db b2 25 3e 83 f0 4c 3e 7d ce e5 3b 32 4c 8a 3d
       0.16181509 0.20013623 0.0070131407 0.06752814
000240 a0 8f ef bd 2a c0 ee bd 93 85 c7 be 55 91 d8 3c
       -0.11697316 -0.11657746 -0.38969097 0.026436487
000250 c1 d4 53 bd ab 59 58 3e 64 bf 1e 3e a6 f8 4d 3e
       -0.05171657 0.21127956 0.15502697 0.20114383
000260 b7 2c ae bd a3 22 ed bb fd 22 d0 3a 82 4a 6c 3e
       -0.085046224 -0.007236795 0.0015879568 0.23075297
000270 99 0e 53 3e 54 67 8b be 3c f6 90 bd 16 af df bd
       0.20611037 -0.2722727 -0.070782155 -0.10922067
000280 73 6d 74 3e 92 63 97 be 96 1c 08 3e 1a cd f6 bd
       0.23869877 -0.29568154 0.13292155 -0.12050839
000290 6c 60 4b be b5 27 3b be 09 da 50 3e c3 93 37 be
       -0.19861001 -0.18276866 0.20395674 -0.1792746
0002a0 6c c4 89 be 4d ef 90 3c 56 a7 2d 3d 80 0b 0a be
       -0.2690767 0.017692233 0.042395912 -0.1348095
0002b0 04 c8 6b 3d 4c ac dc bc 21 86 8e 3d b0 7c e7 bd
       0.057563797 -0.026937626 0.06959177 -0.11303079
0002c0 51 d7 8e be 85 bd 64 be 95 de 21 3e 61 22 9c be
       -0.27898648 -0.22337921 0.15807565 -0.3049498
0002d0 74 53 82 bd e3 c5 64 3e 35 51 b4 3c ea 5a 7b be
       -0.06363574 0.22341113 0.022011379 -0.245464
0002e0 a5 ce 87 bd ef 34 df bd 3e 70 95 3e 90 a7 fa 3c
       -0.06631211 -0.10898768 0.29187196 0.030597478
0002f0 d9 e3 f3 bc a1 82 89 bc e4 df 4b be 14 d3 af bd
       -0.029771732 -0.016785922 -0.19909626 -0.08585182

fc2.bias f4 [12]
000000 ef 03 9c be 96 fe c6 3d 8c 69 12 bd 66 cd 8b 3e
       -0.3047175 0.09716527 -0.03574519 0.27305144
000010 70 94 98 bc 66 3b 33 3e a2 f4 4f 39 96 c8 61 3d
       -0.018625468 0.17503127 0.00019832191 0.055122934
000020 1b 53 b2 3e 19 d1 eb 3d 8f 74 45 be 79 9a 42 be
       0.3482903 0.115144916 -0.19282745 -0.19004239

fc3.weight f4 [10, 12]
000000 8a 61 dc bc 4b de a2 3b 83 5c b9 3d ed 1b 46 3e
       -0.026901979 0.004970347 0.09050848 0.1934659
000010 13 ee b3 bd 4e d4 02 3e b6 6c 84 3c 85 76 97 3e
       -0.087856434 0.127763 0.016165119 0.2958261
000020 a2 1f 6d 3e df 84 0a be 49 2e 16 bd a4 30 ce 3b
       0.23156598 -0.13527249 -0.036665235 0.0062924195
000030 fd a5 5b be c3 53 21 bd b5 93 19 be e7 b1 c9 3d
       -0.21450038 -0.039386522 -0.14997752 0.09848385
000040 a1 da d9 3d ba 44 19 3e 64 e4 52 3e d3 af 10 bd
       0.10637403 0.14967623 0.20594937 -0.03532393
000050 af fb 92 3e 91 9c 83 bd 5d 0d 10 be a2 09 1d 3d
       0.28707644 -0.06426347 -0.14067598 0.038339265
000060 a6 b2 9c bd 39 af b5 3e 27 29 19 3e 0c 91 8e 3e
       -0.07651262 0.35485247 0.14957105 0.27845037
000070 7a 32 4e bb 4d a2 d8 bb 06 14 52 bd 75 7b fb 3d
       -0.0031463192 -0.0066111446 -0.051288627 0.12279407
000080 8e eb 7e 3e a6 86 09 be 3a fe 2b 3e 20 2b f8 bd
       0.24894544 -0.1343027 0.16796198 -0.121176004
000090 ba 4c 8b 3e d9 14 d0 bd 78 fc 76 3e 5f a9 48 3d
       0.27206975 -0.101602264 0.24119747 0.04898965
0000a0 1c a1 40 3e 35 90 3f 3e 9d 52 f6 bd 35 89 8d 3e
       0.18811458 0.18707354 -0.12027476 0.27643743
0000b0 4d 0f 86 3e 6c bc 9b be 0e d4 12 3e fd 95 9a be
       0.2618355 -0.30417192 0.14338705 -0.30192557
0000c0 ea ba 16 3c ea a3 92 3e 86 28 07 be 32 b1 91 3e
       0.009199837 0.28640682 -0.13199052 0.28455502
0000d0 ab 7e d8 bd 03 00 0b be ff f8 6e bd 02 c0 35 3d
       -0.10571035 -0.13574223 -0.05834293 0.044372566
0000e0 47 6f 7b 3e 91 c2 c7 be 81 23 56 3e 46 96 88 be
       0.24554168 -0.3901563 0.20911981 -0.2667715
0000f0 ab a3 97 be 29 12 50 3d 1b db e7 3d 70 f7 81 3d
       -0.29617056 0.05079857 0.11321088 0.06346023
000100 8e e8 65 3e f6 db 61 3e 68 18 53 3e 83 22 3c 3e
       0.22451994 0.22056565 0.20614779 0.1837254
000110 4f 87 74 3e 85 73 bf 3d d1 d5 47 be e3 0a 84 3e
       0.23879741 0.093482055 -0.19515158 0.25789556
000120 75 05 80 be a4 d7 81 bd ef 65 75 bd f0 a8 a1 3e
       -0.25004163 -0.06339958 -0.059911665 0.31574202
000130 38 5d 2d 3e 86 49 f0 bc b2 86 d0 3d e8 11 ac 3c
       0.16930091 -0.029331934 0.10181941 0.021004632
000140 39 c4 1b 3e 9d 27 44 be bf ca 88 be e6 b7 16 3e
       0.15211572 -0.19155736 -0.26717183 0.14718589
000150 2d 76 df bb b3 68 14 bd e5 ca 7c be 13 e3 83 3e
       -0.0068195076 -0.03623266 -0.24686773 0.2575918
000160 24 8a 30 3e a8 d8 bc 3c f4 61 4b 3e 16 36 86 3e
       0.17240196 0.023052529 0.19861585 0.2621314
000170 f9 0d 37 3e 89 e5 e2 bc de 2f b0 3e 69 1f c5 bc
       0.17876424 -0.027697342 0.3441152 -0.02406283
000180 82 23 f1 3d 6c 91 a8 3d 1e 16 d6 3c d6 ff 8e 3e
       0.11774351 0.08230862 0.026133593 0.27929562
000190 00 8d 76 bc 5c c0 b1 3e 4b 50 3a 3e 35 6e 01 3c
       -0.015048265 0.3471707 0.18194692 0.007899811
0001a0 c9 d1 c5 bc 78 c1 7a be 93 78 25 bd 4b 89 e3 3d
       -0.024147885 -0.24487865 -0.04039819 0.11110171
0001b0 45 fd c9 bb a8 46 1e be 1d e4 3c 3e fc da 2d 3e
       -0.0061642253 -0.1545664 0.18446393 0.16978067
0001c0 a6 9c 48 3e e5 3f 67 3d 28 1c 9f 3c 2b e1 96 3e
       0.19591007 0.05645742 0.019422606 0.29468665
0001d0 13 a9 08 3e 98 52 7b be 4e 9e 07 3e 99 1f e8 bd
       0.13345747 -0.24543226 0.13243982 -0.11334152

fc3.bias f4 [10]
000000 66 9a 19 3e a0 03 24 3d 6f be f3 3d 52 e2 36 3e
       0.15000305 0.04004252 0.11901557 0.17859772
000010 c5 b9 b4 3e 45 97 ec bd 32 e2 ce 3d 2e 2e 7d bc
       0.3529798 -0.1155229 0.10101737 -0.015452905
000020 82 cc 54 3e 69 b2 07 3e
       0.20781139 0.13251652
