Players/0.5_100_1_True.pth (torch, 5006 bytes, 6 tensors)

fc1.weight f4 [16, 16]
0.13568106 -0.06612184 0.22670107 0.0086419815 -0.048377335 -0.27503914 0.027145434 0.16918057
-0.092542775 -0.17118646 -0.00885401 -0.23176493 0.07191295 0.19886237 0.16819908 0.033113353
0.14679551 -0.24655408 -0.17087469 -0.09864655 -0.0063432753 -0.12222621 0.015332937 -0.23162869
-0.003243059 0.14241692 -0.010590404 -0.22208792 -0.12336752 0.16412511 0.054857552 -0.23541081
0.08841584 0.203069 -0.0074712397 0.10521954 -0.019626187 0.14722098 0.039427575 0.12452077
0.23906352 0.09173494 -0.16038328 0.1558005 0.09908098 -0.15131652 0.23379868 -0.10116428
-0.14511737 -0.02151237 -0.039118927 0.053717084 -0.1459053 -0.09159164 0.20359387 -0.028773403
-0.1944617 -0.20049483 -0.2254106 -0.009000799 -0.13063855 -0.07090363 0.041019846 0.19187516
-0.24435286 -0.2231627 -0.050174993 -0.001996104 -0.19485523 0.08145582 -0.13900365 0.15803677
-0.2467342 0.06951601 -0.15354638 0.22992744 0.08521894 0.05879531 0.08580447 0.11149124
0.2233502 -0.20574358 0.13539341 0.06634277 0.02415666 0.2460188 -0.1798783 -0.17958638
-0.0739997 0.15488648 -0.2099897 -0.14878124 -0.17788011 -0.0072413087 0.037828237 -0.21147755
-0.11930254 -0.11993906 -0.094595045 0.1746408 -0.24796653 -0.018893749 -0.039913893 -0.2333889
-0.094279945 -0.13124463 -0.20502934 -0.20053968 0.06262475 -0.22370401 -0.21047932 0.23891935
-0.20669477 -0.1901819 -0.30528882 -0.04370685 -0.29849514 -0.27329952 -0.28441927 0.14601462
-0.003911513 0.004126074 0.27641788 0.05063956 0.12673502 -0.10167942 0.11074465 0.32791433
-0.14021619 -0.034056526 -0.26998356 -0.39103544 -0.39217976 -0.08969771 -0.011206119 -0.20232143
-0.15384293 0.2242867 0.13019373 0.013831395 0.18455066 -0.13499677 -0.32005373 0.09839924
-0.18470605 -0.08651719 -0.14730588 0.04187382 0.12690797 0.15131454 -0.25785345 -0.039105773
-0.14232856 -0.12518422 -0.14184998 -0.08291383 -0.0341112 -0.23182361 -0.18091834 -0.013155277
-0.17229646 0.17062706 -0.052498527 0.21494937 0.2600589 -0.046934836 0.2247258 0.17550872
0.13007635 0.23753442 0.08145292 -0.023320956 0.10240463 0.08764781 -0.034166433 -0.12126519
-0.21822937 -0.0800579 -0.1785864 -0.11926797 -0.15285106 -0.2383318 -0.028938798 -0.08068825
-0.25513425 0.252078 0.1721517 0.12246403 -0.014579262 -0.101659134 0.1176013 0.1680284
0.2311686 0.1892308 0.1791774 -0.001353053 0.17206588 0.10412365 0.19819398 0.0054874024
0.15285504 -0.075943686 -0.14305373 -0.17736685 -0.054947264 -0.010479695 0.19102643 -0.04971858
-0.012911978 -0.015860839 -0.19999166 -0.22672448 -0.27075538 -0.025464445 0.03373749 -0.27558985
-0.19078882 0.17682265 -0.05272374 -0.049650125 0.073479354 -0.22227013 0.24776886 -0.0027145527
-0.26902103 -0.3215544 -0.00026334694 -0.19446297 -0.045108132 0.07650052 0.01603406 -0.18638362
0.067911625 0.18381186 -0.0878027 0.29858673 -0.11412389 0.047275856 0.012593177 0.22161521
-0.15021437 -0.24698676 -0.0020522324 -0.12731059 0.11279215 -0.32489035 0.09580793 0.018331558
-0.29499865 0.2054916 0.18657103 -0.10009999 0.028323522 0.19978218 0.0012217804 0.2937925
00000000: faef 0a3e e36a 87bd 5324 683e 1997 0d3c
00000010: 5027 46bd eed1 8cbe 1a60 de3c ac3d 2d3e
00000020: 1187 bdbd 814b 2fbe 6910 11bc c953 6dbe
00000030: 1947 933d 94a2 4b3e 613c 2c3e dea1 073d
00000040: 9051 163e ac78 7cbe c6f9 2ebe 3407 cabd
00000050: 40db cfbb bc51 fabd 0037 7b3c 1230 6dbe
00000060: 8089 54bb bed5 113e 6083 2dbc 046b 63be
00000070: 1ca8 fcbd 6a10 283e 50b2 603d 880f 71be
00000080: 5d13 b53d 52f1 4f3e 4dd1 f4bb 587d d73d
00000090: 19c7 a0bc 19c1 163e cf7e 213d bf04 ff3d
000000a0: 11cd 743e 87df bb3d 843b 24be 2b8a 1f3e
000000b0: f8ea ca3d b8f2 1abe ec68 6f3e 382f cfbd
000000c0: a699 14be b63a b0bc 2b3b 20bd 7206 5c3d
000000d0: 3368 15be 6694 bbbd e97a 503e 33b6 ebbc
000000e0: f820 47be 844e 4dbe 09d2 66be 1678 13bc
000000f0: 1dc6 05be ec35 91bd 6d04 283d ec7a 443e
00000100: a337 7abe c384 64be 4b84 4dbd 11d1 02bb
00000110: 2188 47be 4fd2 a63d f956 0ebe 64d4 213e
00000120: e4a7 7cbe 695e 8e3d 433b 1dbe 1972 6b3e
00000130: 4587 ae3d 5ad3 703d 41ba af3d 8555 e43d
00000140: eab5 643e 72ae 52be 92a4 0a3e b8de 873d
00000150: 30e4 c53c 5aec 7b3e 0432 38be 7ee5 37be
00000160: 288d 97bd 909a 1e3e 8a07 57be 1c5a 18be
00000170: 3426 36be 8048 edbb c8f1 1a3d 928d 58be
00000180: e454 f4bd 9ca2 f5bd 0cbb c1bd 0ad5 323e
00000190: f0ea 7dbe 10c7 9abc c07c 23bd 80fd 6ebe
000001a0: d815 c1bd fe64 06be 36f3 51be 465a 4dbe
000001b0: 6841 803d aa12 65be e487 57be 46a7 743e
000001c0: cba7 53be 0bbf 42be d14e 9cbe f405 33bd
000001d0: 5bd4 98be eaed 8bbe 679f 91be db84 153e
000001e0: 262c 80bb 0434 873b a586 8d3e 6d6b 4f3d
000001f0: d3c6 013e 4d3d d0bd 17ce e23d 63e4 a73e
00000200: d594 0fbe db7e 0bbd 493b 8abe cc35 c8be
00000210: c9cb c8be 6fb3 b7bd df99 37bc 592d 4fbe
00000220: 0089 1dbe 6aab 653e 8151 053e 139d 623c
00000230: d9fa 3c3e 983c 0abe 15de a3be 8a85 c93d
00000240: 9523 3dbe ed2f b1bd 5ad7 16be e283 2b3d
00000250: 2af4 013e 33f2 1a3e 5e05 84be 602d 20bd
00000260: 94be 11be 4b30 00be 1f41 11be bace a9bd
00000270: 30b8 0bbd 2b63 6dbe a842 39be 3b89 57bc
00000280: 7c6e 30be dcb8 2e3e b208 57bd b01b 5c3e
00000290: 7126 853e be3e 40bd 851e 663e 8fb8 333e
000002a0: bc32 053e 393c 733e cad0 a63d 970b bfbc
000002b0: 85b9 d13d b280 b33d 1af2 0bbd e259 f8bd
000002c0: 8577 5fbe 65f5 a3bd 5adf 36be c442 f4bd
000002d0: fd84 1cbe 400d 74be 0f11 edbc e23f a5bd
000002e0: f5a0 82be 5e10 813e 8948 303e 6cce fa3d
000002f0: dbdd 6ebc aa32 d0bd f3d8 f03d a30f 2c3e
00000300: 76b7 6c3e b8c5 413e 487a 373e ed58 b1ba
00000310: 0a32 303e c83e d53d 5df3 4a3e abcf b33b
00000320: 0886 1c3e 5d88 9bbd ad7c 12be a89f 35be
00000330: 6210 61bd 07b3 2bbc 6f9c 433e b6a5 4bbd
00000340: c38c 53bc 97ee 81bc 9dca 4cbe 762a 68be
00000350: 73a0 8abe d09a d0bc 5330 0a3d 1d1a 8dbe
00000360: 255e 43be ff10 353e d9f4 57bd ee5d 4bbd
00000370: 587c 963d c89a 63be 1fb7 7d3e a3e6 31bb
00000380: 20bd 89be c7a2 a4be d411 8ab9 4d21 47be
00000390: 4ec3 38bd 4eac 9c3d dc59 833c 59db 3ebe
000003a0: 4015 8b3d 2d39 3c3e e7d1 b3bd 5ce0 983e
000003b0: c9b9 e9bd 54a4 413d 9d53 4e3c 19ef 623e
000003c0: ccd1 19be 19ea 7cbe bf7e 06bb b55d 02be
000003d0: 92ff e63d 0758 a6be f336 c43d 102c 963c
000003e0: 100a 97be 646c 523e 7a0c 3f3e 3901 cdbd
000003f0: bb06 e83c b393 4c3e 2624 a03a f86b 963e

fc1.bias f4 [16]
0.16935931 0.14544502 0.07744938 0.0022141035 -0.044527147 0.17704034 -0.17963871 0.3048323
0.077563465 -0.14657138 -0.22595483 -0.01881577 -0.1189487 -0.032659706 0.27685967 -0.08176749
00000000: 876c 2d3e 8aef 143e c89d 9e3d 7e1a 113b
00000010: 1962 36bd 104a 353e 36f3 37be fb12 9c3e
00000020: 98d9 9e3d cf16 16be b460 67be 8823 9abc
00000030: 609b f3bd 2fc6 05bd 8dc0 8d3e b775 a7bd

fc2.weight f4 [12, 16]
0.19543725 0.040380806 -0.20837756 -0.0677526 0.1674109 -0.044270575 0.21702892 0.01713358
-0.037226863 0.14049819 -0.029077852 0.06989682 -0.26430863 -0.08499781 -0.25645885 0.064360835
-0.0063898265 -0.12203118 -0.025008745 0.10808453 -0.028972924 0.18510714 0.103548646 -0.111970685
-0.10056497 -0.17214522 0.10030332 -0.093397975 -0.18411425 -0.13218412 -0.17794363 -0.24141571
0.14974105 0.042484045 -0.2601976 0.20830803 -0.24416777 -0.014152944 0.022618055 0.07218715
0.13055123 -0.10939017 -0.1947022 -0.21369103 0.31425756 0.17087321 0.112795696 0.04966126
-0.11311892 0.03474146 -0.1162239 -0.22745588 0.24401334 0.18366566 -0.11634514 -0.12500489
0.13268855 0.2386465 -0.12163994 -0.1468113 -0.214365 0.09411481 -0.06511238 -0.23907262
0.13716744 0.035175085 0.09287519 0.055746414 0.019812686 -0.18962595 0.1558488 0.130925
0.086986974 0.07735966 -0.05878751 0.015159834 0.090848945 0.14333135 0.13741829 0.08740073
-0.17878863 -0.18612239 -0.2302471 -0.12870578 0.03842406 0.21342969 0.048339546 0.20430607
-0.037878454 0.08745679 -0.10121994 -0.05299408 0.01459089 -0.15052025 -0.11775621 0.015979443
-0.15663944 0.24012294 -0.24921326 -0.17238873 -0.2552336 -0.23057655 0.1307317 0.2014905
0.024425639 0.069397 -0.2019051 -0.16549121 0.1807408 -0.01792275 0.060176346 0.25256786
0.013507696 -0.16577393 0.15419191 -0.1835508 -0.011862704 -0.019117028 0.12244469 -0.051608063
-0.07887017 -0.20685129 0.10099037 0.18192795 0.06498271 0.18074642 -0.017422011 0.1520318
-0.01875708 0.04902351 -0.03975483 -0.27321106 0.1360359 -0.07881555 0.17563733 -0.05567726
-0.08650916 0.14199239 -0.24010089 0.0883392 0.04981711 0.19100319 0.09103693 -0.07268862
0.02513055 0.1862371 -0.20904112 0.039692033 0.24780816 0.24162447 -0.114242524 0.060460333
0.03528084 0.18391408 0.07530103 0.2283398 -0.13638598 -0.102943175 -0.055077944 -0.018440394
0.0047090715 0.17334992 -0.122762024 -0.11783878 0.08289473 -0.19386476 -0.166657 0.18032567
0.11031054 0.1951053 0.2019116 0.056570712 0.28003642 0.09869173 0.11019663 -0.021191886
-0.051952362 0.016682446 -0.09492631 0.16527903 0.26155812 -0.16019082 -0.1478622 0.08130695
0.34011844 -0.037453778 -0.17386127 0.06344437 0.061309244 -0.14205377 0.17763424 0.057714485
00000000: b420 483e 5866 253d ed60 55be e0c1 8abd
00000010: c36d 2b3e 1055 35bd d43c 5e3e b95b 8c3c
00000020: 327b 18bd c2de 0f3e ad34 eebc 1026 8f3d
00000030: 7653 87be 5513 aebd 934e 83be 9dcf 833d
00000040: c061 d1bb 7ceb f9bd 24df ccbc 6c5b dd3d
00000050: a058 edbc ba8c 3d3e 5011 d43d e350 e5bd
00000060: 02f5 cdbd d646 30be d46b cd3d 7047 bfbd
00000070: 7288 3cbe 465b 07be db36 36be ae35 77be
00000080: b855 193e c003 2e3d 9f38 85be b34e 553e
00000090: 1e07 7abe c0e1 67bc 8049 b93c dbd6 933d
000000a0: 39af 053e f407 e0bd 0360 47be d2d1 5abe
000000b0: 5ee6 a03e 63f9 2e3e 6e01 e73d 9b69 4b3d
000000c0: e4aa e7bd 104d 0e3d cc06 eebd 32ea 68be
000000d0: a2de 793e da12 3c3e 5c46 eebd 4801 00be
000000e0: 82df 073e c05f 743e 5c1e f9bd b455 16be
000000f0: 8082 5bbe 44bf c03d a459 85bd 74cf 74be
00000100: 9f75 0c3e c013 103d 5935 be3d 5a56 643d
00000110: 374e a23c 4e2d 42be d496 1f3e 3411 063e
00000120: 3a26 b23d be6e 9e3d 2ccb 70bd f460 783c
00000130: 030f ba3d 74c5 123e 61b7 0c3e 27ff b23d
00000140: 5e14 37be de96 3ebe e5c5 6bbe 73cb 03be
00000150: 8c62 1d3d 508d 5a3e b0ff 453d 9c35 513e
00000160: 7026 1bbd 8c1c b33d 664c cfbd 5210 59bd
00000170: a10e 6f3c fb21 1abe 2b2a f1bd 52e7 823c
00000180: 1766 20be cae2 753e c331 7fbe ac86 30be
00000190: faad 82be 421c 6cbe 88de 053e 8753 4e3e
000001a0: 4718 c83c 0420 8e3d 36c0 4ebe 8776 29be
000001b0: 1e14 393e bbd2 92bc 797b 763d 9350 813e
000001c0: 624f 5d3c a4c0 29be 7ce4 1d3e bef4 3bbe
000001d0: c95b 42bc 509b 9cbc 48c4 fa3d fa62 53bd
000001e0: af86 a1bd d3d0 53be 0ad4 ce3d 524b 3a3e
000001f0: a815 853d 9715 393e 9bb8 8ebc 39ae 1b3e
00000200: 73a8 99bc e0cc 483d f6d5 22bd 52e2 8bbe
00000210: ff4c 0b3e 0c6a a1bd 46da 333e d70d 64bd
00000220: b72b b1bd 7466 113e 02dd 75be 2feb b43d
00000230: 070d 4c3d 5796 433e 9271 ba3d c5dd 94bd
00000240: 95de cd3c f0b4 3e3e e00e 56be 1d94 223d
00000250: 6cc1 7d3e 686c 773e fcf7 e9bd 41a5 773d
00000260: a482 103d f953 3c3e 6d37 9a3d e9d1 693e
00000270: c4a8 0bbe dfd3 d2bd 6999 61bd 4f10 97bc
00000280: 8e4e 9a3b a482 313e a86a fbbd 7555 f1bd
00000290: b6c4 a93d 7c84 46be 22a8 2abe 4ba7 383e
000002a0: 7eea e13d afc9 473e eac1 4e3e b1b6 673d
000002b0: ef60 8f3e e41e ca3d c5ae e13d 9b9a adbc
000002c0: 00cc 54bd a0a9 883c ba68 c2bd e83e 293e
000002d0: f2ea 853e 1009 24be 3069 17be 4284 a63d
000002e0: 0124 ae3e 2269 19bd b008 32be 1fef 813d
000002f0: 671f 7b3d 8b76 11be c0e5 353e 0666 6c3d

fc2.bias f4 [12]
0.13726424 -0.1015941 0.051029958 -0.016737342 -0.074659705 0.12702279 0.26586393 0.21574903
0.0848255 -0.040624157 -0.084909685 -0.03374185
00000000: ff8e 0c3e 9110 d0bd ca04 513d c01c 89bc
00000010: 30e7 98bd 4312 023e 511f 883e 50ed 5c3e
00000020: feb8 ad3d 8465 26bd 21e5 adbd e534 0abd

fc3.weight f4 [10, 12]
0.33532003 0.2014024 0.088991895 0.14895156 0.29686046 0.1567392 0.17983584 0.21056204
0.30196926 0.06292084 -0.13369995 0.16481672 0.25154886 0.13259447 -0.15097237 -0.15200824
-0.12030829 -0.0630556 0.18572551 0.01090382 -0.12518829 0.2891396 0.05584422 0.21572085
-0.25322717 0.2720915 -0.06686773 -0.18700832 -0.032263063 0.27548045 0.10599219 0.23998807
-0.019290194 0.072103344 0.10578077 0.14068148 0.17096347 -0.1527274 0.074393146 -0.2654062
-0.061165124 0.32118174 0.2057107 0.32101744 -0.03708952 0.13860719 -0.030891327 0.24457876
0.0044634165 -0.1808584 -0.0608896 0.24235708 0.037962824 0.2571424 0.061135434 0.09696706
0.22440636 0.25852048 -0.00064080535 0.19428425 -0.06145926 0.1766487 -0.25991145 0.010739267
-0.15550026 0.15977441 0.27320698 0.14248438 0.2597662 0.08136579 -0.021601936 0.3466246
0.04720444 0.06914398 0.20255597 0.2645539 -0.12616359 -0.08113328 0.054593273 0.101375885
0.25931793 -0.09741258 0.25298956 0.3323798 -0.15501505 0.05506891 -0.21770056 0.25745493
0.13203181 0.22462685 0.23749436 -0.18034193 0.27519804 0.2438105 0.09433492 0.16870008
0.25348467 0.13978702 -0.03538391 0.06253478 0.29110444 0.15182835 0.002324403 -0.08010767
-0.16312173 -0.14947836 0.24196528 0.18055913 -0.14620373 -0.16580036 0.18247457 0.26435578
0.22734722 -0.06251924 0.118569456 -0.006203104 0.1038928 0.087693684 0.08607227 0.10343426
00000000: 11af ab3e 6e3c 4e3e 6241 b63d c286 183e
00000010: 18fe 973e 3e80 203e e326 383e 939d 573e
00000020: b79b 9a3e a4dc 803d a4e8 08be b7c5 283e
00000030: 03cb 803e d8c6 073e 8098 1abe 0ca8 1bbe
00000040: 3164 f6bd 4b23 81bd d42e 3e3e f0a5 323c
00000050: 5c31 00be 1b0a 943e e9bc 643d ede5 5c3e
00000060: fea6 81be 944f 8b3e f3f1 88bd 1c7f 3fbe
00000070: 4626 04bd c60b 8d3e 6f12 d93d 6fbf 753e
00000080: 7806 9ebc ebaa 933d 97a3 d83d ce0e 103e
00000090: 0c11 2f3e 9264 1cbe 6f5b 983d 52e3 87be
000000a0: 4888 7abd ef71 a43e d3a5 523e 665c a43e
000000b0: 2eeb 17bd 0bef 0d3e cf0f fdbc db72 7a3e
000000c0: da41 923b f232 39be 6067 79bd 742c 783e
000000d0: e87e 1b3d 2ba8 833e 2669 7a3d aa96 c63d
000000e0: c8ca 653e cc5c 843e b8fb 27ba 73f2 463e
000000f0: b4bc 7bbd 66e3 343e 1d13 85be c0f3 2f3c
00000100: 763b 1fbe e79b 233e c9e1 8b3e 6de7 113e
00000110: 1300 853e 1ba3 a63d 8bf6 b0bc c878 b13e
00000120: 7159 413d 5c9b 8d3d d56a 4f3e 9c73 873e
00000130: 0731 01be 3529 a6bd 329d 5f3d 299e cf3d
00000140: 52c5 843e 3f80 c7bd d987 813e af2d aa3e
00000150: 44bc 1ebe f08f 613d e5ec 5ebe 22d1 833e
00000160: 5933 073e 9504 663e b931 733e 8eab 38be
00000170: c2e6 8c3e 76a9 793e ab32 c13d b7bf 2c3e
00000180: bec8 813e 5424 0f3e b8ee 10bd 3c12 803d
00000190: a40b 953e e478 1b3e 0355 183b 7d0f a4bd
000001a0: 6209 27be db10 19be bfc5 773e 7ee4 383e
000001b0: 6eb6 15be 92c7 29be 9dda 3a3e a459 873e
000001c0: b6cd 683e 160a 80bd 8bd4 f23d 6843 cbbb
000001d0: c0c5 d43d bf98 b33d a946 b03d 57d5 d33d

fc3.bias f4 [10]
-0.047990005 0.10964882 -0.09437237 -0.08299926 0.054480743 0.066425905 -0.051927734 0.14671938
-0.021372557 0.039826974
00000000: 2b91 44bd 8f8f e03d 4d46 c1bd 84fb a9bd
00000010: 3327 5f3d 4e0a 883d 2db2 54bd 9b3d 163e
00000020: 8015 afbc 9c21 233d
