Players/0.5_100_1_False.pth (torch, 5016 bytes, 6 tensors)

fc1.weight f4 [16, 16]
0.27103272 -0.3183166 0.0445446 0.050013356 0.046117306 -0.24805933 -0.22841942 0.039638687
0.118737414 -0.20062804 -0.051793844 0.0070186653 0.16267405 -0.06856669 -0.14270197 0.13679884
0.10713128 -0.21135381 -0.123591855 0.09336809 -0.32656482 -0.21151844 -0.21801043 -0.08579659
-0.06284868 0.1828538 0.10569339 -0.10040513 -0.1234229 0.12545249 0.08816466 -0.09019325
0.19464216 0.14427632 0.001511655 -0.028486937 -0.024413701 0.18734734 -0.11761573 -0.034229673
-0.06130603 0.022543501 -0.013525132 -0.12011414 0.10785886 0.002958413 0.09933739 0.099481896
-0.03306744 0.20420584 -0.1982816 0.048166476 0.08532317 0.19424087 0.14723852 -0.24866295
-0.19194421 0.1467759 -0.17058665 0.06279778 0.14065361 0.07570725 0.09974886 -0.16594595
0.20157118 0.27737215 0.16033508 -0.1139112 -0.10280903 0.3315321 -0.08275977 0.08275218
0.2308551 -0.08604237 -0.118510544 -0.13740173 0.12969786 0.13943012 -0.2201936 0.10717988
0.022270747 -0.1699832 -0.24688365 0.023790054 -0.25315133 -0.12748936 0.030965855 -0.1929673
0.17414589 0.20060293 0.09804584 0.008952257 -0.077769004 -0.055312626 0.02853702 0.047052372
0.10840704 -0.14916836 -0.17081815 -0.16883704 0.07519737 -0.16562977 -0.04538651 -0.02060058
-0.24759382 0.0673443 0.17918685 -0.13513283 -0.21373048 0.08995845 -0.010323238 0.1884762
-0.1600107 0.16328596 -0.33059058 -0.20089345 0.040316593 0.013492429 -0.030633276 0.029830571
-0.095612496 0.0151028475 0.09496874 -0.09956957 -0.10471653 0.010003592 -0.1398193 0.21792836
-0.25863406 -0.3230858 0.0015933273 0.052589804 -0.14869164 0.04373028 -0.015602218 0.049474895
-0.0084413225 0.14636403 0.087326065 -0.3071141 -0.042509772 -0.17970423 -0.011464776 0.16870059
-0.13628413 -0.2058728 -0.013107965 -0.11776032 0.03975268 0.20373134 0.11386374 -0.01800759
-0.082964025 -0.11958324 -0.024356397 0.15131068 -0.08353619 -0.21967547 0.2013844 0.16898082
-0.11791235 0.02576943 -0.107784286 -0.32264805 -0.32620874 -0.116156064 -0.19488877 -0.16906463
-0.2176788 0.12900212 0.2609043 0.06865936 -0.041233752 0.114418 0.0155855995 0.21554329
0.3139294 0.2644498 0.270476 0.39504907 0.3048488 0.39638558 0.33827236 0.33668783
0.33837292 -0.21702631 -0.19722636 -0.16465546 -0.07552598 0.04944672 0.19218132 0.16763806
-0.21690288 0.040532593 0.03014612 -0.009290852 -0.115288116 -0.22221766 -0.22840054 -0.30776778
0.12363491 0.20533308 -0.047016412 0.11417111 -0.16816463 0.018406358 -0.11094127 -0.017062984
-0.17925465 -0.1658366 -0.010074731 0.063167796 0.075823635 -0.16524425 -0.035657812 -0.073257186
-0.0132352095 0.11330228 -0.12030752 0.18889718 0.058825765 0.081614845 -0.094667144 0.2688421
0.17743593 0.11509737 0.1509583 -0.089349985 0.034200847 -0.09035102 0.035920504 -0.083754174
0.17785004 0.03017232 -0.20843488 0.013669281 0.011974433 -0.08025495 0.09117813 0.26277328
-0.033692624 -0.095902674 0.09218376 0.07891514 -0.1543889 -0.023666704 0.04093317 -0.030155428
-0.26860937 -0.12100704 -0.12340901 -0.2405958 0.08307167 0.19780093 -0.007649051 0.0029292384
00000000: cdc4 8a3e 65fa a2be 6674 363d ceda 4c3d
00000010: 80e5 3c3d 4403 7ebe c8e6 69be 2d5c 223d
00000020: 9a2c f33d 7071 4dbe c825 54bd d5fc e53b
00000030: 0794 263e b16c 8cbd 7720 12be ff14 0c3e
00000040: a567 db3d 226d 58be ba1d fdbd c537 bf3d
00000050: 8133 a7be 4a98 58be 203e 5fbe 1fb6 afbd
00000060: cfb6 80bd 073e 3b3e c775 d83d 34a1 cdbd
00000070: 25c5 fcbd 9e76 003e ac8f b43d 3db7 b8bd
00000080: 4650 473e 2cbd 133e ba22 c63a 705d e9bc
00000090: 3eff c7bc fbd7 3f3e 84e0 f0bd 6a34 0cbd
000000a0: 081c 7bbd 26ad b83c 8498 5dbc 67fe f5bd
000000b0: 1be5 dc3d efe1 413b 6771 cb3d 2abd cb3d
000000c0: b971 07bd 561b 513e 550a 4bbe 364a 453d
000000d0: eabd ae3d 14e7 463e b2c5 163e 80a1 7ebe
000000e0: 068d 44be 6c4c 163e 44ae 2ebe 1f9c 803d
000000f0: 8007 103e 670c 9b3d 2149 cc3d bced 29be
00000100: ad68 4e3e b903 8e3e e12e 243e 464a e9bd
00000110: 8a8d d2bd 93be a93e f47d a9bd fa79 a93d
00000120: 4865 6c3e fb36 b0bd a8b5 f2bd 0ab3 0cbe
00000130: 84cf 043e c5c6 0e3e 6e7a 61be 2081 db3d
00000140: 2471 b63c 1310 2ebe 11cf 7cbe 5ce3 c23c
00000150: 0d9d 81be 928c 02be 1bac fd3c 3899 45be
00000160: 4d53 323e db6a 4d3e 42cc c83d 7dac 123c
00000170: 5b45 9fbd 7e8f 62bd 78c6 e93c fdb9 403d
00000180: 8304 de3d 97bf 18be f4ea 2ebe 9ee3 2cbe
00000190: 1401 9a3d da9a 29be 35e7 39bd 8cc2 a8bc
000001a0: 3c89 7dbe cfeb 893d c27c 373e 4360 0abe
000001b0: 2adc 5abe 233c b83d cc22 29bc e8ff 403e
000001c0: d8d9 23be 6f34 273e 2b43 a9be 03b7 4dbe
000001d0: 0323 253d 590f 5d3c a3f2 fabc 3e5f f43c
000001e0: 7cd0 c3bd ef71 773c f97e c23d 21eb cbbd
000001f0: 9f75 d6bd 1be6 233c ca2c 0fbe 9d28 5f3e
00000200: af6b 84be 816b a5be 31d7 d03a 6868 573d
00000210: 9f42 18be 861e 333d 72a0 7fbc 30a6 4a3d
00000220: 794d 0abc 74e0 153e 02d8 b23d 0f3e 9dbe
00000230: ba1e 2ebd 6304 38be c1d6 3bbc d9bf 2c3e
00000240: 118e 0bbe 52d0 52be cac2 56bc 532c f1bd
00000250: b5d3 223d f39e 503e 6431 e93d a784 93bc
00000260: 0be9 a9bd 0fe8 f4bd 1187 c7bc 30f1 1a3e
00000270: 0615 abbd 9bf2 60be b637 4e3e 4f09 2d3e
00000280: 087c f1bd 691a d33c 02be dcbd 2032 a5be
00000290: d504 a7be 3be3 edbd ec90 47be 471f 2dbe
000002a0: 31e7 5ebe 2219 043e 4095 853e 479d 8c3d
000002b0: b9e4 28bd fc53 ea3d be5a 7f3c 61b7 5c3e
000002c0: 5bbb a03e f765 873e d57b 8a3e df43 ca3e
000002d0: 2415 9c3e 0df3 ca3e 0932 ad3e 5962 ac3e
000002e0: 373f ad3e 253c 5ebe b5f5 49be 719b 28be
000002f0: 5dad 9abd a588 4a3d 2ecb 443e 50a9 2b3e
00000300: ca1b 5ebe 8105 263d fff4 f63c a838 18bc
00000310: 2d1c ecbd 078d 63be d5e1 69be bd93 9dbe
00000320: 4d34 fd3d d642 523e 4894 40bd 8bd2 e93d
00000330: 5933 2cbe eec8 963c 2d35 e3bd acc7 8bbc
00000340: 888e 37be 12d1 29be 7c10 25bc 1e5e 813d
00000350: 6c49 9b3d ca35 29be ed0d 12bd dd07 96bd
00000360: 7ed8 58bc 070b e83d ca63 f6bd 436e 413e
00000370: 49f3 703d af25 a73d d9e0 c1bd aca5 893e
00000380: c4b1 353e 2cb8 eb3d d094 1a3e 20fd b6bd
00000390: 3016 0c3d f509 b9bd 6121 133d 4f87 abbd
000003a0: 521e 363e f12b f73c f46f 55be 1ff5 5f3c
000003b0: 6a30 443c b55c a4bd 99bb ba3d 388a 863e
000003c0: 4701 0abd 9f68 c4bd d7ca bc3d 439e a13d
000003d0: 2018 1ebe ade0 c1bc 8aa9 273d 8408 f7bc
000003e0: 2b87 89be 8ad2 f7bd ddbd fcbd bf5e 76be
000003f0: 7b21 aa3d 548c 4a3e e4a4 fabb 77f8 3f3b

fc1.bias f4 [16]
0.17958294 -0.10158534 0.009698693 0.12495863 -0.27522805 -0.184876 -0.25391167 0.27552217
-0.15724425 0.107756376 0.26155913 -0.17264415 0.08224458 -0.08189307 -0.03173307 -0.019897722
00000000: 97e4 373e fa0b d0bd 44e7 1e3c 4fea ff3d
00000010: b1ea 8cbe 2250 3dbe b600 82be 3e11 8d3e
00000020: a304 21be 60af dc3d 14eb 853e a1c9 30be
00000030: d96f a83d 8eb7 a7bd 89fa 01bd 8c00 a3bc

fc2.weight f4 [12, 16]
0.17112789 0.11278399 0.045760375 0.072785616 0.119402096 -0.05411479 0.037501417 -0.24942677
0.07427956 -0.15947933 -0.22462097 -0.2611038 0.00058328756 0.21087596 0.045798704 0.18415974
0.22484128 -0.23027073 0.16786365 0.10106358 -0.075160876 -0.008678145 0.053478993 0.17707114
0.060832933 0.21300368 0.14555088 -0.23633902 0.21522994 0.13462494 0.022905186 -0.22876225
0.14612348 0.10997294 -0.17537977 0.05175544 -0.060822073 0.19372417 0.024386179 -0.1336811
0.0986478 -0.27062362 0.108406454 0.060074396 -0.07845323 -0.11497186 0.031083353 -0.09515978
0.030394828 -0.12681319 0.10312412 0.06457275 0.00588189 -0.050831072 -0.07642944 0.08510358
0.11180135 0.24317431 -0.082540475 -0.0019070623 -0.13762295 0.058997676 -0.12368333 0.01973266
0.19125317 -0.16119651 -0.19115034 -0.04948034 -0.01663639 -0.19884436 0.058566604 0.25258937
0.053854223 0.17675015 0.16833828 -0.41197702 0.032576676 0.09277895 -0.084451675 -0.1308029
0.06981807 0.21037921 0.16544352 -0.010627714 -0.16448596 -0.058294296 0.13313133 -0.080715254
0.13469496 -0.25301456 0.035370898 0.109873906 -0.18040636 0.018354267 0.01674339 0.1094867
0.23025683 -0.0114512285 0.12610865 0.14070532 -0.11826701 0.09022511 -0.018502137 0.014372713
0.17396931 0.17603467 0.043616295 -0.52934724 -0.22917439 0.065347984 0.21258514 -0.04634639
0.2415612 -0.021142598 -0.17819594 -0.06104664 -0.19508985 0.14394204 -0.009101908 0.20710307
0.07997441 0.043226264 0.1592984 -0.52772814 -0.08044408 0.23274955 -0.083618976 0.24986564
0.11600197 -0.15779224 -0.2692367 0.22485594 -0.2120833 -0.08237144 -0.1600047 -0.2166324
-0.10803869 -0.07507026 -0.13177301 -0.030931527 -0.15217048 -0.09356551 0.12374455 -0.2308954
0.15535915 0.036975775 -0.045311105 0.18081412 -0.18535186 0.11770357 -0.20140545 0.20111649
0.1565924 0.09284293 0.22787707 -0.07819193 -0.013482841 -0.02972803 0.23851381 0.05694044
0.054434907 0.08626871 -0.124205396 0.08246664 0.14448415 0.031739283 -0.2721308 0.10401505
-0.18935956 -0.26869354 -0.10670536 -0.12588525 0.18160696 0.0940788 -0.07435503 0.03719631
0.08522777 0.2516816 -0.09905615 -0.032455776 0.05082683 0.023213675 0.020292418 -0.17580262
-0.11599801 -0.24794488 -0.108171396 0.110155396 0.067987114 0.062344685 0.038191997 0.11947072
00000000: 263c 2f3e 4bfb e63d 3b6f 3b3d a010 953d
00000010: 1689 f43d 78a7 5dbd 169b 193d bb69 7fbe
00000020: e21f 983d 8d4e 23be 0a03 66be 66af 85be
00000030: c4e7 183a deef 573e 6c97 3b3d 5f94 3c3e
00000040: cb3c 663e 17cc 6bbe 73e4 2b3e 6cfa ce3d
00000050: f2ed 99bd c72e 0ebc ca0c 5b3d 2352 353e
00000060: f42b 793d a31d 5a3e 4a0b 153e db02 72be
00000070: 3d65 5c3e 1fdb 093e a8a3 bb3c a740 6abe
00000080: 65a1 153e 7e39 e13d c196 33be 83fd 533d
00000090: 9120 79bd a15f 463e 86c5 c73c b3e3 08be
000000a0: dc07 ca3d 2e8f 8abe 3404 de3d 9210 763d
000000b0: 16ac a0bd 5e76 ebbd 84a2 fe3c 21e3 c2bd
000000c0: 93fe f83c 51db 01be bd32 d33d b83e 843d
000000d0: dfbc c03b 3e34 50bd 0a87 9cbd c94a ae3d
000000e0: 1bf8 e43d b002 793e fb0a a9bd 64f6 f9ba
000000f0: 08ed 0cbe 8ca7 713d b04d fdbd 63a6 a13c
00000100: dfd7 433e b310 25be eabc 43be e6ab 4abd
00000110: 0a49 88bc db9d 4bbe 89e3 6f3d 6553 813e
00000120: 3f96 5c3d fefd 343e df60 2c3e a7ee d2be
00000130: 1f6f 053d e402 be3d 00f5 acbd 32f1 05be
00000140: c7fc 8e3d a66d 573e 076a 293e dd1f 2ebc
00000150: 026f 28be 00c6 6ebd 9453 083e 0a4e a5bd
00000160: 7aed 093e 208b 81be 13e1 103d 9205 e13d
00000170: 72bc 38be b05b 963c 6f29 893c 903a e03d
00000180: 72c8 6b3e ef9d 3bbc a022 013e 0e15 103e
00000190: f935 f2bd f1c7 b83d cb91 97bc 877b 6b3c
000001a0: 0325 323e 6f42 343e 00a7 323d 4d83 07bf
000001b0: b1ac 6abe 2ad5 853d ebaf 593e b6d5 3dbd
000001c0: d25b 773e 3e33 adbc ff78 36be 0b0c 7abd
000001d0: a2c5 47be 8b65 133e 2b20 15bc d412 543e
000001e0: a0c9 a33d 060e 313d 1f1f 233e 3119 07bf
000001f0: debf a4bd e655 6e3e 6d40 abbd c7dc 7f3e
00000200: 7192 ed3d 4a94 21be 65d9 89be a340 663e
00000210: 5d2c 59be 5cb2 a8bd 46d8 23be e2d4 5dbe
00000220: 6443 ddbd 70be 99bd 81ef 06be 1d64 fdbc
00000230: 94d2 1bbe 469f bfbd c86d fd3d d86f 6cbe
00000240: 7816 1f3e e973 173d 2398 39bd 5627 393e
00000250: e1cc 3dbe 920e f13d 3b3d 4ebe 7bf1 4d3e
00000260: c259 203e 6f24 be3d 9b58 693e 1723 a0bd
00000270: 22e7 5cbc 3388 f3bc f73c 743e 613a 693d
00000280: 23f7 5e3d a6ad b03d 665f febd 45e4 a83d
00000290: a7f3 133e 0d01 023d ba54 8bbe d805 d53d
000002a0: 79e7 41be 3392 89be 5788 dabd 10e8 00be
000002b0: 2df7 393e 63ac c03d 7347 98bd 285b 183d
000002c0: e68b ae3d 69dc 803e f3dd cabd 59f0 04bd
000002d0: cb2f 503d 9b2a be3c 493c a63c 9a05 34be
000002e0: 5d90 edbd 43e5 7dbe f788 ddbd 2799 e13d
000002f0: d43c 8b3d 245d 7f3d 366f 1c3d 11ad f43d

fc2.bias f4 [12]
-0.08355045 0.064457655 -0.11481719 0.096604995 0.209658 0.1951517 0.2712406 0.28044176
-0.13508816 0.27008778 -0.064366855 -0.28809765
00000000: 801c abbd 6002 843d 4625 ebbd d7d8 c53d
00000010: 96b0 563e d9d5 473e 0ce0 8a3e 1096 8f3e
00000020: 8d54 0abe f248 8a3e c5d2 83bd 8981 93be

fc3.weight f4 [10, 12]
0.23118396 0.21064116 -0.22386199 -0.050338056 -0.13792926 -0.016123416 0.19789727 0.26049632
0.15236285 0.09506171 -0.29948032 0.021793483 0.09958667 0.37813663 0.31412372 0.1280118
0.25750566 -0.1816169 0.07519856 -0.03180486 -0.13445872 -0.04134899 -0.17701899 -0.09168049
0.026085062 -0.11958561 -0.20458043 0.16106239 0.33446857 -0.07386596 -0.0060947747 0.14446512
-0.016228616 0.26124004 0.17201173 0.059074778 -0.06672753 0.028864887 -0.10410606 0.016807094
0.16536325 -0.2214263 0.3703385 0.027062504 0.24427265 0.1679069 0.052222975 0.1630378
0.1849074 0.19328429 0.19361009 0.25586456 -0.14793774 0.006804976 0.10439419 0.27051714
-0.17294167 -0.07029017 0.20649108 -0.16729924 0.27198216 -0.039714575 -0.16765545 -0.078871205
0.3999432 0.1731942 0.4313661 -0.15880758 0.28236842 0.30655608 -0.10689363 -0.057589415
0.1595216 0.17260766 -0.021361742 0.16251007 -0.18799765 0.21735905 0.34228086 0.2744263
-0.15924187 0.045841537 0.040155843 -0.22758044 0.24218838 -0.1739225 0.003411418 -0.055090677
0.35269997 -0.0628264 0.1856123 0.22379036 -0.018272698 0.107827894 -0.15670812 -0.10443472
-0.016422827 -0.002863118 0.016660107 0.22178568 -0.061717644 -0.16021971 0.20198223 0.31528378
0.0774277 0.14932314 0.12602094 0.052921206 -0.12520081 0.27282074 -0.14888142 -0.09104216
0.12847222 0.103533104 0.4271396 0.017872645 -0.27217382 0.014655472 -0.13680214 -0.099149086
00000000: 7dbb 6c3e 51b2 573e 143c 65be 472f 4ebd
00000010: 543d 0dbe 4115 84bc 95a5 4a3e c65f 853e
00000020: 0205 1c3e b7af c23d 7c55 99be 3f88 b23c
00000030: 19f4 cb3d 209b c13e d3d4 a03e 8615 033e
00000040: c8d7 833e c8f9 39be b401 9a3d d045 02bd
00000050: 8caf 09be 8f5d 29bd 7744 35be fbc2 bbbd
00000060: 57b0 d53c 4de9 f4bd 887d 51be 8aed 243e
00000070: 773f ab3e 0947 97bd adb6 c7bb aaee 133e
00000080: e0f1 84bc 41c1 853e d823 303e 65f8 713d
00000090: 71a8 88bd 0e76 ec3c 8f35 d5bd 08af 893c
000000a0: fc54 293e 93bd 62be 029d bd3e 2fb2 dd3c
000000b0: 9c22 7a3e c9ef 2b3e c2e7 553d 62f3 263e
000000c0: 5e58 3d3e 51ec 453e b941 463e ae00 833e
000000d0: fe7c 17be 47fc de3b 9fcc d53d 3981 8a3e
000000e0: 9f17 31be 4bf4 8fbd 6672 533e 7e50 2bbe
000000f0: 3f41 8b3e c0ab 22bd dfad 2bbe 3a87 a1bd
00000100: 5bc5 cc3e d259 313e 04dc dc3e 749e 22be
00000110: 9892 903e ebf4 9c3e 0ceb dabd e1e2 6bbd
00000120: a159 233e 10c0 303e d2fe aebc 0a69 263e
00000130: 7582 40be 5f93 5e3e 703f af3e 9b81 8c3e
00000140: 4d10 23be 56c4 3b3d 747a 243d d90a 69be
00000150: 3b00 783e bd18 32be 1992 5f3b c3a6 61bd
00000160: 1795 b43e 21ab 80bd 2711 3e3e 4d29 653e
00000170: a0b0 95bc dfd4 dc3d 1878 20be dfe1 d5bd
00000180: 2a89 86bc 26a3 3bbb c77a 883c c91b 633e
00000190: a4cb 7cbd a310 24be 6ed4 4e3e e06c a13e
000001a0: 6a92 9e3d 2ae8 183e a20b 013e e8c3 583d
000001b0: a434 00be 29af 8b3e 5f74 18be 5074 babd
000001c0: 398e 033e 2a09 d43d 0bb2 da3e a769 923c
000001d0: 5e5a 8bbe 811d 703c dc15 0cbe ad0e cbbd

fc3.bias f4 [10]
0.09717075 0.20569536 0.109332055 0.1422351 0.12951446 0.037444986 0.04089304 0.1758795
0.12829046 0.09461098
00000000: 7501 c73d cea1 523e 7ce9 df3d 14a6 113e
00000010: 709f 043e ea5f 193d 767f 273d c119 343e
00000020: 935e 033e 67c3 c13d
