Players/0.5_100_10_False.pth (torch, 5026 bytes, 6 tensors)

fc1.weight f4 [16, 16]
0.06418547 0.101158515 -0.013547427 0.0124285165 -0.26745802 0.06954832 0.09943163 -0.17451768
-0.0713864 0.10191102 -0.3154044 -0.29027548 0.19444862 -0.12260891 -0.16988294 0.15672743
0.17217295 0.33195946 0.2618435 0.28533062 0.22372717 0.3241066 0.39669442 0.337589
0.39635545 -0.15989046 -0.13856904 -0.15301861 8.672653e-05 0.023319686 0.1252759 -0.1264225
0.10502027 0.19487445 0.24603148 0.06820792 0.016632905 0.12916927 0.07264795 0.18500933
0.19298095 0.03970978 0.06050094 0.10107146 0.147216 -0.031939603 0.09002579 -0.16006541
-0.25515172 0.08745915 -0.0089856535 -0.13279445 -0.07318094 0.0047219545 -0.13945127 0.2531414
-0.22273484 0.06327347 0.10589252 0.0050348155 -0.03751283 0.16995583 0.09437625 0.24583703
0.19765534 0.03592784 0.10326611 0.14962506 -0.17093489 0.23584354 0.29679152 0.12124249
-0.09866957 0.09287483 -0.27957228 -0.04062316 0.20606281 -0.138913 -0.033396743 0.2027529
-0.0048826905 -0.12502433 0.06449498 0.19158591 -0.08066138 0.14586452 0.08322034 0.0018623371
-0.10629003 -0.026569454 -0.16591154 -0.008737506 -0.08160866 -0.16059054 -0.01605893 -0.21056925
0.20230019 0.06460915 -0.11965124 -0.27352875 0.03980106 -0.19203155 0.20661525 -0.104778655
-0.09974014 -0.19493634 0.22441992 -0.00025562916 -0.15475948 -0.11679662 0.19977337 -0.04678288
-0.30180416 0.030383548 0.06787315 0.2243849 0.1510023 0.12437047 0.12969995 -0.060889937
0.033520233 0.035271302 -0.04179258 -0.035330936 -0.1175358 -0.0923892 -0.064620696 0.23487812
0.09311494 -0.3302752 0.029810274 -0.16588542 -0.016281856 -0.15605332 -0.008796336 0.09384021
0.25089312 0.011502419 0.101164974 0.06405125 0.272878 -0.15961856 0.06756331 0.25988787
-0.010160919 -0.14125586 -0.21699443 0.107554264 -0.014301499 -0.24323165 -0.19726166 -0.027239501
0.027442556 0.1773587 -0.14864123 0.12110663 0.07562266 -0.025086408 -0.12903576 0.053455357
-0.02735214 0.21803667 0.29360497 0.12362845 0.35092697 0.22698447 0.23762853 -0.2306857
0.29238465 0.10012345 -0.011578589 -0.26045036 -0.17337559 0.06284552 0.29320058 0.0027596874
-0.2238837 0.009699281 0.09921196 0.06918067 -0.069101006 0.008490522 0.015120852 0.0255851
0.021693218 -0.22393592 0.12116249 0.1635191 -0.067626856 0.08973233 -0.13704574 0.045454632
-0.047525592 0.076246895 -0.04793281 -0.13641976 -0.16635334 -0.21868649 0.11884597 0.120727755
-0.050426245 -0.07532742 -0.04823786 -0.078659646 -0.10299856 -0.11381242 -0.104332775 0.0139686065
-0.28714538 0.13739589 -0.11233713 0.039112315 0.024124278 -0.21465121 -0.102672994 -0.003522056
0.16043018 -0.2097976 0.034982502 -0.03322668 0.06495212 0.2457828 0.039669424 -0.1941397
0.10577895 0.16924791 -0.4315362 -0.0995863 -0.13874014 0.017869987 -0.1924721 0.20015332
0.020126265 0.16150233 -0.089173384 0.07164442 -0.20987849 0.19645357 0.05358726 -0.05760526
-0.06703593 0.16953331 -0.0015672047 0.12750581 0.17176387 -0.23521112 0.005078252 -0.21526451
-0.2768281 0.0868712 0.085731894 0.0355999 0.13107152 -0.11939709 -0.00035606328 0.22854403
00000000: ac73 833d 322c cf3d 07f6 5dbc faa0 4b3c
00000010: 42f0 88be 596f 8e3d cfa2 cb3d c3b4 32be
00000020: 0833 92bd bab6 d03d af7c a1be fd9e 94be
00000030: 8a1d 473e 611a fbbd cbf5 2dbe 287d 203e
00000040: 1b4e 303e 97f6 a93e 5a10 863e db16 923e
00000050: bc18 653e 4df1 a53e 881b cb3e 77d8 ac3e
00000060: 1aef ca3e 53ba 23be 0be5 0dbe e9b0 1cbe
00000070: f4e0 b538 ed08 bf3c 5348 003e e674 01be
00000080: de14 d73d 2b8d 473e adef 7b3e 98b0 8b3d
00000090: bb41 883c f344 043e 73c8 943d 1673 3d3e
000000a0: cc9c 453e b9a6 223d d5cf 773d 8efe ce3d
000000b0: cbbf 163e 1ad3 02bd 715f b83d 30e8 23be
000000c0: 3fa3 82be c81d b33d 9038 13bc 45fb 07be
000000d0: e3df 95bd a0ba 9a3b 50cc 0ebe c09b 813e
000000e0: 9a14 64be 8595 813d 2dde d83d 18fb a43b
000000f0: 0ea7 19bd e708 2e3e 5648 c13d b4bc 7b3e
00000100: 2966 4a3e 1229 133d 2f7d d33d 5037 193e
00000110: 8e09 2fbe f880 713e 0ff5 973e fc4d f83d
00000120: 4613 cabd 2935 be3d 1924 8fbe 7864 26bd
00000130: 2102 533e 363f 0ebe 06cb 08bd 759e 4f3e
00000140: fafe 9fbb 6106 00be f215 843d 192f 443e
00000150: cb31 a5bd 825d 153e 6d6f aa3d aa19 f43a
00000160: 96ae d9bd 2fa8 d9bc b7e4 29be c227 0fbc
00000170: 7122 a7bd d971 24be 048e 83bc 779f 57be
00000180: c827 4f3e cd51 843d b60b f5bd f60b 8cbe
00000190: 7006 233d eba3 44be f392 533e 3196 d6bd
000001a0: 8f44 ccbd 649d 47be 56ce 653e f705 86b9
000001b0: 4579 1ebe 1133 efbd 6491 4c3e 689f 3fbd
000001c0: 1386 9abe ebe6 f83c 1401 8b3d 28c5 653e
000001d0: 59a0 1a3e f2b5 fe3d 10d0 043e ba67 79bd
000001e0: 834c 093d a478 103d b22e 2bbd 2cb7 10bd
000001f0: 9cb6 f0bd 8d36 bdbd db57 84bd e483 703e
00000200: 0cb3 be3d d519 a9be ad34 f43c dedd 29be
00000210: 8761 85bc 71cc 1fbe 821e 10bc 4c2f c03d
00000220: 1075 803e a474 3c3c 952f cf3d 4d2d 833d
00000230: aab6 8b3e 0c73 23be a25e 8a3d 0610 853e
00000240: fc79 26bc 60a5 10be ca33 5ebe 6945 dc3d
00000250: d650 6abc b811 79be f6fe 49be 6025 dfbc
00000260: 36cf e03c 859d 353e 6835 18be c106 f83d
00000270: 0ee0 9a3d 0382 cdbc f321 04be 01f4 5a3d
00000280: 9811 e0bc 0145 5f3e 6453 963e ea30 fd3d
00000290: b3ac b33e 9e6e 683e e554 733e df38 6cbe
000002a0: 71b3 953e 860d cd3d 1fb4 3dbc c059 85be
000002b0: 5f89 31be 27b5 803d 631e 963e dfdb 343b
000002c0: c541 65be bce9 1e3c a42f cb3d 98ae 8d3d
000002d0: d484 8dbd d51b 0b3c 73bd 773c d897 d13c
000002e0: fab5 b13c 754f 65be 0a24 f83d 8d71 273e
000002f0: f37f 8abd 95c5 b73d b855 0cbe a32e 3a3d
00000300: 32aa 42bd 5527 9c3d 3255 44bd 9fb1 0bbe
00000310: 8858 2abe 5aef 5fbe 8465 f33d 1d40 f73d
00000320: c08b 4ebd 4345 9abd 1095 45bd 4f18 a1bd
00000330: e9f0 d2bd 7c16 e9bd 6cac d5bd 95dc 643c
00000340: b804 93be 82b1 0c3e 0211 e6bd 3c34 203d
00000350: 47a0 c53c 87cd 5bbe 3846 d2bd 4bd2 66bb
00000360: cf47 243e 2fd5 56be d049 0f3d b318 08bd
00000370: 9e05 853d 7cae 7b3e 687c 223d 8fcc 46be
00000380: a2a2 d83d 534f 2d3e 50f2 dcbe e7f3 cbbd
00000390: e511 0ebe 1464 923c 6817 45be fef4 4c3e
000003a0: d6df a43c de60 253e 89a0 b6bd 4fba 923d
000003b0: 63ea 56be 202b 493e 517e 5b3d 7ef3 6bbd
000003c0: 224a 89bd 249a 2d3e aa6a cdba e290 023e
000003d0: dee2 2f3e 2fdb 70be 7767 a63b 4d6e 5cbe
000003e0: 6abc 8dbe 87e9 b13d 3494 af3d 33d1 113d
000003f0: 9d37 063e 7686 f4bd 01ae bab9 7207 6a3e

fc1.bias f4 [16]
0.0039460827 -0.17625847 0.039115246 0.22378765 0.26631254 0.1706336 0.012369944 0.21310341
0.25056496 -0.008178644 -0.063427545 0.15809971 -0.25433093 0.010424131 0.23193362 -0.076148994
00000000: 244e 813b 1a7d 34be 4f37 203d 9728 653e
00000010: 1e5a 883e 93ba 2e3e 4eab 4a3c c837 5a3e
00000020: 0d4a 803e b8ff 05bc 4de6 81bd e4e4 213e
00000030: aa37 82be f9c9 2a3c 0280 6d3e 01f4 9bbd

fc2.weight f4 [12, 16]
-0.12161997 -0.22999348 -0.16782235 0.107432336 -0.103358105 0.15091215 -0.26295546 -0.1304275
0.12672599 0.24605122 0.16470903 0.17016456 -0.088061914 0.13952598 0.116078876 -0.05967897
-0.101175226 -0.61922413 -0.15537722 0.23935863 0.12238985 0.07916467 -0.12713996 0.24840434
0.24469632 -0.23087944 -0.15929954 0.08444243 -0.16504027 0.06991222 0.11836819 0.19692135
-0.15264587 -0.38586038 0.07262922 -0.026077256 -0.099267595 -0.21856177 0.08066932 0.11587653
-0.05901854 -0.06861714 0.17346555 -0.28722736 -0.123330414 0.104497366 0.070706785 0.24628568
-0.18608116 -0.075384595 0.08604161 0.13668276 0.07454078 -0.03532835 0.23027568 0.086061895
0.09328037 -0.08716822 0.061645877 -0.05821211 -0.20768052 0.06543295 0.031174537 -0.08021706
-0.30479187 -0.17260571 0.19146523 0.008631842 0.11456687 0.18474519 0.2094635 0.083556235
0.13278022 -0.05273428 0.16347098 0.12296694 0.022359373 0.09897462 0.13818744 0.09698525
-0.20268725 -0.77733487 -0.04227933 0.09755698 0.015875507 -0.09027924 0.17003335 0.28188685
0.24059771 0.17749299 -0.21740231 0.17468332 -0.10933482 0.20844652 0.11379604 -0.08404894
-0.08399907 0.07020152 0.18294248 -0.03922253 -0.30648527 0.08085998 -0.011502275 -0.1158946
-0.065423235 -0.07980991 -0.10885522 0.061973713 -0.06823698 0.11212688 0.16824633 0.15074189
0.042099923 -0.18300007 -0.24766773 0.21881196 -0.0029195838 0.20038952 0.2260383 -0.09016338
0.17625436 0.1162711 -0.17885806 0.14129333 0.011611649 -0.4098374 0.04104473 -0.11259709
-0.031109035 -0.06551486 -0.17376319 0.0808976 0.22766572 -0.107354015 0.2175405 -0.14457807
-0.23138896 0.06270656 0.0970321 -0.010779202 -0.07384825 0.19414479 -0.19831774 -0.19696248
0.017585823 -0.11859082 0.1537769 -0.0077958736 0.10571048 -0.1890442 0.20723233 0.06965201
-0.2735099 -0.1315358 0.039578483 -0.2843742 0.09572581 0.038715363 0.008444224 0.04661904
-0.08340662 -0.29718447 0.055261064 0.092807 0.110581644 0.005932467 -0.0055985525 -0.0031432286
-0.19402812 0.15794536 0.050103206 -0.15430522 -0.078216664 -0.11406068 0.12974015 0.08487085
-0.032415587 0.073602475 -0.281957 0.14317721 -0.2762299 0.04580112 0.028450355 0.1394098
0.06022413 -0.20998776 0.045784853 -0.08895103 -0.05807608 0.19378027 -0.09741664 -0.0031642711
00000000: e413 f9bd 6983 6bbe 9fd9 2bbe 7c05 dc3d
00000010: 6aad d3bd b788 1a3e 19a2 86be c98e 05be
00000020: 75c4 013e daf4 7b3e 7ca9 283e 9e3f 2e3e
00000030: ce59 b4bd e6df 0e3e c3ba ed3d f071 74bd
00000040: f534 cfbd 7985 1ebf 351b 1fbe 6e1a 753e
00000050: 88a7 fa3d 1621 a23d fa30 02be b55d 7e3e
00000060: ac91 7a3e a96b 6cbe 6b1f 23be 27f0 ac3d
00000070: 5100 29be 232e 8f3d 066b f23d c0a5 493e
00000080: 334f 1cbe 7e8f c5be a1be 943d f89f d5bc
00000090: cf4c cbbd a8ce 5fbe f535 a53d ad50 ed3d
000000a0: 6dbd 71bd 2587 8cbd f4a0 313e 770f 93be
000000b0: a894 fcbd b702 d63d b8ce 903d 5032 7c3e
000000c0: 0f8c 3ebe 3d63 9abd 9536 b03d 91f6 0b3e
000000d0: d6a8 983d 76b4 10bd 63cd 6b3e 3841 b03d
000000e0: c709 bf3d 4085 b2bd 6380 7c3d d26f 6ebd
000000f0: 34aa 54be b601 863d be61 ff3c d848 a4bd
00000100: ae0d 9cbe 8dbf 30be 760f 443e 926c 0d3c
00000110: 09a2 ea3d d82d 3d3e 9a7d 563e 881f ab3d
00000120: 8af7 073e e6ff 57bd f064 273e 17d6 fb3d
00000130: 012b b73c 35b3 ca3d 0281 0d3e 34a0 c63d
00000140: 3f8d 4fbe 6bff 46bf 172d 2dbd f4cb c73d
00000150: 5a0d 823c 52e4 b8bd 391d 2e3e 7953 903e
00000160: 3f5f 763e b9c0 353e b69e 5ebe 2fe0 323e
00000170: efea dfbd 0173 553e e60d e93d da21 acbd
00000180: b407 acbd d1c5 8f3d 4655 3b3e cea7 20bd
00000190: a3eb 9cbe eb99 a53d 0a74 3cbc 265a edbd
000001a0: 9efc 85bd 6173 a3bd 7cef debd 26d8 7d3d
000001b0: d4bf 8bbd c7a2 e53d c448 2c3e 155c 1a3e
000001c0: f870 2c3d 5f64 3bbe 9c9c 7dbe 3e10 603e
000001d0: 7d56 3fbb e932 4d3e 9676 673e 94a7 b8bd
000001e0: 067c 343e 8b1f ee3d 9126 37be 33af 103e
000001f0: c93e 3e3c 35d6 d1be 851e 283d 4e99 e6bd
00000200: 60d8 febc a82c 86bd faee 31be a4ad a53d
00000210: 3421 693e 6cdc dbbd f0c2 5e3e 460c 14be
00000220: 3af1 6cbe 4c6c 803d c4b8 c63d 409b 30bc
00000230: c03d 97bd e4cd 463e ce13 4bbe 88b0 49be
00000240: 2510 903c bedf f2bd b177 1d3e 8774 ffbb
00000250: bc7e d83d ce94 41be b634 543e b7a5 8e3d
00000260: 7d09 8cbe 52b1 06be 0c1d 223d 7f99 91be
00000270: e50b c43d 0094 1e3d a459 0a3c 9bf3 3e3d
00000280: 17d1 aabd 9028 98be 6d59 623d 9911 be3d
00000290: a178 e23d 2465 c23b 1074 b7bb a0fe 4dbb
000002a0: 4faf 46be 6ebc 213e 0539 4d3d 3002 1ebe
000002b0: 0f30 a0bd a598 e9bd 9ada 043e c5d0 ad3d
000002c0: 35c6 04bd e5bc 963d ab5c 90be 0c9d 123e
000002d0: 016e 8dbe f599 3b3d b810 e93c 71c1 0e3e
000002e0: 94ad 763d 0807 57be e688 3b3d f52b b6bd
000002f0: 2fe1 6dbd 566e 463e 6082 c7bd a95f 4fbb

fc2.bias f4 [12]
0.18089218 0.021271389 0.036282506 0.09703855 -0.08208469 0.13304399 0.035696037 -0.14203005
-0.14254293 -0.07944785 0.23176514 -0.059493866
00000000: cd3b 393e 5641 ae3c f79c 143d 26bc c63d
00000010: 051c a8bd af3c 083e 0236 123d 5370 11be
00000020: c6f6 11be 8eb5 a2bd d753 6d3e d7af 73bd

fc3.weight f4 [10, 12]
-0.0337371 0.12490531 0.005821638 0.07467932 -0.001687946 0.24740519 0.1625412 0.07948298
-0.239173 0.1804717 0.07742749 -0.0714525 0.004896295 -0.025888508 -0.08020481 0.05908027
0.2516606 0.2699735 -0.16494542 0.070419915 -0.061814055 0.02037705 0.03523257 0.15998986
-0.08933696 0.024062634 -0.17485511 -0.2513918 -0.20137182 -0.27379408 -0.23003073 0.12327987
-0.2716908 -0.053600386 -0.017676294 -0.0064624846 -0.035368316 0.09537109 0.1818553 0.089375556
0.11593504 0.306284 0.045505263 -0.15386894 -0.06690419 -0.21704604 -0.036278598 0.0783004
0.16447425 0.30563024 0.19318992 -0.11819812 0.044559292 -0.015277945 -0.12834382 0.07286946
0.19040608 0.024649447 0.0879227 0.1518169 -0.024885407 -0.026292518 0.15803012 0.10226025
0.1386936 0.2596652 0.26332483 -0.1514279 0.012890786 0.12513785 0.11552691 0.18100657
0.08266953 0.30216357 0.21186128 0.0856067 0.051991433 0.06856202 -0.19278498 -0.0436182
0.17426553 -0.08243134 0.13840389 -0.19221005 0.12191091 0.2398854 0.28113514 0.23771113
0.01941762 0.082427315 0.07147394 0.20740375 -0.28760093 0.22838977 -0.20003995 0.021759192
0.260516 -0.014752242 -0.26944983 -0.10822161 0.31804907 0.18218215 -0.16688348 0.012410436
-0.2697533 -0.16318682 0.049658667 -0.28512707 -0.21550363 0.010478627 -0.16619717 0.24643214
0.133151 0.25514686 0.051557306 0.19103263 -0.013416767 -0.22181678 0.18268426 -0.17765336
00000000: ea2f 0abd 5bce ff3d 70c3 be3b 79f1 983d
00000010: 123e ddba c957 7d3e 3371 263e f9c7 a23d
00000020: c4e9 74be 93cd 383e 4e92 9e3d b055 92bd
00000030: 1971 a03b 2314 d4bc 6b42 a4bd 27fe 713d
00000040: a8d9 803e f739 8a3e 74e7 28be 5138 903d
00000050: bc30 7dbd c5ed a63c 0750 103d 62d4 233e
00000060: 4cf6 b6bd 001f c53c 380d 33be 6db6 80be
00000070: 6a34 4ebe bd2e 8cbe 2d8d 6bbe 287a fc3d
00000080: 0e1b 8bbe 148c 5bbd e0cd 90bc 40c3 d3bb
00000090: 5ede 10bd eb51 c33d 4738 3a3e 880a b73d
000000a0: 5a6f ed3d 42d1 9c3e ba63 3a3d d28f 1dbe
000000b0: 1005 89bd 5141 5ebe de98 14bd f65b a03d
000000c0: f06b 283e 917b 9c3e 94d3 453e db11 f2bd
000000d0: ce83 363d 5950 7abc 906c 03be 953c 953d
000000e0: d0f9 423e a3ed c93c d110 b43d e475 1b3e
000000f0: 7bdc cbbc 6863 d7bc a6d2 213e d26d d13d
00000100: b205 0e3e d6f2 843e 83d2 863e ea0f 1bbe
00000110: e033 533c 2324 003e 5f99 ec3d c959 393e
00000120: a44e a93d 2fb5 9a3e 2af2 583e 9152 af3d
00000130: f8f4 543d 3f6a 8c3d 6d69 45be ffa8 32bd
00000140: aa72 323e c3d1 a8bd c0b9 0d3e b6d2 44be
00000150: 6dac f93d 85a4 753e f2f0 8f3e 8c6a 733e
00000160: b311 9f3c a7cf a83d ee60 923d a661 543e
00000170: 6e40 93be 02df 693e 46d7 4cbe 5540 b23c
00000180: 5a62 853e 63b3 71bc 54f5 89be 4ba3 ddbd
00000190: 54d7 a23e f58d 3a3e 81e3 2abe 2455 4b3c
000001a0: 1b1d 8abe 721a 27be e366 4b3d 2dfc 91be
000001b0: fcac 5cbe 8cae 2b3c 972f 2abe b558 7c3e
000001c0: bc58 083e 9ca2 823e c12d 533d 0f9e 433e
000001d0: 00d2 5bbc f023 63be 9511 3b3e c3ea 35be

fc3.bias f4 [10]
0.12151092 0.013770839 -0.07033417 0.057137158 0.21571317 0.060032528 0.11382299 0.03097158
0.06117191 -0.046327904
00000000: b8da f83d 169f 613c 5c0b 90bd a708 6a3d
00000010: eae3 5c3e abe4 753d 071c e93d 1cb8 fd3c
00000020: 668f 7a3d 54c2 3dbd
