Players/0.5_100_10_True.pth (torch, 5016 bytes, 6 tensors)

fc1.weight f4 [16, 16]
-0.13220766 0.08897162 0.07326382 -0.041932587 0.048603754 -0.13146228 0.08387176 -0.16131623
0.2635255 0.039541263 0.15497988 -0.0207202 -0.30549157 -0.14176853 -0.053996965 0.19090128
-0.038983904 -0.0398767 -0.15151338 -0.25747925 0.09482918 -0.04965548 0.052933034 -0.15410589
0.18936464 0.11252791 0.12550446 -0.10015179 0.030062737 -0.1003894 -0.023598883 0.31739092
-0.06694041 0.1700459 0.1562771 0.08339446 0.16186129 -0.2662849 -0.19624463 -0.046344712
-0.21124184 -0.0030717535 -0.28608605 -0.111494705 0.030964058 -0.047311366 -0.20645818 -0.042506896
0.2219257 -0.22064535 -0.039208274 0.31133202 -0.000670912 -0.15980399 -0.042091228 -0.14910646
0.09754703 -0.15300652 0.049713507 0.034384076 -0.036062595 -0.0023799138 -0.13699137 0.18414164
0.08828459 -0.18036248 -0.1994574 -0.21595815 -0.10147255 0.24786381 -0.117466666 0.1216916
-0.21402422 0.08773642 -0.05423859 -0.015144791 -0.045055863 0.11238976 0.1944301 0.0015474235
-0.027217288 0.10502096 -0.12170455 -0.28088903 -0.17393015 0.16950871 -0.21542896 0.19225694
-0.21226859 -0.022564327 -0.24726962 0.22318602 0.18541116 -0.03776595 -0.12475339 0.3194063
0.009974988 -0.24117884 0.1391544 -0.2161973 0.060202964 0.0026807978 0.16572869 -0.20732628
0.11499921 0.05193668 -0.27842394 -0.035240628 0.07919372 -0.06825022 0.07782443 -0.09565667
-0.19676645 -0.17594847 0.14480042 0.044060443 -0.011982662 0.013929643 -0.0034824715 -0.08746163
0.14946848 0.16278167 -0.07540596 0.09647536 -0.004543014 -0.041041147 -0.08610089 -0.09974643
0.40817553 0.23657279 0.24211943 0.30918437 0.30164722 0.28582987 0.16942745 0.20874098
0.26322764 -0.19028449 -0.18671367 -0.12472272 -0.05404321 0.019767158 0.14645872 0.22809896
-0.00092189806 -0.34857115 0.10662487 -0.12433472 -0.0999771 0.030398892 0.3273493 -0.045057956
-0.14744776 -0.006146504 0.17129855 -0.124189906 -0.2132796 0.05875808 0.11153179 -0.012404035
-0.25762814 -0.13193606 -0.14725241 -0.04060665 -0.14646499 -0.08728613 0.03161839 -9.3600094e-05
-0.27434084 0.114489704 0.06533146 0.09789825 0.13013977 0.06384318 0.094207995 0.3473839
0.09546266 -0.085056946 0.04783697 -0.03600853 0.08498522 -0.02187464 0.0024718088 0.03321216
0.17625162 0.0028308218 0.20996746 -0.024237402 0.10240235 -0.035483982 -0.22967277 0.120887585
-0.0329219 -0.08477121 0.105839916 0.039099067 0.14492778 0.109349184 -0.13263172 0.026784515
0.2743773 -0.225472 0.15279289 -0.22300842 0.042120285 0.17444983 -0.14133355 0.04775777
-0.07311714 0.0438356 0.14723666 0.16351663 0.14803635 0.3327398 0.18025203 0.108855985
-0.044278987 -0.15840453 0.14347333 -0.13222453 0.105107784 -0.1493671 -0.110936806 0.055279367
0.14486404 -0.079039924 -0.08281717 0.11499993 -0.38118532 0.005362138 -0.05612447 -0.33205336
-0.09322879 0.008942095 0.17944539 0.16710505 -0.20232578 0.024052119 -0.061922565 0.07839555
0.29104835 0.2713387 0.29956123 0.3215351 0.2676566 0.22354303 0.25128412 0.23550144
0.27399176 -0.13462536 -0.12420657 -0.16717364 -0.012617426 0.035140604 0.07706808 -0.0871962
00000000: 7261 07be c136 b63d 570b 963d 81c1 2bbd
00000010: bb14 473d 0c9e 06be f5c4 ab3d 1530 25be
00000020: d0ec 863e 05f6 213d 0cb3 1e3e 69bd a9bc
00000030: 6469 9cbe c52b 11be ec2b 5dbd a07b 433e
00000040: 96ad 1fbd c055 23bd 5326 1bbe 52d4 83be
00000050: cd35 c23d 8b63 4bbd 4fd0 583d efcd 1dbe
00000060: cee8 413e 0875 e63d 3e84 003e 621c cdbd
00000070: 2146 f63c f598 cdbd 7252 c1bc 1081 a23e
00000080: 0e18 89bd 8320 2e3e 1b07 203e b7ca aa3d
00000090: f7be 253e 7f56 88be 5af4 48be f4d3 3dbd
000000a0: c84f 58be 794f 49bb df79 92be 5657 e4bd
000000b0: 56a8 fd3c 90c9 41bd c669 53be b61b 2ebd
000000c0: 7e40 633e dbf0 61be db98 20bd e966 9f3e
000000d0: 24e0 2fba a8a3 23be da67 2cbd 5daf 18be
000000e0: bdc6 c73d bead 1cbe 64a0 4b3d 51d6 0c3d
000000f0: 5fb6 13bd 54f8 1bbb 7747 0cbe a08f 3c3e
00000100: 8dce b43d f1b0 38be 903e 4cbe 2224 5dbe
00000110: d7d0 cfbd 03d0 7d3e 5d92 f0bd 7239 f93d
00000120: 2a29 5bbe 27af b33d 4929 5ebd dc21 78bc
00000130: 7f8c 38bd 9a2c e63d af18 473e ebd2 ca3a
00000140: caf6 debc 3b15 d73d 3c40 f9bd b0d0 8fbe
00000150: bf1a 32be b193 2d3e 6999 5cbe 01df 443e
00000160: f05c 59be d3d8 b8bc 3f34 7dbe e08a 643e
00000170: 6cdc 3d3e 78b0 1abd b57e ffbd 3989 a33e
00000180: 226e 233c 96f7 76be 7e7e 0e3e d362 5dbe
00000190: 6297 763d 53b0 2f3b c8b4 293e 574d 54be
000001a0: b584 eb3d 8ebb 543d 958d 8ebe 7a58 10bd
000001b0: 5130 a23d c5c6 8bbd 6a62 9f3d a5e7 c3bd
000001c0: 257d 49be d62b 34be 9046 143e b978 343d
000001d0: ed52 44bc 2839 643c 2d3a 64bb 151f b3bd
000001e0: 440e 193e 3db0 263e 716e 9abd e094 c53d
000001f0: 90dd 94bb c31a 28bd aa55 b0bd db47 ccbd
00000200: 62fc d03e 2340 723e 28ee 773e 6a4d 9e3e
00000210: 8171 9a3e 4b58 923e 647e 2d3e 32c0 553e
00000220: c6c5 863e f0d9 42be de31 3fbe a06e ffbd
00000230: 6a5c 5dbd bcee a13c 46f9 153e c692 693e
00000240: 88ab 71ba eb77 b2be 245e da3d 34a3 febd
00000250: cbc0 ccbd 1907 f93c 549a a73e b18e 38bd
00000260: 8cfc 16be 9d68 c9bb e368 2f3e 4757 febd
00000270: f865 5abe 50ac 703d c76a e43d 4b3a 4bbc
00000280: d6e7 83be 3f1a 07be 56c9 16be 2953 26bd
00000290: ebfa 15be 12c3 b2bd 4982 013d 2b4b c4b8
000002a0: 6776 8cbe 9479 ea3d 80cc 853d e17e c83d
000002b0: 5c43 053e 37c0 823d 1ff0 c03d 4ddc b13e
000002c0: ed81 c33d 5632 aebd b3f0 433d ae7d 13bd
000002d0: bb0c ae3d 7232 b3bc 12fe 213b 7909 083d
000002e0: 4e7b 343e 4f85 393b b601 573e 848d c6bc
000002f0: 53b8 d13d a757 11bd 572f 6bbe e993 f73d
00000300: 1dd9 06bd 879c adbd 99c2 d83d 5826 203d
00000310: f367 143e 77f2 df3d 9cd0 07be 336b db3c
00000320: 2e7b 8c3e 22e2 66be bd75 1c3e 525c 64be
00000330: 5286 2c3d faa2 323e beb9 10be a79d 433d
00000340: 70be 95bd f58c 333d 35c5 163e e770 273e
00000350: d796 173e df5c aa3e fd93 383e e3ef de3d
00000360: e25d 35bd cc34 22be acea 123e de65 07be
00000370: c042 d73d b0f3 18be d632 e3bd 9e6c 623d
00000380: 3d57 143e afdf a1bd 0c9c a9bd 1585 eb3d
00000390: b92a c3be e0b4 af3b c6e2 65bd e602 aabe
000003a0: bcee bebd dd81 123c 88c0 373e 961d 2b3e
000003b0: 7d2e 4fbe f308 c53c 84a2 7dbd d98d a03d
000003c0: 4a04 953e e8ec 8a3e 1760 993e 40a0 a43e
000003d0: 490a 893e 77e8 643e 50a8 803e 4a27 713e
000003e0: a648 8c3e 3bdb 09be 0460 febd 912f 2bbe
000003f0: 52b9 4ebc 98ef 0f3d dfd5 9d3d ec93 b2bd

fc1.bias f4 [16]
0.0989028 0.00030108588 -0.015300576 0.36955363 0.09130338 -0.03700463 -0.22142783 0.23019107
0.0786288 0.065158434 -0.118600994 -0.002024471 -0.044602867 -0.2688269 -0.21267511 0.21283811
00000000: 8d8d ca3d 10db 9d39 44af 7abc 2236 bd3e
00000010: 44fd ba3d 2b92 17bd fabd 62be 35b7 6b3e
00000020: 2308 a13d c971 853d 14e5 f2bd fdac 04bb
00000030: 7fb1 36bd aea3 89be 81c7 59be 3cf2 593e

fc2.weight f4 [12, 16]
-0.22180791 0.20562534 0.10339439 -0.28156415 0.19733272 0.26216432 -0.08199684 0.15113565
-0.11343485 0.22968091 -0.2136141 -0.22317146 0.16530441 0.19465023 -0.17470598 -0.032698717
-0.15693814 -0.0719105 0.115386724 0.19876191 0.036705077 -0.2182838 -0.21330968 -0.18794963
-0.20370585 0.02587685 -0.23790565 -0.1836217 -0.01430124 -0.05517125 0.019880325 -0.14081669
-0.018674599 -0.2700204 -0.15963456 0.08538781 0.059796505 0.1417736 0.16900189 0.10424692
-0.036886323 0.025603965 -0.054978304 -0.30579704 -0.35411483 0.07546948 0.012831969 0.19050786
0.03632946 -0.036312234 -0.048978593 -0.09388746 0.1123178 0.14422844 -0.2467753 0.03443337
-0.008319291 0.08630419 0.05126163 0.19213973 -0.010085044 -0.1525217 -0.12431816 0.23808153
0.0955986 0.0049410407 -0.17327918 0.10129929 0.109186634 0.08031684 -0.08856382 0.22167018
-0.39856353 0.17799966 0.2281675 0.17157966 0.25446242 0.020350436 -0.08523165 -0.47286853
0.06732534 0.23913099 0.050540105 0.21362492 0.011290723 0.14156616 -0.13340664 0.009887351
0.05460517 0.17300431 0.16448754 -0.07625172 0.19718473 0.09128705 0.1917091 -0.18011655
-0.023779016 -0.1676852 -0.07536185 -0.014339507 -0.0465708 -0.20000167 0.19089606 -0.2089821
-0.10552206 -0.24482138 0.109621376 -0.008780367 -0.23467858 -0.29110646 -0.14738157 0.13046613
0.15732966 0.20363721 0.06282528 0.068782225 -0.0117030125 0.20602973 -0.13681258 -0.17794168
-0.4815954 0.08146302 0.25731996 -0.042422973 -0.020021318 -0.15914176 -0.17085885 -0.39160797
-0.19868949 -0.2185723 0.026631713 0.13043176 -0.024945349 -0.042189393 -0.23151886 -0.13170497
-0.055559915 0.1685536 -0.15065296 -0.032162115 0.017281752 -0.27170786 0.019964278 0.12074271
0.023683405 -0.06457401 -0.070046864 0.102807105 -0.05565788 0.13454247 0.23891728 -0.081966236
-0.4421668 -0.02745204 0.14875242 0.22336361 0.03771931 0.12834293 -0.0310322 -0.21330315
0.011616733 0.020469887 -0.22590049 -0.15020244 0.051536873 0.0053357435 -0.24513385 -0.06643393
-0.29924148 0.28472883 -0.10931942 0.16069867 0.13320811 -0.13997275 -0.085712984 0.14436401
0.11458452 0.16313876 0.16349103 0.11718852 -0.09509488 0.1797164 0.054501552 -0.27995238
0.107194565 0.00023457792 0.19197348 0.11844353 0.096669964 0.14394793 0.015716137 -0.14636867
00000000: 9d21 63be 738f 523e 70c0 d33d 2d29 90be
00000010: 9711 4a3e 673a 863e f6ed a7bd 4ec3 1a3e
00000020: 8850 e8bd 7931 6b3e a8bd 5abe 0f87 64be
00000030: 8f45 293e 6452 473e 20e6 32be 17ef 05bd
00000040: 64b4 20be d045 93bd e04f ec3d 3e88 4b3e
00000050: 1058 163d ca85 5fbe da6d 5abe de75 40be
00000060: 4498 50be b0fb d33c 8a9d 73be 5407 3cbe
00000070: c04f 6abc 40fb 61bd 10dc a23c 4032 10be
00000080: 79fb 98bc 1d40 8abe 3e77 23be cedf ae3d
00000090: 2eed 743d 192d 113e d50e 2d3e 697f d53d
000000a0: 1d16 17bd 68bf d13c ee30 61bd 6e91 9cbe
000000b0: 8a4e b5be be8f 9a3d 2e3d 523c 7e14 433e
000000c0: 33ce 143d 23bc 14bd c79d 48bd 1248 c0bd
000000d0: e006 e63d 9fb0 133e aab2 7cbe 010a 0d3d
000000e0: a34d 08bc 40c0 b03d b7f7 513d 47c0 443e
000000f0: be3b 25bc a62e 1cbe 859a febd a5cb 733e
00000100: 33c9 c33d 74e8 a13b 1970 31be 0176 cf3d
00000110: 3e9d df3d 287d a43d f360 b5bd 82fd 623e
00000120: 8510 ccbe 8b45 363e bea4 693e 94b2 2f3e
00000130: e648 823e f5b5 a63c ee8d aebd d31b f2be
00000140: dee1 893d c1de 743e 2403 4f3d 7ec0 5a3e
00000150: bafc 383c b8f6 103e c09b 08be 8efe 213c
00000160: aca9 5f3d 0b28 313e 6c6f 283e dd29 9cbd
00000170: cbea 493e b4f4 ba3d 644f 443e 7970 38be
00000180: 36cc c2bc abb5 2bbe 5057 9abd 40f0 6abc
00000190: 06c1 3ebd 3dcd 4cbe 427a 433e 67ff 55be
000001a0: f31b d8bd 75b2 7abe 2c81 e03d 87db 0fbc
000001b0: 954f 70be e80b 95be 32eb 16be ea98 053e
000001c0: 071b 213e 4686 503e 8aaa 803d b2dd 8c3d
000001d0: febd 3fbc 75f9 523e 9918 0cbe 5836 36be
000001e0: ac93 f6be 15d6 a63d 71bf 833e b6c3 2dbd
000001f0: bf03 a4bc 0ff6 22be 9ff5 2ebe d780 c8be
00000200: 4275 4bbe 6bd1 5fbe c02a da3c e78f 053e
00000210: 305a ccbc c9ce 2cbd 4813 6dbe abdd 06be
00000220: cb92 63bd 5199 2c3e c544 1abe 6cbc 03bd
00000230: 7692 8d3c 4b1d 8bbe 208c a33c f447 f73d
00000240: b303 c23c 613f 84bd bb74 8fbd 888c d23d
00000250: 84f9 63bd 80c5 093e bba6 743e eadd a7bd
00000260: b063 e2be 1ae3 e0bc 8e52 183e 6eb9 643e
00000270: 907f 1a3d 546c 033e 3e37 febc 246c 5abe
00000280: 1c54 3e3c 77b0 a73c 7552 67be abce 19be
00000290: 5418 533d 76d7 ae3b 5e04 7bbe 830e 88bd
000002a0: 2e36 99be fac7 913e dce2 dfbd 318e 243e
000002b0: b567 083e 0455 0fbe 4a8a afbd 29d4 133e
000002c0: 4aab ea3d d90d 273e 316a 273e 8900 f03d
000002d0: 1bc1 c2bd 9307 383e 053d 5f3d eb55 8fbe
000002e0: d388 db3d 08f9 7539 b294 443e 8592 f23d
000002f0: e7fa c53d 1667 133e 21bf 803c abe1 15be

fc2.bias f4 [12]
-0.15276544 -0.017306834 -0.08130727 0.14438453 -0.09504542 0.3093619 0.12384119 0.30687732
-0.28339168 -0.16890718 0.03648984 -0.24187934
00000000: 8b6e 1cbe 10c7 8dbc 6d84 a6bd 8ad9 133e
00000010: 2ca7 c2bd af64 9e3e 73a0 fd3d 061f 9d3e
00000020: b718 91be 01f6 2cbe 5f76 153d 38af 77be

fc3.weight f4 [10, 12]
-0.11354028 0.061920643 0.057568204 0.08578592 0.2969416 -0.06851199 -0.24393906 0.27348188
-0.17183211 -0.108609654 -0.011494411 0.33808425 0.09724353 -0.18565221 0.15850955 0.02124563
0.0064110137 0.27337828 -0.25397325 0.4211473 -0.1145418 -0.077413015 0.11487135 -0.11023575
-0.2671522 -0.2788125 0.17965294 -0.03532748 0.00627652 0.28343156 -0.011812464 0.18778215
-0.07285561 0.22534879 0.0994635 -0.07332874 0.066483356 -0.12810482 0.040474113 -0.06400133
0.08968656 0.24420471 0.06346416 0.12731008 -0.15189144 0.24145584 -0.030786246 -0.013958162
-0.04858432 0.14231667 0.29530227 -0.015045051 0.3356286 0.20762649 0.09840925 -0.121375784
0.23142308 0.10871106 0.13432266 -0.082962655 -0.14827383 0.18468305 0.0884335 0.16486393
0.30563754 0.07727356 -0.10280051 0.18963973 0.13316856 -0.1527879 0.11329719 -0.05697285
0.2229856 0.104993194 0.10626555 0.06492093 0.25073785 0.15212765 -0.08976195 0.2883205
-0.23667493 -0.116959676 0.20158172 -0.115292706 -0.24651593 0.23470724 0.07587843 -0.29062882
0.14863575 0.020266624 0.055942938 0.229393 0.01527667 0.1788373 0.20958415 0.020460919
-0.043900304 0.2866804 -0.2248418 -0.0134369945 0.25486436 0.20538001 0.07242023 0.116936535
-0.16984564 0.11974364 -0.32430002 -0.07693468 -0.09791071 0.16757226 -0.25248677 -0.12659253
0.14944515 0.038379837 0.070506044 0.24883485 0.030477425 0.15198952 0.14661533 -0.07992798
00000000: ce87 e8bd 80a0 7d3d a3cc 6b3d 87b0 af3d
00000010: bb08 983e 0450 8cbd 29cb 79be d105 8c3e
00000020: c2f4 2fbe bd6e debd 0e53 3cbc 6119 ad3e
00000030: 9e27 c73d 9d1b 3ebe 5450 223e 510b ae3c
00000040: 7b13 d23b 3df8 8b3e c808 82be 9ea0 d73e
00000050: e494 eabd b78a 9ebd ac41 eb3d 48c3 e1bd
00000060: 2cc8 88be 83c0 8ebe f1f6 373e 8cb3 10bd
00000070: 44ab cd3b f11d 913e 1189 41bc f749 403e
00000080: 5235 95bd d5c1 663e 85b3 cb3d 612d 96bd
00000090: 6d28 883d e92d 03be 2fc8 253d 2113 83bd
000000a0: 96ad b73d cd10 7a3e 7ff9 813d 935d 023e
000000b0: 6e89 1bbe 3340 773e 7033 fcbc c6b0 64bc
000000c0: 5a00 47bd 76bb 113e dc31 973e 857f 76bc
000000d0: 83d7 ab3e 0a9c 543e ca8a c93d de93 f8bd
000000e0: 2cfa 6c3e e7a3 de3d e18b 093e 53e8 a9bd
000000f0: 18d5 17be 8e1d 3d3e 9f1c b53d 17d2 283e
00000100: 867c 9c3e 9a41 9e3d 1389 d2bd eb30 423e
00000110: 575d 083e 6e74 1cbe 5b08 e83d 5d5c 69bd
00000120: 5656 643e ac06 d73d c1a1 d93d 44f5 843d
00000130: b660 803e 5ac7 1b3e 1dd5 b7bd bf9e 933e
00000140: ea5a 72be 8e88 efbd 706b 4e3e 951e ecbd
00000150: ac6e 7cbe 1857 703e 2666 9b3d 4dcd 94be
00000160: f833 183e 3106 a63c 6c24 653d 00e6 6a3e
00000170: 004b 7a3c 2021 373e 3a9d 563e a89d a73c
00000180: ced0 33bd c6c7 923e ee3c 66be d726 5cbc
00000190: 957d 823e 234f 523e 0f51 943d 6c7c ef3d
000001a0: 04ec 2dbe 273c f53d a70a a6be ee8f 9dbd
000001b0: 6985 c8bd 1098 2b3e f245 81be 79a1 01be
000001c0: 2608 193e 2d34 1d3d 7965 903d 90ce 7e3e
000001d0: cbab f93c 24a3 1b3e 5422 163e 48b1 a3bd

fc3.bias f4 [10]
-0.09753423 -0.04031475 -0.008890383 -0.0049516526 0.014958553 -0.075715184 -0.0048635695 0.34999326
0.024138663 0.21902005
00000000: 07c0 c7bd 1421 25bd f8a8 11bc 7941 a2bb
00000010: b814 753c 9010 9bbd 945e 9fbb 5132 b33e
00000020: 72be c53c cb46 603e
