Players/0.99_10_0.1_False.pth (torch, 5036 bytes, 6 tensors)

fc1.weight f4 [16, 16]
0	0xbe61977e	-0.22030446
1	0xbe48425c	-0.19556564
2	0xbe308735	-0.17239077
3	0xbe02ff1f	-0.12792633
4	0x3e317705	0.17330559
5	0x3e2cd6a1	0.1687875
6	0xbd455ade	-0.04818236
7	0xbdeb53b9	-0.11490578
8	0xbe7c959d	-0.24666448
9	0xbe1bdf76	-0.15221962
10	0x3e654fbf	0.22393702
11	0x3e11da38	0.142434
12	0xbdb33913	-0.087511204
13	0x3dcecfbe	0.100982174
14	0xb8d35c02	-0.00010078402
15	0x3e5bbbd2	0.21458367
16	0x3e238ba7	0.15971242
17	0x3e39fb42	0.18162253
18	0x3d6cd3e6	0.05781927
19	0x3dbf33ae	0.09336029
20	0xbc9a6230	-0.018845648
21	0x3e43890e	0.19095251
22	0x3e8892fd	0.26674643
23	0x3d71736d	0.05894797
24	0x3e6badb3	0.2301548
25	0xbcaee9b8	-0.02135168
26	0x3e5f3f5c	0.21801513
27	0x3dbded3c	0.092737645
28	0xbdbd459f	-0.09241795
29	0x3dac43ee	0.08411394
30	0xbd4e4f23	-0.05036844
31	0x3e804d80	0.25059128
32	0xbe4af366	-0.19819412
33	0xbdc84be7	-0.09780102
34	0xbcc0b972	-0.023525927
35	0x3cdd57a2	0.027019326
36	0xbd6643dc	-0.05621706
37	0x3e4bdd49	0.19908632
38	0xbc374945	-0.011186902
39	0xbdc1c565	-0.09461478
40	0xbe876c82	-0.26449972
41	0x3e280a60	0.16410208
42	0xbe621f45	-0.22082241
43	0xbe93075f	-0.2871656
44	0xbe712bcd	-0.23551865
45	0xbd859bb2	-0.06523837
46	0x3dc82d6e	0.0977429
47	0x3dbc464e	0.09193097
48	0x3df79362	0.12088658
49	0xbe124459	-0.14283885
50	0x3c3f9bcb	0.011694859
51	0x3d9ee698	0.07758826
52	0xbe317060	-0.17328024
53	0x3d864b47	0.06557327
54	0xbcec5b8a	-0.028852243
55	0x3e74f8fc	0.23923105
56	0x3e29a7b0	0.16567874
57	0x3db179c9	0.08665807
58	0xbbb95555	-0.0056559243
59	0x3be800c2	0.0070801685
60	0x3e1d6a79	0.15372647
61	0x3ceaf0a4	0.0286792
62	0xbc0fb55c	-0.008771267
63	0x3dd40023	0.103515886
64	0x3e3d18a4	0.18466431
65	0x3e46faba	0.19431582
66	0xba22e746	-0.0006214272
67	0xbc469640	-0.012120783
68	0xbde435eb	-0.111430965
69	0x3d066d01	0.032818798
70	0x3d95ba65	0.073109426
71	0xbd1a6fd7	-0.037704315
72	0x3ca2f961	0.019894304
73	0x3e18c598	0.14919126
74	0xbe2cc10a	-0.16870514
75	0x3e457a61	0.19284965
76	0x3d2851dc	0.041093692
77	0x3c8a40ac	0.016876541
78	0x3e0def58	0.13860834
79	0x3d7b4b65	0.0613512
80	0x3ddcb6e2	0.1077707
81	0xbdb6cc95	-0.0892574
82	0xbe0c9584	-0.1372891
83	0xbdbb8f6e	-0.091582164
84	0xbc7f8993	-0.015596765
85	0xbd843681	-0.06455708
86	0x3c689012	0.014194505
87	0x3a976612	0.0011550805
88	0xbe2f5f7e	-0.17126271
89	0x3dec403b	0.115356885
90	0x3caf3cc7	0.021391286
91	0xbdf8e914	-0.12153831
92	0xbd19c6af	-0.037542995
93	0x3df21abd	0.11821506
94	0xbe93a483	-0.2883645
95	0x3e592a45	0.21207531
96	0x3d914dba	0.07094903
97	0x3e2177e2	0.15768388
98	0xbe232781	-0.15933038
99	0xbdc0aeeb	-0.09408363
100	0xbdab9a07	-0.08378988
101	0xbbe09a14	-0.006854305
102	0xbe649105	-0.22320946
103	0x3dd17e3b	0.10229155
104	0xbe6e7ce3	-0.23289828
105	0x3e01a2e9	0.12659802
106	0xbdf8eac5	-0.12154154
107	0x3db14b4b	0.08656939
108	0xbc205796	-0.009786507
109	0xbc407c40	-0.0117483735
110	0x3dc5f784	0.096663505
111	0x3e3a3572	0.1818445
112	0x3e226091	0.1585715
113	0x3d501e2c	0.050810024
114	0x3c468def	0.012118801
115	0xbe98e653	-0.29863223
116	0xbe2e9ff9	-0.17053212
117	0xbe20ddf4	-0.15709668
118	0xbe8a609a	-0.27026826
119	0xb9910e17	-0.00027667053
120	0xbe105204	-0.14093786
121	0x3ca82482	0.02052522
122	0x3e10fb23	0.14158301
123	0x3e687caf	0.22703813
124	0xbda3155e	-0.0796306
125	0x3d3c4d5e	0.04597222
126	0xbe036fd5	-0.1283563
127	0xbea0c5c6	-0.3140089
128	0x3e223f0d	0.15844364
129	0x3e0d1795	0.13778527
130	0xbe3bb666	-0.18331298
131	0xbe37a243	-0.17932992
132	0x3dadc3c4	0.08484605
133	0xbc3276da	-0.010892594
134	0x3e24b920	0.16086245
135	0x3d5e466d	0.054266382
136	0xbe1cae83	-0.15300946
137	0x3e1b6438	0.15174949
138	0x3d82ec1c	0.063926905
139	0x3de88a6f	0.11354529
140	0xbd84a8fe	-0.06477545
141	0x3c42d82a	0.011892358
142	0xbdb4f880	-0.0883646
143	0xbe885580	-0.2662773
144	0xbbf18b7c	-0.007371364
145	0xbe30f3c0	-0.17280483
146	0xbe32714e	-0.17426035
147	0x3dfe892d	0.12428508
148	0xbdc111f3	-0.09427252
149	0xbd917d3d	-0.071039654
150	0xbe5ea9a8	-0.21744406
151	0x3d43e7e9	0.04782859
152	0xbe51fac5	-0.20505817
153	0x3e4e9ee5	0.20177801
154	0x3d9e58e5	0.07731799
155	0x3e0cd247	0.1375209
156	0x3ddc131a	0.10745831
157	0xbe38a636	-0.18032154
158	0x3d5d83e5	0.054080863
159	0x3e43972a	0.19100633
160	0x3d9ca520	0.076486826
161	0x3d4333d1	0.047656838
162	0x3e48c7d3	0.19607477
163	0xbd190f92	-0.037368365
164	0x3de729f2	0.11287297
165	0x3cf55c8b	0.029951354
166	0x3c6811c0	0.014164388
167	0x3da01885	0.07817177
168	0xbdead9cf	-0.11467325
169	0xbe5b0d54	-0.21391803
170	0x3e0cd623	0.13753562
171	0xbdeaf3fa	-0.11472316
172	0x3d74c9d7	0.059762802
173	0xbbb4a962	-0.005513356
174	0xbe777f91	-0.24169756
175	0x3c6522a3	0.013985309
176	0x3e18f1d0	0.14935994
177	0x3ded7836	0.11595194
178	0xbdd14b1f	-0.10219406
179	0xbccf8b30	-0.025334924
180	0x3d79ce8c	0.060987994
181	0xbd831b0d	-0.06401644
182	0x3e55abea	0.20866361
183	0x3df8aa77	0.121418886
184	0xbda06452	-0.078316346
185	0x3e5c2574	0.21498662
186	0x3e06cc79	0.13163938
187	0x3e656738	0.22402656
188	0xbdc45fe7	-0.095886044
189	0xbdee3d79	-0.11632819
190	0xbdce6e13	-0.10079589
191	0x3ea6911c	0.32532585
192	0xbdf5fc1c	-0.12010977
193	0x3dbee724	0.0932143
194	0xbe7cb4f0	-0.24678397
195	0x3e85efab	0.26159415
196	0x3d9f6bb8	0.077842176
197	0xbe416123	-0.18884711
198	0xbe61b75e	-0.22042605
199	0xbd768d3f	-0.060193297
200	0xbe3b05b7	-0.18263899
201	0x3db18e9c	0.08669779
202	0xbd0117e9	-0.031516943
203	0xbe86bd4c	-0.26316297
204	0x3d8007f8	0.0625152
205	0x3cc3a36c	0.023881637
206	0x3d9b65fa	0.0758781
207	0x3c4de1de	0.012566058
208	0x3de075f5	0.109599985
209	0x3e453e44	0.19262034
210	0xbd8fa195	-0.07013241
211	0xbe7450c1	-0.2385893
212	0xbd4edce4	-0.050503626
213	0xbe87f485	-0.2655374
214	0x3e3c22c7	0.18372642
215	0xbd814f98	-0.063140094
216	0xbd65d327	-0.056109574
217	0x3d8b6f6c	0.068083614
218	0x3cff78f6	0.031185608
219	0xbdf0c48e	-0.1175624
220	0xbd819c24	-0.063286096
221	0x3e8caa56	0.27473706
222	0x3e6e5c69	0.23277439
223	0x3e1933c2	0.1496115
224	0x3ce86bed	0.028371776
225	0xbbb272fa	-0.005445835
226	0x3d1fe139	0.03903315
227	0xbe43eda7	-0.19133626
228	0x3d6f1b61	0.05837572
229	0x3dc4ff4a	0.09619005
230	0x3c65901c	0.014011409
231	0x3e975f1f	0.2956476
232	0x3e6a2370	0.22865081
233	0x3c90dd67	0.017683698
234	0xbd7b8a69	-0.061411295
235	0x3e573486	0.2101613
236	0x3d035edc	0.032072887
237	0x3aeb6caf	0.0017961467
238	0x3d7e6b31	0.062113944
239	0xbd8d982a	-0.069137886
240	0x3c819d93	0.015822208
241	0x3dd85faa	0.105651215
242	0x3d7b10e7	0.061295416
243	0x3d845f17	0.064634494
244	0xbe56c90f	-0.20975135
245	0x3d1ae554	0.03781636
246	0x3d9efa34	0.07762566
247	0xbe6093fc	-0.21931452
248	0xbe05cd74	-0.13066655
249	0x3e456d22	0.19279912
250	0xbe162425	-0.14662226
251	0xbd9d61bb	-0.07684656
252	0x3e65a651	0.22426726
253	0xbda8fb26	-0.08251028
254	0x3dce4774	0.10072222
255	0x3d8a205f	0.067444555

fc1.bias f4 [16]
0	0x3e987875	0.297794
1	0x3dad5032	0.08462562
2	0xbe87f789	-0.26556042
3	0xbde127c7	-0.10993915
4	0xbe4c4d18	-0.19951284
5	0xbe01c917	-0.12674366
6	0x3e6edb70	0.23325896
7	0xbe3db0fd	-0.18524547
8	0xbe06cfdd	-0.13165231
9	0xbd0b6608	-0.03403285
10	0x3e87280d	0.26397744
11	0x3e9151eb	0.2838281
12	0x3c2ef511	0.010678546
13	0xbe6bd1bd	-0.23029228
14	0x3ea0c6a8	0.31401563
15	0x3e1f84bf	0.15577982

fc2.weight f4 [12, 16]
0	0x3e07a520	0.13246584
1	0xbd68f6d7	-0.05687603
2	0xbe54d214	-0.20783263
3	0x3d87c6e5	0.06629733
4	0xbe0eed63	-0.13957743
5	0x3be5a451	0.0070081134
6	0xbdddbb53	-0.10826745
7	0xbe82d15f	-0.25550362
8	0xbde9be8e	-0.114132985
9	0x3e4cf08e	0.2001364
10	0x3e145fbd	0.14489646
11	0x3dfda2d6	0.12384574
12	0x3e10cdd4	0.14141017
13	0x3d3ca724	0.046057835
14	0x3de9db6d	0.11418805
15	0x3e0a568b	0.13509576
16	0x3d979c4d	0.07402859
17	0x3e4f0a18	0.20218694
18	0xbbcb623a	-0.006206778
19	0xbe088864	-0.13333279
20	0x3d0fe942	0.03513456
21	0x3e6bcfe4	0.23028523
22	0xbe46b1d1	-0.19403769
23	0xbe4a11a8	-0.19733298
24	0x3e4f5e19	0.20250739
25	0xbe705bcd	-0.23472519
26	0x3e2a16c4	0.16610247
27	0xbcdad127	-0.02671106
28	0x3d957caa	0.072991684
29	0xbd7f242d	-0.06229036
30	0xbe511957	-0.20419823
31	0x3e3be6d6	0.18349776
32	0xbdfca16c	-0.12335476
33	0x3dfa5b04	0.12224391
34	0x3da5420c	0.08069238
35	0x3c760640	0.015016139
36	0xbe4985c6	-0.19679937
37	0xbe34bb8c	-0.17649668
38	0x3d434518	0.047673315
39	0x3e43496a	0.19070974
40	0x3cc62d50	0.024191529
41	0x3dc24870	0.094864726
42	0xbe6c8fe0	-0.23101759
43	0xbe7cf6f8	-0.24703586
44	0xbd6cdb48	-0.05782631
45	0xbe7ce2de	-0.24695918
46	0xbcd05730	-0.0254322
47	0x3c9b5e40	0.01896584
48	0xbe1cd00d	-0.1531374
49	0x3c3436b9	0.010999375
50	0xbd6ff089	-0.058579
51	0x3bc3d86f	0.0059767286
52	0x3dc58a59	0.09645528
53	0x3d7e89fb	0.062143307
54	0x3e2a7059	0.1664442
55	0x3e0ab99e	0.1354737
56	0xbe7c66dd	-0.24648614
57	0xbe5f43cd	-0.21803208
58	0x3e454ac8	0.19266808
59	0x3e18709e	0.1488671
60	0x3cb9e6de	0.022693094
61	0x3e0315cc	0.12801284
62	0xbde5dc97	-0.11223715
63	0x3d21d13c	0.039506182
64	0x3dc33d97	0.09533232
65	0x3d5bd089	0.05366567
66	0x3e0be8a9	0.13662972
67	0x3e850c07	0.2598574
68	0xbd50fba3	-0.05102123
69	0xbdd9902e	-0.10623203
70	0xbdafd794	-0.0858604
71	0xbe2a6224	-0.16639
72	0xbc9c52db	-0.019082477
73	0xbb8cd7c9	-0.0042981845
74	0x3e0083c1	0.1255026
75	0x3e750c64	0.23930508
76	0xbdcca5c9	-0.099925585
77	0xbd82c5d7	-0.06385391
78	0x3e83c4ed	0.2573618
79	0x3d8aabda	0.06771059
80	0x3df48c92	0.11940874
81	0x3e865a4c	0.26240766
82	0x3e0e2154	0.13879901
83	0xbd48a3a9	-0.048984203
84	0xbdf41ff0	-0.11920154
85	0xbd87a675	-0.06623546
86	0xbd72fab1	-0.05932111
87	0xbd30ab47	-0.043132093
88	0x3d46be49	0.048521314
89	0x3dc07715	0.09397713
90	0x3e03a4e6	0.12855873
91	0xbe086e22	-0.13323262
92	0x3e0b44d4	0.13600475
93	0xbde1cc8b	-0.110253416
94	0xbd1077b6	-0.035270415
95	0x3e187ec5	0.14892109
96	0x3d2fb30c	0.04289536
97	0x3e7d5ffa	0.24743643
98	0x3e80782d	0.25091687
99	0xbdabce21	-0.08388925
100	0xbe1b122e	-0.15143654
101	0x3d91ea1f	0.07124733
102	0x3e90b8a9	0.28265885
103	0xbea127ff	-0.31475827
104	0xbde1de98	-0.110287845
105	0x3da61bce	0.08110772
106	0x3e5d3240	0.216012
107	0x3de2b424	0.11069515
108	0x3da47af3	0.08031263
109	0xbe3bf3e1	-0.18354751
110	0x3d4e764d	0.05040579
111	0x3e3054cc	0.17219847
112	0xbde26124	-0.11053684
113	0xbdbba4be	-0.091622815
114	0x3e31598e	0.17319319
115	0x3e1e8fda	0.15484563
116	0xbb8b0f98	-0.0042438023
117	0x3dc0bbc6	0.09410815
118	0x3e10257c	0.14076799
119	0x3dcf62f2	0.10126294
120	0x3e3b780e	0.18307516
121	0xbddefe83	-0.10888388
122	0x3e6c354b	0.23067205
123	0x3cc9b479	0.024622189
124	0x3e19caaf	0.15018724
125	0xbe686c21	-0.22697498
126	0xbe7a0206	-0.24414834
127	0x3d67766d	0.056509424
128	0xbe2fb799	-0.1715988
129	0x3d95f04c	0.073212236
130	0xbd4164c8	-0.047215253
131	0x3e2c6f97	0.16839443
132	0xbd911157	-0.070833854
133	0xbe1e6e27	-0.15471707
134	0x3e48872b	0.19582812
135	0xbe5b945d	-0.21443315
136	0xbe0a8547	-0.13527404
137	0x3e5c9d2b	0.2154433
138	0x3e3dbc18	0.18528783
139	0xbe3aa02e	-0.18225166
140	0xbe8aa0e3	-0.27075872
141	0xbd3cefa3	-0.046126973
142	0xbe1d94e2	-0.15388826
143	0xbd0b045a	-0.033939697
144	0x3e410393	0.1884902
145	0x3e2e7d95	0.17040093
146	0x3d0b6a80	0.034037113
147	0xbc8f40c3	-0.017486935
148	0x3da9af26	0.0828536
149	0x3e9996cc	0.2999786
150	0x3e90f28e	0.28310055
151	0xbe02b710	-0.12765145
152	0xbd9e667a	-0.077343896
153	0xbc8c55df	-0.01713079
154	0x3e327f0e	0.1743128
155	0xbc02e1db	-0.007988418
156	0x3e7af4b9	0.24507417
157	0x3e250184	0.1611386
158	0x3e406396	0.18787989
159	0x3d67678a	0.056495227
160	0xbd416908	-0.047219306
161	0xbe1a1299	-0.15046157
162	0xbd7f3578	-0.06230685
163	0x3dc566a9	0.096387215
164	0xbe646c7f	-0.22307013
165	0xbd838d8f	-0.064234845
166	0x3e0fb469	0.14033665
167	0xbe49fc26	-0.19725093
168	0xbdae89c8	-0.085223734
169	0xbdce7b10	-0.10082066
170	0x3d8cca5b	0.06874534
171	0xbe0bdfdf	-0.13659619
172	0x3d42e640	0.047582865
173	0xbd9871f7	-0.07443612
174	0x3de0016f	0.109377734
175	0xbb6a8bb2	-0.0035788831
176	0xbb491331	-0.0030681605
177	0xbdfb2882	-0.122635856
178	0xbe65908d	-0.22418423
179	0x3e44586e	0.19174358
180	0x3e170c0b	0.14750688
181	0x3e0eb72c	0.13937062
182	0xbddec88a	-0.108780935
183	0xbd1fe03e	-0.039032213
184	0xbd86af99	-0.06576461
185	0x3e019d2b	0.12657611
186	0x3d4b98ae	0.049706154
187	0x3deb6fd6	0.114959404
188	0xbe01fa94	-0.12693244
189	0x3d96fa72	0.073719874
190	0x3e45bca8	0.19310248
191	0x3a9afc38	0.0011824435

fc2.bias f4 [12]
0	0x3e06fb4d	0.13181801
1	0xbd7ece7f	-0.06220865
2	0xbe0860c4	-0.13318163
3	0xbdf805ed	-0.12110505
4	0x3e65ead0	0.22452855
5	0xbd96377f	-0.07334804
6	0xbd835f83	-0.06414702
7	0xbe4ebc80	-0.20189095
8	0xbdf43006	-0.11923222
9	0x3da45a67	0.080250554
10	0x3cafe676	0.021472197
11	0x3e0e9af6	0.139263

fc3.weight f4 [10, 12]
0	0x3dd3ccaf	0.10341775
1	0x3dee5377	0.116370134
2	0xbe2792d9	-0.16364612
3	0xbe683a78	-0.22678554
4	0xbd251a27	-0.040308144
5	0xbe107c3c	-0.14109892
6	0x3e5e8bb5	0.21732982
7	0xbe11d792	-0.1424239
8	0xbe7756d4	-0.24154216
9	0x3e8517e1	0.2599478
10	0xbccc82f7	-0.024964793
11	0x3cd3ce94	0.02585534
12	0x3e3293ae	0.17439148
13	0xbdb76027	-0.089538865
14	0xbdaf7140	-0.085665226
15	0x3c560062	0.013061615
16	0x3db69e8a	0.08916958
17	0xbda54fb2	-0.08071841
18	0x3e6530e9	0.22381939
19	0x3e554e93	0.20830755
20	0xbc4d7c62	-0.012541862
21	0x3e6acc32	0.22929457
22	0xbe31d292	-0.17365482
23	0xbe21b533	-0.15791778
24	0xbd84e916	-0.0648977
25	0xbd8a0b88	-0.06740481
26	0x3dbb9d34	0.091608435
27	0x3e1d784a	0.15377918
28	0x3e716d3a	0.23576823
29	0xbd001c82	-0.031277187
30	0x3e8470c9	0.25867298
31	0x3ea121e1	0.3147116
32	0x3e820783	0.25396356
33	0x3ca72a6f	0.020405976
34	0xbd8d6dd5	-0.069057144
35	0xbd7f5b5b	-0.062342983
36	0xbe1aae61	-0.15105583
37	0xbddc327f	-0.10751819
38	0x3d7b0208	0.061281234
39	0x3da72c68	0.08162767
40	0x3dcbc641	0.09949923
41	0x3e85c127	0.26123926
42	0x3e21bd0c	0.15794772
43	0x3ea10d91	0.31455663
44	0x3e21ed32	0.15813139
45	0xbcb44272	-0.02200434
46	0x3e1f0102	0.15527728
47	0x3e8e5019	0.27795485
48	0x3d59fdc2	0.053220518
49	0x3d96443b	0.07337233
50	0x3dada3fc	0.08478543
51	0x3d6e49d3	0.058175873
52	0xbc38a76a	-0.011270383
53	0x3c95483b	0.018222919
54	0x3e5eae7e	0.21746251
55	0x3dd192d4	0.10233083
56	0xbce9f022	-0.028556887
57	0x3e0de480	0.13856697
58	0x3d0fe8f7	0.035134282
59	0x3dc25e9d	0.09490702
60	0x3e7d0dcd	0.24712296
61	0x3e79b807	0.24386607
62	0xbe2292ae	-0.15876266
63	0xbd798125	-0.060914177
64	0x3d500e5a	0.050794937
65	0xbdee291c	-0.11628935
66	0x3d43aff5	0.047775228
67	0xbe461a76	-0.19346032
68	0x3c55bbcf	0.013045265
69	0x3c0f4a73	0.008745777
70	0x3e71d5c4	0.23616701
71	0xbb9d5461	-0.0048013185
72	0x3df2a5f5	0.1184806
73	0xbdb3171b	-0.087446414
74	0x3e906ae2	0.28206545
75	0x3d81713c	0.06320426
76	0xbd1a97c3	-0.037742388
77	0xbdb14566	-0.08655815
78	0x3e98f257	0.2987239
79	0xbe1857d0	-0.14877248
80	0xbe525795	-0.20541222
81	0x3d42b758	0.04753813
82	0x3e8005a0	0.25004292
83	0x3e075fee	0.13220188
84	0x3e46b813	0.19406156
85	0x3e977296	0.2957961
86	0x3db38268	0.087651074
87	0xbe53eb02	-0.20695117
88	0x3e0c41c1	0.13696958
89	0x3e1ab027	0.1510626
90	0xbd153be8	-0.036434084
91	0x3e6ed1b3	0.23322181
92	0xbe643f9b	-0.22289889
93	0x3d896a2f	0.06709706
94	0xbc8e2140	-0.01734984
95	0xbcd226d8	-0.025653288
96	0xbcbc6d15	-0.023001233
97	0x3e29fe37	0.16600882
98	0xbe22b4f6	-0.15889344
99	0xbd8f25ff	-0.06989669
100	0x3e8b8d12	0.27256066
101	0x3d54f4fa	0.05199144
102	0xbbd9b84d	-0.006644285
103	0xbe70ebc3	-0.23527436
104	0xbd104ae4	-0.03522767
105	0x3dd0fd69	0.10204584
106	0xbe11d6e1	-0.14242126
107	0x3d07ec3b	0.03318427
108	0x3e834a4b	0.2564262
109	0x3dd1371c	0.102155894
110	0x3e661a38	0.22470939
111	0xbe2ca816	-0.16860995
112	0x3da5790a	0.08079727
113	0xbe21ed3a	-0.15813151
114	0x3d90d9ec	0.07072815
115	0x3d845afc	0.064626664
116	0x3e13a8ec	0.14419907
117	0x3e3734ca	0.17891231
118	0xbe40e2cb	-0.18836515
119	0xbe004dc8	-0.12529671

fc3.bias f4 [10]
0	0x3d546a08	0.05185893
1	0xbd6caafd	-0.057780255
2	0xbd5ff5b0	-0.054677665
3	0xbd13eb29	-0.036112938
4	0x3d0e0725	0.034674782
5	0x3e8c31b8	0.27381682
6	0x3ddea882	0.10871984
7	0x3dd9df26	0.10638265
8	0xbdd4028b	-0.103520475
9	0x3de7b2d0	0.11313403
