Players/0.9_100_0.1_False.pth (torch, 5036 bytes, 6 tensors)

fc1.weight f4 [16, 16]
000000 01 78 3f 3c 37 27 fe bc e4 b6 52 3e ce 38 2a 3d
       0.011686326 -0.031024558 0.2057758 0.04155808
000010 9e 5d d3 bd 93 9b 3d 3e a1 a5 da 3d 83 b5 9d 3d
       -0.103205904 0.18516378 0.106761225 0.07700636
000020 7c 9a 31 be cf c9 fe 3c d8 aa 66 3c a2 f0 ae bd
       -0.17344087 0.03110209 0.014078818 -0.08541991
000030 44 29 c5 bb 22 f1 f4 bd 90 34 7c bd eb 67 9a 3e
       -0.006016882 -0.11960055 -0.061573565 0.30157408
000040 e2 ce 6d be 98 64 d2 bd 38 55 5e bd dc ed 73 be
       -0.23223451 -0.10273093 -0.05428049 -0.23821205
000050 f8 6f 5d be 60 a5 66 be ba 4c 29 be 80 70 b8 bc
       -0.21624744 -0.22524023 -0.16533175 -0.022514582
000060 cc 4e aa 3d 78 40 1d 3d 26 5a 60 be fc 93 87 bd
       0.083158106 0.03839156 -0.21909389 -0.06620023
000070 e8 ae 00 3d 40 1e dd 3c 94 83 bd 3d 98 08 a4 3d
       0.031416804 0.026991963 0.09253612 0.08009452
000080 d9 c8 63 3e be 73 4c 3d c6 10 e6 bd f2 8c 80 be
       0.22244586 0.049915068 -0.11233668 -0.25107533
000090 88 54 81 be af 88 39 3d e3 97 e1 3d 89 07 95 be
       -0.25259805 0.045296367 0.11015298 -0.2910731
0000a0 f1 b0 1d 3d c1 0b 48 be 3d ca 85 be 2b 6a ac 3c
       0.038498823 -0.19535734 -0.26130858 0.021046719
0000b0 59 b9 82 be 00 be 1c be bb ba 44 be 94 9a 6b 3d
       -0.25532034 -0.15306854 -0.19211857 0.057520464
0000c0 57 e2 12 3e 60 f0 c5 bd fd 06 7f be c7 d8 00 be
       0.14344154 -0.096649885 -0.2490501 -0.12582694
0000d0 1b ff bc be e1 dc 65 be 2c 52 07 3e 09 8f fb 3b
       -0.3691338 -0.2244754 0.1321494 0.007676963
0000e0 2b a4 2b 3e f1 e1 93 3d 1c aa 71 be a8 9f ea 3d
       0.16761844 0.07220829 -0.23600048 0.11456233
0000f0 b6 dd af bb 0b 7d 52 3d 85 02 0c 3d 29 9a 3f 3c
       -0.005367006 0.05138878 0.03418209 0.0116944695
000100 ca cf 4a be 74 2e b9 bd 5d 59 cc bd 97 cd 02 3e
       -0.19805828 -0.09042063 -0.09977982 0.12773739
000110 05 69 50 be 0f cc f5 bd 4a 40 0f be a2 f1 5a 3e
       -0.20352562 -0.12001812 -0.13989368 0.21381238
000120 3c 49 37 be fa 45 16 bd b5 99 17 3e 94 5a c8 bd
       -0.1789903 -0.03668783 0.14804728 -0.097829014
000130 92 08 d5 3d b5 d7 96 be be cc e2 bc 98 f7 5f 3c
       0.10402025 -0.29461446 -0.02768552 0.013669871
000140 2c 1e f9 3d b6 72 5a be a9 64 16 be dc 73 0d be
       0.12163958 -0.21332821 -0.14686836 -0.13813728
000150 f2 fd cf 3d 71 6a 55 be 99 9b 6a 3e 9c db 6a bd
       0.10155858 -0.20841385 0.22910918 -0.057338342
000160 1e fa 15 be da 8f 7d bb c6 04 85 be 78 39 c9 3b
       -0.14646193 -0.0038690479 -0.25980204 0.006140884
000170 0c af 41 be 55 9f 21 be 76 bd bf 3d 29 1e a7 3c
       -0.18914431 -0.15783437 0.09362309 0.020400124
000180 b0 10 6b 3e c7 b7 84 3e ed 53 29 3e ba 89 87 3e
       0.22955585 0.2592146 0.16535921 0.26472265
000190 a1 c4 8e 3e 3e 48 82 3e 5a f0 45 3e a3 f3 53 3e
       0.2788439 0.2544574 0.19329968 0.20698409
0001a0 d4 cd e9 3d 42 b0 21 be 9e f5 cc bd 1e 98 21 be
       0.11416212 -0.15789893 -0.10007785 -0.15780684
0001b0 df 38 6c 3c bb a9 6b 3c 6e 0f f7 3d 04 e1 2a 3e
       0.014417856 0.014383729 0.1206349 0.16687399
0001c0 d1 31 4d bd 42 a6 85 bd 89 b1 9c be 59 31 34 bc
       -0.050096337 -0.06525852 -0.306042 -0.0109980935
0001d0 e0 97 03 3e f0 86 24 be 16 7e 92 bd cb 69 cb 3d
       0.12850904 -0.160671 -0.07152955 0.09932288
0001e0 35 a1 1a be 68 05 49 3c 6d a6 b9 3d 89 7a 82 be
       -0.15100558 0.012269355 0.09064946 -0.25484112
0001f0 1b 34 2f bd 53 46 a5 3d 06 ed 48 be fe da 30 bc
       -0.0427743 0.08070054 -0.19621667 -0.010794399
000200 af f6 f1 3d 23 bb 5c 3d ce 25 07 3d 2c d7 b0 bd
       0.11814629 0.053889405 0.032995038 -0.08634791
000210 ce 1e a0 3d 10 90 58 bd ff 15 59 3e 31 07 f6 3d
       0.078183755 -0.052871764 0.21199797 0.120130904
000220 90 b4 ce 3a 38 45 db bd 16 00 30 be 8d bb 82 bb
       0.0015770365 -0.10706562 -0.17187533 -0.003989643
000230 c8 47 91 be fd 73 53 be 36 53 10 be 15 39 84 3d
       -0.28375077 -0.20649715 -0.14094242 0.064562
000240 fa 11 05 3e 6b aa 35 3e 79 8e e7 bd 1f 16 1c 3e
       0.12995139 0.1774079 -0.113064714 0.15242814
000250 a9 cf 83 3e 73 48 94 3e 72 09 30 bd 65 18 36 bd
       0.2574437 0.28961524 -0.042977758 -0.04445686
000260 39 55 f1 bd 3f 27 30 be e1 2a 4b 3d 6d e2 0f be
       -0.11783833 -0.17202471 0.04960144 -0.14051218
000270 ae 4e 38 3e a2 31 2b 3e b0 c4 8f 3b 42 51 e3 3d
       0.17998764 0.16718152 0.0043874606 0.11099483
000280 b3 32 be bc 33 5e 29 be 46 c6 66 bd 5b 05 53 bd
       -0.023217535 -0.1653984 -0.056341432 -0.05151878
000290 c2 d6 a1 3c e0 f5 b5 bd 84 a9 69 bd 33 80 55 bd
       0.019755725 -0.088847876 -0.05704643 -0.052124213
0002a0 cd 87 e4 bd 2e e6 66 3e cd dd eb 3b f8 1b 50 3c
       -0.111587144 0.22548744 0.0071980716 0.012701981
0002b0 40 78 4f 3e 57 ea a8 3c 8f 45 20 be 65 fc c1 3e
       0.20260715 0.020619554 -0.15651534 0.37887874
0002c0 90 20 02 be e7 e3 f4 bc e0 85 b3 3d 06 07 c9 be
       -0.12707734 -0.029893829 0.08765769 -0.3926317
0002d0 3f 0f 7a be 1c d5 3a 3e 9c 26 1a be 10 56 ff bd
       -0.24419878 0.18245357 -0.15053791 -0.12467587
0002e0 1e 8e fd 3c 94 c8 4f be 37 6c 3f 3e f9 f9 3f 3e
       0.030951556 -0.20291358 0.18693624 0.18747701
0002f0 5a e1 7e be 5a d3 52 3d 62 c9 31 3e 58 41 a2 3e
       -0.24890652 0.05147109 0.17361978 0.31690478
000300 f1 e4 99 bd 15 5c 80 be e6 6f 56 bd 82 da 58 3b
       -0.0751437 -0.25070253 -0.05235281 0.0033089225
000310 df 38 85 bc a4 7e 4e be 58 ed b2 bd 7b d9 94 be
       -0.01626247 -0.20165497 -0.08736676 -0.29072174
000320 f8 8c 01 3e 98 81 f0 b8 40 8d 26 3e 08 5f 71 be
       0.12651432 -0.000114682305 0.1626482 -0.23571408
000330 3a 5d 53 3d 84 26 94 bd 1a 02 32 3e f2 23 2d 3e
       0.05160258 -0.07233909 0.17383614 0.16908243
000340 ac a6 8b bd 1d ee a5 3d 14 93 a9 bd 0a 71 06 3e
       -0.068188995 0.08102057 -0.08280006 0.13129058
000350 ad e6 8c be 54 86 e2 bd ad 05 22 bd cb 2c a2 bd
       -0.27519742 -0.11060777 -0.039556194 -0.079187
000360 3c cb 55 bd e9 ff 66 be 51 98 f0 3c a2 8e f6 bd
       -0.052195773 -0.2255856 0.029369505 -0.12038924
000370 4e 9f 3a be dd 29 b6 bd fc fa 07 be a8 ca 48 be
       -0.18224832 -0.088947035 -0.13279337 -0.19608557
000380 e6 e2 ca bb 1b 48 68 3e 48 93 1b 3d 5f 27 a1 be
       -0.006191599 0.22683756 0.037982255 -0.3147535
000390 ce ac 80 3d 2c cf a2 3d 5c d5 29 be d8 b8 f4 bd
       0.0628296 0.07949671 -0.16585296 -0.11949319
0003a0 87 1a 1c 3e 0d 20 d1 bc ba 6c 0f be 0e 3a 2d bd
       0.15244494 -0.025527978 -0.1400632 -0.042291693
0003b0 26 d0 e9 bb 8f b1 61 bd db af 36 be 8e 15 b5 3d
       -0.007135409 -0.055100974 -0.17840521 0.08842002
0003c0 8c ad 68 3e 0b 2f 90 3e 6b 7c 08 3e b8 be c2 3d
       0.22722453 0.2816089 0.13328712 0.09509033
0003d0 0d 89 b7 bd 77 c1 a1 3e 8a 6f bb 3c 0d dd 81 3e
       -0.08961687 0.31592914 0.022880334 0.2536396
0003e0 ac ea 90 3e 23 67 9f bd c7 f1 ce bd cb fc 75 bc
       0.2830404 -0.07783344 -0.10104709 -0.015013884
0003f0 27 88 8a be 9f a0 ce bd 67 17 36 3c a1 4d 62 bd
       -0.27057 -0.1008923 0.011113978 -0.055249814

fc1.bias f4 [16]
000000 f1 1b 5b 3e 24 9b 1d be 39 01 0d 3e 31 d6 18 be
       0.21397378 -0.15391213 0.13769998 -0.14925458
000010 d9 6f 4a 3e 14 55 28 bd e0 23 71 bc cb 75 ea 3d
       0.19769229 -0.04109676 -0.014718026 0.114482485
000020 94 69 d1 3c b7 02 99 3e 3f 94 80 3e 42 c9 46 3e
       0.025563039 0.29884884 0.25113103 0.19412711
000030 9e e3 32 be 2a 9e 1d bd 81 36 94 3d 71 c5 29 3e
       -0.17469642 -0.038480915 0.07236958 0.16579224

fc2.weight f4 [12, 16]
000000 a7 99 b4 3c 7e 2b 4e 3e 3d 9a 80 bd 48 0e cd bc
       0.022045923 0.20133778 -0.062794186 -0.025031224
000010 1d 24 84 3e 01 1f e6 bd 22 f0 09 be 41 96 90 be
       0.25808802 -0.11236382 -0.1347051 -0.28239635
000020 c8 be b1 3e cd 7b cf bd 36 f9 13 3e 28 d9 1c 3e
       0.34715867 -0.10131035 0.14450535 0.15317214
000030 41 ae 3a 3e f9 32 d2 bd 0d a0 60 3c 8e 4e c6 bd
       0.18230535 -0.102636285 0.013710034 -0.09682952
000040 55 05 87 3e a8 5e b9 3d d7 15 15 be 8a 93 8a bb
       0.26371256 0.09051257 -0.14559112 -0.004229014
000050 55 38 3a 3d c4 d3 36 be 8f 3d d3 bd 7a 8b 45 bd
       0.04546388 -0.1785422 -0.10314476 -0.04822872
000060 37 c6 cc 3d f2 8c 1e 3e 28 ba 73 3e 83 ba 7a 3e
       0.09998744 0.15483454 0.23801482 0.24485211
000070 a2 4e 82 3b b3 cf 11 bd fd 23 ad bd a6 e6 65 3e
       0.003976659 -0.035598468 -0.0845413 0.22451267
000080 1c 56 19 3e 40 39 4c be be e0 47 3d 4d 2a 68 3d
       0.14974254 -0.19943714 0.048798315 0.056680966
000090 c9 74 4b be ac 08 66 be 56 7a bf 3c bd c7 3e bd
       -0.19868769 -0.22464246 0.023373764 -0.046577204
0000a0 95 ae 73 bd 7b b0 3f be 53 ed 80 bd 9b fc 45 3e
       -0.059492666 -0.18719666 -0.06295266 0.19334643
0000b0 57 1e e3 3d 00 51 e2 3d 21 3e a4 3d b0 12 ba bd
       0.11089771 0.11050606 0.08019663 -0.090855956
0000c0 bc 2f ba bc d8 9d d3 3d 45 15 4f 3e 55 a6 3c be
       -0.02272784 0.10332841 0.20222957 -0.18422826
0000d0 97 62 00 be e0 25 a4 bc ab f7 81 3d ac 6f 53 be
       -0.12537609 -0.020037591 0.06346067 -0.20648068
0000e0 93 47 6d 3c 2e c3 cb 3d ba 12 6e 3e 95 47 b2 3c
       0.014482397 0.09949337 0.23249331 0.021762649
0000f0 f3 10 63 3d d9 93 a9 bd 7c 98 53 bb a0 72 a1 3e
       0.055436086 -0.08280153 -0.0032286933 0.31532764
000100 ed 6a 05 bd aa b7 57 be 65 ab 20 3e 06 2b a4 3e
       -0.032572675 -0.21066156 0.15690382 0.32064074
000110 c1 56 cf bd f0 3e 4c bd 96 be 20 bf 21 bc ad 3d
       -0.10123969 -0.04986471 -0.6279081 0.08483148
000120 c5 fc 18 3e cb 42 b1 3d 3c 83 44 3e db bc 25 3e
       0.14940174 0.08655318 0.19190687 0.16185324
000130 c4 ae 02 3e d7 f7 9c 3d c0 f4 8e bd 55 f7 45 be
       0.1276198 0.07664459 -0.06980276 -0.19332631
000140 f9 42 8d 3e a0 17 9a 3d 20 f6 41 be 4e eb a7 bc
       0.2759016 0.07524037 -0.18941545 -0.020497944
000150 4b 3b b7 be 28 73 95 3d 04 4e 2c 3d dc e5 ef bc
       -0.35787424 0.07297355 0.04206659 -0.02928441
000160 e8 75 78 3e 70 0f 33 3d 85 5e 3a bd de 9c a6 bc
       0.24263728 0.043715894 -0.045500297 -0.020338472
000170 f4 ba 1f be d6 dd 4e 3e ef f9 84 3d 13 d6 04 3d
       -0.1559866 0.20201811 0.064929835 0.03243072
000180 cf d3 73 bd 00 6d 15 3e 89 ce 82 bd 70 2b 81 bd
       -0.05952817 0.14592361 -0.0638705 -0.06307113
000190 ee 05 b0 3d 25 74 6a 3e 7c 92 3c 3c c2 e9 15 3e
       0.08594881 0.22895868 0.011509534 0.14639953
0001a0 7f b4 b9 3d e9 93 23 3e 93 3f 55 3e bc 9e 8e 3d
       0.0906763 0.15974392 0.20825033 0.0696387
0001b0 0e 39 f7 3c b7 ba 0c bd bc 3b 0d bc d6 fa 27 3e
       0.030178573 -0.034357753 -0.008620199 0.1640428
0001c0 41 20 6b be 20 3a 5d 3c 7e d4 2c 3e 1c ba 12 be
       -0.22961523 0.013502628 0.16877934 -0.14328808
0001d0 8f 24 51 3e 00 da 53 ba 71 0a 18 bc 35 e2 5a 3e
       0.20424102 -0.0008081496 -0.009279833 0.21375354
0001e0 54 4f 43 be 7e 57 46 3e 82 9a 26 be 23 42 9a 3d
       -0.1907323 0.19369313 -0.16269878 0.07532146
0001f0 60 3c 8e 3d 4e 68 08 3e 89 74 59 be 06 94 71 be
       0.06945109 0.13321039 -0.21235861 -0.23591623
000200 91 ae 25 3d c0 71 f3 bc 8b ee 4d 3b d5 14 0d be
       0.040449683 -0.029717326 0.00314227 -0.13777478
000210 13 85 96 3d 90 85 c5 3c 73 03 09 be eb e2 51 3e
       0.07349601 0.02411154 -0.13380222 0.20496719
000220 40 33 0e be 30 2a c4 3d cf 59 40 3d d1 aa 84 3e
       -0.13886738 0.09578359 0.04696065 0.25911573
000230 1a 24 4d bd 17 5b e1 3c 83 6c 7a be da 73 7f 3c
       -0.050083257 0.027509255 -0.24455456 0.015591586
000240 c9 52 57 3e 5a bb 76 be 96 e3 13 3d 38 b4 ad 3d
       0.21027674 -0.24094906 0.036105715 0.084816396
000250 e8 59 7a 3d ec 43 2e 3e 4f 93 23 be aa 59 3f bb
       0.061120898 0.17018098 -0.15974163 -0.002919773
000260 39 46 5a 3d 4d e4 fa 3d 0a 60 3e 3e 13 0d 4d 3c
       0.053289626 0.12250576 0.18591323 0.012515324
000270 80 a5 f6 bd be bb 52 3e 60 d6 f7 bc 90 8e 28 3e
       -0.12043285 0.2057943 -0.03025359 0.16460633
000280 8b 41 c5 bd c0 80 d9 3b c7 c3 31 be bc ad 3e be
       -0.09631642 0.0066376626 -0.1735984 -0.18620962
000290 90 b2 58 3d 2e 96 47 be 0c 96 fd 3d 5a d3 06 be
       0.052904665 -0.19490883 0.12382135 -0.13166562
0002a0 b9 99 35 3e ec ee 67 3e e9 fc 84 3d 3d 89 ad 3c
       0.17734422 0.22649735 0.06493551 0.021183604
0002b0 6d 59 41 be 8a 56 f4 bd 61 ae 00 bd 71 39 24 bd
       -0.1888177 -0.119305685 -0.0314163 -0.040093843
0002c0 df 8c 9a 3d ee a2 74 3e 03 12 5e be 6f 80 60 3e
       0.075464 0.23890278 -0.21686558 0.21923994
0002d0 5e b6 9e 3d 00 5a 66 ba 17 3a a7 be a1 7b 26 3c
       0.077496275 -0.0008787215 -0.32661507 0.010161311
0002e0 52 fe 91 ba af cb bf bd 07 59 c6 3c a9 9c 36 3e
       -0.0011138415 -0.093650214 0.024212373 0.17833199
0002f0 f3 ef a1 bd 10 18 53 be 24 85 22 be 48 dd 77 bd
       -0.07907095 -0.20614648 -0.15871102 -0.060513765

fc2.bias f4 [12]
000000 e5 34 1a 3e e6 df cc 3c e2 94 6f bd be 07 0c 3d
       0.1505924 0.025009107 -0.058491595 0.03418707
000010 ea e6 70 3d 73 cd 50 be 53 1a 80 3e a4 6a 71 be
       0.058813967 -0.20390873 0.25020084 -0.23575836
000020 17 f2 5d be 71 63 7e 3e a2 4e 09 be 58 34 64 3d
       -0.21674381 0.24842621 -0.13408902 0.05571398

fc3.weight f4 [10, 12]
000000 a5 01 e4 bd 42 16 95 3e 23 db 1b be 36 2b 9d bd
       -0.11133126 0.29118544 -0.15220313 -0.076742575
000010 30 1e 84 3e 65 ed 12 3d 2c c1 81 3e 58 d1 09 3e
       0.2580428 0.03587093 0.2534269 0.13458765
000020 ca d2 35 bd 7f ff 07 3e a3 41 41 bd e3 11 2b 3e
       -0.044390477 0.13281058 -0.047181737 0.16706042
000030 9a 0c 21 be b5 1a c8 3d 89 34 8b 3d c0 e5 31 bc
       -0.15727463 0.09770719 0.0679713 -0.010857999
000040 28 86 c3 3e 21 18 23 3e 97 cc d0 bd 08 d2 5a 3d
       0.3818829 0.15927173 -0.101952724 0.053422958
000050 27 8a 39 3e ce a6 d4 3e 2c e0 11 bc 28 f4 82 3c
       0.18119107 0.41533512 -0.008903544 0.015985563
000060 a4 bc 6c 3d 95 75 8a 3e 3d db cc 3e 62 dd 3f 3e
       0.05779709 0.27042833 0.40011016 0.18736795
000070 fc f2 4b 3e ea d4 c4 3d 4d e6 2e be 7c 8d 47 3e
       0.1991691 0.09610923 -0.1708004 0.19487566
000080 a8 7f 46 3a 38 c2 1f 3e a0 e8 6f 3d 31 59 b9 bc
       0.0007572123 0.15601432 0.058571458 -0.022625538
000090 e5 24 a3 3e 28 5a 6c bc 57 a4 d9 3d 4d 74 8e 3e
       0.31864086 -0.014425792 0.106270485 0.27823105
0000a0 59 fd 6c 3e fb 2b 70 3c d6 a4 0a be 40 90 1f bd
       0.2314352 0.014658923 -0.13539442 -0.038955927
0000b0 53 c1 f2 3b a5 3a 23 bd 30 4d 0c bd bc fb 8a 3e
       0.0074083 -0.03985085 -0.0342533 0.27145183
0000c0 6e 3c 8e 3e a7 26 6d 3d ea 76 b9 bd 78 3b f7 bc
       0.2778048 0.05789819 -0.09055884 -0.030179724
0000d0 d4 1d 17 3e e2 d5 88 3e 7e 54 14 3e 90 78 b4 bc
       0.14757472 0.2672568 0.14485356 -0.022030145
0000e0 05 a2 ed 3d 28 3e a1 bc ca 39 1c be 43 e7 21 bb
       0.116031684 -0.019682959 -0.1525642 -0.0024704493
0000f0 58 29 49 3d 09 94 65 3e 28 6b 1a be 0e 48 75 3e
       0.049111694 0.22419752 -0.1507994 0.23953268
000100 41 88 09 bc 67 21 00 3d 73 fa 0c bd 60 09 84 bc
       -0.008394302 0.031281855 -0.034418534 -0.016117752
000110 68 ee cc 3c b5 b7 d1 bc ec 1b 37 be 92 0a e7 3e
       0.025016025 -0.025600294 -0.17881745 0.45125252
000120 2f 90 68 3e ec 06 eb 3d e7 a9 28 3e c0 a4 99 3e
       0.22711252 0.114759296 0.16471063 0.30008507
000130 86 a6 5e 3e 55 70 be 3b 74 d4 20 3e c2 21 80 bd
       0.21743211 0.005811731 0.15706044 -0.06256439
000140 82 62 8b be 8c 8d 60 3d bc f9 ca bd 2c b0 63 3e
       -0.27223593 0.05482249 -0.09910914 0.22235173
000150 a1 bb a7 3d df fd a7 3d 82 0c 03 be c0 7e 58 3c
       0.08190084 0.08202719 -0.1279774 0.013213813
000160 09 52 31 3e dc e2 4e 3e 3c 79 eb ba 92 13 76 be
       0.1731645 0.20203727 -0.0017965208 -0.24030903
000170 6b 4e d2 3e 14 94 24 3e 67 03 dc bd 9a 79 2a 3d
       0.41075453 0.16072112 -0.107428364 0.041619875
000180 74 26 9f 3d c3 47 e2 3d 12 e3 da bd 64 36 19 be
       0.07771006 0.11048844 -0.106878415 -0.14962155
000190 89 e0 7a 3e 57 f7 11 3e 2a 34 ac 3e e8 1d cf 3d
       0.24499716 0.14254509 0.33633548 0.10113126
0001a0 fb bf e0 bc c1 fd a0 bd 66 f7 e4 bd 5a f9 4e 3e
       -0.027435293 -0.078609 -0.1118 0.20212308
0001b0 d2 c4 53 3e fa 1a 05 3e b9 ac 80 3e bc 22 20 bd
       0.2068055 0.12998572 0.25131777 -0.039095625
0001c0 b5 30 a4 3e ff 89 85 bd da 5a 74 be 20 93 33 bd
       0.3206841 -0.06520461 -0.23862782 -0.04384148
0001d0 b4 4d 79 be 74 ed 1c 3e e4 f3 b8 3e cc f1 95 3d
       -0.24346048 0.15324956 0.36123574 0.0732151

fc3.bias f4 [10]
000000 51 40 04 be 97 f5 80 3d 06 54 bc bc 4f 63 6a 3e
       -0.1291516 0.062968425 -0.022989284 0.22889446
000010 81 66 5e 3e f1 63 60 3d f8 d7 27 be 21 e8 52 3e
       0.2171879 0.05478281 -0.1639098 0.20596363
000020 45 0f 27 3e 54 7e 5d 3e
       0.16314419 0.21630222
