Players/0.9_100_1_True.pth (torch, 5006 bytes, 6 tensors)

fc1.weight f4 [16, 16]
000000 cd 12 3c be 54 39 7b be 94 95 1f be b0 20 a3 3d
       -0.18366547 -0.24533588 -0.15584403 0.07965219
000010 f6 d1 10 3e 48 f2 76 bd b2 4e 44 3e 79 a2 d0 3d
       0.14142594 -0.06028965 0.19170645 0.10187239
000020 19 8d 66 be 83 b8 b7 bd 51 82 ea bd 8a 91 53 3e
       -0.22514762 -0.0897074 -0.11450637 0.20660987
000030 12 d4 ac bd 6e ed c1 3d 2a 7b 28 ba fc 34 74 3e
       -0.08438887 0.09469114 -0.0006427044 0.23848337
000040 36 8b 92 3e 88 97 92 3e e4 a5 91 3d c7 f3 ea 3e
       0.28621835 0.28631234 0.07111719 0.45889112
000050 74 b6 84 3e 3b 60 8b 3e fe be a8 3d 48 95 a7 3e
       0.2592045 0.27221856 0.08239554 0.3273108
000060 f7 db 36 3e ad e9 1a be 7b ab 01 be e5 e4 96 bd
       0.17857347 -0.15128203 -0.12663071 -0.07367877
000070 c7 29 a2 3d 85 62 64 bd 46 41 1b 3b eb 41 5e bd
       0.07918125 -0.055758018 0.002369003 -0.054262083
000080 1c 73 4e be 4e da 87 be f4 99 68 bd 18 c5 d9 bd
       -0.20161098 -0.2653374 -0.056787446 -0.10633296
000090 eb 07 26 be f2 9d 1d be 82 35 6f be 2e 76 e9 3d
       -0.16213958 -0.15392283 -0.23360255 0.11399494
0000a0 34 75 fe bc ac f2 d6 3d 75 1a 05 3e 3a 8d 4e 3d
       -0.031061746 0.10495505 0.12998374 0.050427653
0000b0 68 b4 94 3c bb c4 d4 bd 2a 59 f7 bd d1 a6 fd bd
       0.01815243 -0.10389086 -0.120775536 -0.12385333
0000c0 6f f4 60 be f5 01 9d 3d 56 b2 8f 3d 60 68 7a 3e
       -0.21968244 0.07666389 0.07016437 0.24453878
0000d0 33 68 6d bb 6e 50 0c 3e b8 10 80 bd 4e 7f 0b be
       -0.0036225438 0.13702556 -0.06253189 -0.13622782
0000e0 4a 96 7c be f6 2b cf 3c 6c 94 46 3e c9 66 7c be
       -0.24666706 0.025289517 0.19392556 -0.24648584
0000f0 a1 ec ba bc 92 94 a7 3c 98 eb 45 bd 12 08 35 3b
       -0.022817912 0.020456586 -0.048320383 0.0027623218
000100 06 bb 92 be b6 2a 5f bd 49 93 ad bd d2 84 f4 3c
       -0.28658313 -0.05448409 -0.08475358 0.02984849
000110 aa 41 17 3d 70 0f 09 be 77 88 20 bd 9a 36 41 3e
       0.036927857 -0.13384795 -0.039192643 0.18868485
000120 2f 3f 58 be df ca 0a be ef b0 29 3e 34 3f db 3d
       -0.21117853 -0.13553952 0.16571401 0.107054144
000130 bf b9 2c bc bb e1 15 3d 65 65 7e 3e ab 15 35 3e
       -0.010542332 0.036592226 0.24843366 0.17684047
000140 0e ff 3b 3e 8b cb 61 3e e0 8b 02 be b3 38 bf 3c
       0.18359014 0.22050302 -0.1274867 0.023342466
000150 c1 a1 46 be b8 65 4d 3e b0 ab e8 bd 8a c5 87 be
       -0.19397642 0.20058334 -0.11360872 -0.26517898
000160 6a 0c 2f 3e d6 2f 59 be 84 0d 4c be 03 d0 71 3d
       0.1709458 -0.21209654 -0.19927031 0.059036266
000170 37 c9 cd 3d 2b 2e 52 be 7e aa 3f be 54 27 40 be
       0.10048144 -0.20525424 -0.18717381 -0.18765002
000180 fc 7a 62 bd 13 58 33 3e 76 49 28 be 3c 7a 58 3e
       -0.05529307 0.17514066 -0.16434273 0.21140379
000190 1e 3c a2 bc b4 16 cd bd 2e 8c 8e be 18 e5 93 3e
       -0.019804057 -0.10014096 -0.27841324 0.28885722
0001a0 fe c4 b8 bd 4e 11 5a 3d 2b 6c 15 3c 54 2c 01 be
       -0.09021948 0.05323916 0.009120028 -0.12614566
0001b0 6e 9b 7d bd 5f 4a 2c 3e f3 d2 8e 3e 48 ac d0 bc
       -0.061915807 0.16825245 0.27895316 -0.025472775
0001c0 9c e8 64 bd 06 0a cb bd 35 9f 91 be ad d0 46 be
       -0.055885896 -0.09914021 -0.28441778 -0.19415541
0001d0 ea 84 01 be b9 b4 ad 3e b7 2c 42 be 98 9d 93 be
       -0.12648359 0.33926943 -0.1896237 -0.28831172
0001e0 6d 81 85 3e 5b eb 11 be 89 9e 62 3e e5 6b ee bd
       0.26075307 -0.14249937 0.22130789 -0.11641673
0001f0 c0 59 24 be c3 05 d2 3d 29 0b 73 be 57 b8 d0 3c
       -0.16049862 0.10255005 -0.23734726 0.025478525
000200 b9 ba 1a be f1 cf a4 3d ea 52 8b be 74 15 a3 be
       -0.15110292 0.08047474 -0.27211696 -0.31852305
000210 11 eb 8a be e0 d5 92 bd ba d2 f7 3c e8 0b 43 3e
       -0.27132466 -0.071697 0.03025185 0.1904751
000220 5d 73 de bd 0b 3b bd 3c c8 d3 1e 3e a6 43 4b be
       -0.108618475 0.023099443 0.15510476 -0.19850025
000230 49 a8 ea bd 52 b6 06 be 97 1f 75 bd 08 66 16 3e
       -0.11457879 -0.13155487 -0.05984458 0.1468736
000240 b5 05 15 3d 8e 21 6e bc a1 08 1b be dc 15 12 be
       0.036382396 -0.014534367 -0.1514001 -0.14266151
000250 86 1d 6a 3a 8c 95 d2 bd 5f e0 ad 3c 6a 98 90 bd
       0.0008930791 -0.1028243 0.021225153 -0.07060321
000260 ed 6d bb bc 1f f9 99 3e 69 e3 f0 3d 36 79 43 bd
       -0.022879565 0.30072877 0.11762125 -0.047723018
000270 b8 ed f8 bd 22 67 bd bd 30 56 6e bd a8 87 25 be
       -0.12154716 -0.09248187 -0.058187664 -0.1616503
000280 ab a3 69 be 4c 3d 49 bd 96 12 95 be fb b6 74 be
       -0.2281634 -0.049130723 -0.29115742 -0.23897927
000290 3a bf 8a be 5e f1 57 bd a5 b4 45 be 82 ac 90 be
       -0.2709902 -0.05272042 -0.19307192 -0.28256613
0002a0 b7 a2 43 3d ae e1 f6 3d 06 50 ca 3d 19 f5 68 3e
       0.0477626 0.12054764 0.098785445 0.22749747
0002b0 ba 55 7c 3e 8d 16 f7 bc 0b 47 b5 3d 84 99 62 3e
       0.24642077 -0.03016212 0.08851441 0.22128874
0002c0 8a b6 dc 3d 6d 25 2f be 7c ed df 3d 77 1c 7c 3d
       0.10777004 -0.1710412 0.109339684 0.061550584
0002d0 fc d9 87 bd 14 0d 5c 3e b0 d8 94 bd f6 74 58 3d
       -0.06633374 0.21489364 -0.07267892 0.052845918
0002e0 23 13 70 be a4 ce 6c 3c 3c fd ca 3c b2 7b 52 3d
       -0.234448 0.014453564 0.024778955 0.051387496
0002f0 40 8d 79 3e 9a 0b ed bc 81 fa e5 bd 73 d8 ca 3d
       0.24370289 -0.028936196 -0.112294205 0.09904566
000300 ea 2f 70 3c 6d 29 dc 3e d7 a8 14 3d 9c 68 ad 3d
       0.014659861 0.43000355 0.03629383 0.08467218
000310 73 53 c3 3d 51 71 f6 3d ea a1 3b 3e f3 3a a3 3e
       0.09537401 0.12033332 0.18323484 0.31880912
000320 73 54 40 3e bc 64 75 be e4 55 48 be c9 e6 85 be
       0.18782215 -0.23964208 -0.19564015 -0.26152638
000330 22 6b 23 be eb 5a 3b 3d a8 6b 7d 3d ed 46 8f 3e
       -0.15958837 0.045741003 0.061870247 0.279838
000340 c0 2a b0 bd 2f 26 c7 3b ea eb 25 bd 1f 53 19 bd
       -0.08601904 0.00607755 -0.04050819 -0.037432786
000350 10 54 02 3c bb bf 18 be 32 36 c2 bd 25 62 34 3e
       0.007954612 -0.1491689 -0.09482993 0.17615564
000360 1a b1 52 3e ed 48 ae 3d 39 a6 66 3d 5b bc c0 bb
       0.20575371 0.08510003 0.056310866 -0.0058818287
000370 a4 0d 6e be fe 51 dd bd 17 7d ab bb 93 64 3e 3e
       -0.23247391 -0.108066544 -0.0052334177 0.18593054
000380 b1 4b 3b be 79 42 89 bd b8 f0 aa 3e 06 ff 17 be
       -0.18290593 -0.06702132 0.3338678 -0.14843377
000390 c1 39 3b bd d8 8e 76 be 19 bb 52 3e b2 9d a5 3d
       -0.045709375 -0.24077928 0.20579185 0.080867186
0003a0 6c 22 83 3e 36 9d 8d bd e6 69 2e 3d a5 ee 47 bd
       0.256122 -0.06914751 0.04258146 -0.048811574
0003b0 d2 6e f8 3c 41 a7 cd 3d d4 b6 30 3c df 95 d3 3d
       0.03032628 0.10041667 0.010785777 0.1033132
0003c0 16 d5 d1 bd 5d e8 96 3d 38 09 6e 3e 80 36 d7 bd
       -0.10245721 0.073685385 0.23245704 -0.10508442
0003d0 5b b3 96 bd da d4 37 3c 4b 67 e0 3d 17 02 b4 be
       -0.07358428 0.011220181 0.109572016 -0.35157844
0003e0 32 4d 5e 3e e3 87 db bd 22 cf f5 3d 7b ac bc bd
       0.21709135 -0.10719278 0.12002398 -0.092125855
0003f0 d1 fe cb 3d c8 50 99 3d e6 83 42 bc aa cf 32 3e
       0.09960712 0.07486111 -0.011872267 0.1746203

fc1.bias f4 [16]
000000 07 e7 99 bc 6f 78 c6 3d 3a e6 8d 3c cd 01 81 3e
       -0.01878692 0.0969094 0.017321695 0.25196686
000010 c6 a2 4b be 59 57 86 bd 2d 9a 8d 3d c2 d8 ab 3d
       -0.19886312 -0.06559629 0.06914172 0.08390953
000020 af d9 75 bd b0 87 1b be da 85 d8 bd 71 82 a8 3e
       -0.060022052 -0.1518848 -0.10572405 0.3291202
000030 a1 41 0a be 5f 7e 84 3d 9a ec 20 be d6 cb 55 bd
       -0.13501598 0.06469416 -0.15715256 -0.052196346

fc2.weight f4 [12, 16]
000000 07 ec 2c 3d 66 18 69 3e 19 d9 98 bd 5b 76 80 be
       0.04221728 0.22763214 -0.07463283 -0.25090298
000010 39 b9 4a be b1 8c 59 be 1d 17 a8 3c e8 a2 6e be
       -0.1979722 -0.21245076 0.020518834 -0.23304331
000020 1e 21 50 be a1 f1 43 3d 9a d2 c9 3d f7 e3 e9 bd
       -0.20325133 0.047837857 0.09854622 -0.11420434
000030 84 a0 80 be f1 37 97 3d 86 39 65 3e c3 e2 23 3d
       -0.25122464 0.07383717 0.22385225 0.04001118
000040 66 38 b5 3d d4 9c 95 b9 3c ef a6 3d 8f 76 99 3d
       0.08848648 -0.0002853634 0.08151099 0.074933164
000050 27 28 24 3e 6c 0b 7a 3d 97 9c 6e be 5c c4 9e be
       0.16030942 0.06104605 -0.23301922 -0.31009185
000060 4c b5 27 be d0 48 d1 bd 2a 45 b3 bd c2 21 90 be
       -0.16377753 -0.10218966 -0.087534264 -0.28150755
000070 5b a7 e7 3d 0f c9 df bc a2 80 65 be 53 0b 48 bd
       0.113112174 -0.027317552 -0.22412351 -0.048838925
000080 04 ec 5f bc cf b7 84 be 29 d2 a6 3e 0d 12 58 be
       -0.01366711 -0.25921485 0.32582214 -0.21100636
000090 4d 4d 2a 3e 60 a0 a5 bc 18 b3 59 be 8e 4b 6c 3e
       0.1663105 -0.020218074 -0.21259725 0.23075697
0000a0 22 98 36 3e 1e f4 07 3d 48 3a 2b 3e bd 34 84 bd
       0.17831472 0.033191793 0.16721451 -0.064553715
0000b0 bc e2 66 bd 99 a4 92 bd b0 de 56 be 32 b1 48 bb
       -0.056368575 -0.07160301 -0.20983386 -0.0030623195
0000c0 d1 e5 6a 3e 60 3c 57 be 5e b7 83 3e 11 68 97 3d
       0.2293923 -0.21019125 0.25725836 0.07392896
0000d0 13 5b 0c 3e 57 fe 01 be 4a 25 82 bd 31 38 86 3e
       0.13706617 -0.12694679 -0.063547686 0.26214746
0000e0 6f 8b cd 3d e5 99 1b 3e f1 35 36 3e 2e 01 6a 3e
       0.100363605 0.15195425 0.17794015 0.22852013
0000f0 37 fa 89 3e d9 6d 89 3d 9c 01 a9 3d 71 51 d6 bd
       0.2694871 0.06710405 0.0825226 -0.104647525
000100 5e 01 98 bb 8a 05 7a be d1 86 4e be c9 2d 08 3e
       -0.004638835 -0.24416175 -0.20168616 0.13298716
000110 02 fd 37 3a 38 30 76 bd 92 35 bb 3e 82 f6 52 3e
       0.0007018597 -0.06010458 0.36564308 0.20601848
000120 62 85 32 bc 30 f0 1c 3e 97 b9 81 3e b3 ae 5e bd
       -0.010896059 0.15326 0.25336906 -0.054365825
000130 de af 8c be 99 16 c8 bd 99 38 c6 3d b6 03 60 bd
       -0.27477926 -0.09769935 0.09678764 -0.05469104
000140 76 a1 dd 3d c3 a9 c8 bd 09 9b 91 bd 58 01 cb bd
       0.10821812 -0.097980045 -0.07109649 -0.09912366
000150 23 11 29 3e d3 24 11 3e ee 76 5e bb 13 e8 24 be
       0.16510443 0.14174204 -0.00339454 -0.16104154
000160 c1 2c 94 3e cc d2 7b 3d c3 f2 6f bd c7 3d 0e 3e
       0.28940395 0.06148033 -0.058581125 0.13890754
000170 47 08 44 3e 94 ea 91 3d ff ec 69 be 2c 67 7e 3e
       0.19143783 0.0712482 -0.22844313 0.24844044
000180 2d 87 61 3e c9 24 8d bc 55 8a 42 3c ea 34 91 bc
       0.22024222 -0.017229455 0.011873801 -0.017725427
000190 b2 15 86 3c 2e ad c4 bd e1 9d 30 3d bc c1 73 bd
       0.016367767 -0.09603344 0.043119315 -0.05951093
0001a0 de 42 26 3e 74 c5 4b 3e a3 79 09 3e 50 10 a1 3e
       0.16236445 0.19899541 0.13425307 0.31457758
0001b0 f5 48 5d 3e 5a 96 a4 3e c2 d2 01 3e eb 0d d2 3c
       0.21609862 0.3214596 0.12678054 0.025641402
0001c0 a2 d4 29 3e 6b 92 aa be 44 98 fd bc aa 54 32 be
       0.16585019 -0.33314833 -0.030956395 -0.1741511
0001d0 a2 b5 b9 be de 43 fa bd de 26 cf bd 17 b1 25 3e
       -0.36271387 -0.12219976 -0.10114835 0.16180836
0001e0 c4 da 44 3e d2 13 2a be 35 fa 6a 3e d8 64 63 be
       0.19224077 -0.16609123 0.22947009 -0.22206438
0001f0 a5 79 ef 3d 30 3d 9b 3c 87 17 de 3d ff 48 d8 3d
       0.11693124 0.018950075 0.10844331 0.10560798
000200 fa 9d d3 3d c5 9d 40 bd 59 79 71 3d 13 05 80 3d
       0.10332866 -0.04702546 0.058953617 0.06250968
000210 29 ea 5b 3d e7 49 91 3d 7d 1f b3 3c 2b 79 3b 3e
       0.05369011 0.07094174 0.0218656 0.1830794
000220 ce af 44 3e 28 88 24 be e2 0b 83 be c8 32 b0 3d
       0.19207689 -0.16067564 -0.25595003 0.08603436
000230 fc ce 24 3d b9 4b 7d be 09 eb 6c 3d e6 64 d6 3d
       0.04023646 -0.24735917 0.057841334 0.104684636
000240 00 6b 4d 3e 3a cd 31 3d ef b5 2a 3e a4 d2 ec 3d
       0.20060349 0.04340861 0.16670965 0.11563614
000250 9a 5d 7a be e0 7b 68 bd 3f 1b ba 3d a0 47 00 bc
       -0.24449769 -0.05675876 0.09087228 -0.007829577
000260 9c 06 3b be 43 fa b6 bd 35 5f e4 bc c8 8b 61 bc
       -0.1826424 -0.089344524 -0.02787743 -0.013766237
000270 a4 47 c1 3d 9d bf ed bd e3 4c 88 be 22 1e a4 bc
       0.094374925 -0.11608813 -0.2662116 -0.0200339
000280 b8 8c e5 3d 68 d1 75 bd ed 32 75 3d b8 20 02 3e
       0.112084806 -0.06001416 0.05986302 0.12707794
000290 64 05 9a bd e7 4e 59 3b c4 65 54 bd d1 19 a2 3e
       -0.075205594 0.0033158602 -0.051854864 0.3166032
0002a0 91 ab 8c 3e a4 5d 8e be a3 a6 16 3e 4c 88 0d bd
       0.27474645 -0.27805817 0.14712004 -0.03455381
0002b0 a1 55 20 be 6c e9 27 3e fa 68 04 bd 53 c7 cd 3d
       -0.15657665 0.16397637 -0.032326676 0.10047784
0002c0 d3 ff 34 3e cb fa ae be f1 34 88 3e 44 23 3a 3e
       0.17675714 -0.34175715 0.2660289 0.18177515
0002d0 9a 9e b1 3d 1e 86 6b 3e f9 74 1e 3e 70 a3 37 3d
       0.08672829 0.2300038 0.15474309 0.0448336
0002e0 74 91 08 be a5 cb 59 3d c3 7a fc 3d f5 12 d2 3d
       -0.13336736 0.053172726 0.123281024 0.10257522
0002f0 69 05 b2 3e 7b 1b a7 3d b7 1b 2a be b2 d8 df 3d
       0.34769753 0.08159538 -0.16612135 0.10930003

fc2.bias f4 [12]
000000 05 d5 0a bd 23 77 ea 3d e4 1a 8c be 13 92 69 3e
       -0.033894558 0.11448505 -0.27364266 0.22809629
000010 46 ab d4 3d 7d 93 7c 3e fd da cd bc 2d 2d 44 3d
       0.1038423 0.24665637 -0.025128836 0.047894645
000020 4d 89 89 be bf 5f 8f be cb 3b 3e be 41 a4 bd 3d
       -0.26862565 -0.28002736 -0.18577497 0.092598446

fc3.weight f4 [10, 12]
000000 e2 f8 c9 bd f2 ee 5e 3e 02 b3 dd bd 0d bd 8c 3e
       -0.09861924 0.21770838 -0.10825159 0.27487984
000010 93 83 8b bc e2 b8 6a bd f8 36 94 ba d0 32 ea 3d
       -0.017030513 -0.057305224 -0.0011307886 0.11435473
000020 8f b0 cc bd c0 b5 50 be 0f 91 a0 3d e1 6b 4a 3d
       -0.099946134 -0.20381832 0.07840168 0.049419288
000030 c2 ef 25 be 65 d1 e2 3d 08 96 43 be c7 37 a4 3e
       -0.16204742 0.11075095 -0.19100201 0.32073805
000040 bc e3 91 3d ce cf b3 3c 8a 53 8e bd 2c 27 4c 3e
       0.07123515 0.021949675 -0.069495276 0.19936818
000050 98 55 8f 3e e2 0d 81 bd bf bc 0a be cd b9 3d 3d
       0.2799499 -0.06301476 -0.13548563 0.04631977
000060 5e be b5 3d a7 1d b3 bd 40 94 8e be 1f 44 ce bd
       0.088742 -0.0874589 -0.2784748 -0.10071587
000070 c4 ad 86 3c bb 6c 9b 3e 9c c1 89 3e a1 71 60 3e
       0.01644028 0.30356392 0.26905525 0.21918346
000080 65 da 6d be 5c 82 2e 3e f6 7d b4 bd 49 e4 92 3e
       -0.23227842 0.17041916 -0.08813088 0.28689793
000090 91 6b f4 3c 26 54 3b 3e 95 32 b3 be 75 43 92 3e
       0.029836448 0.18293819 -0.3499953 0.2856709
0000a0 da 47 21 3d 58 0c 4a 3e 59 6b d0 bd 5e 6d 13 bd
       0.039375164 0.19731271 -0.10176725 -0.035992973
0000b0 b7 78 be be 42 e8 3d bd 06 cc 2a 3e 61 1e 21 3e
       -0.37201473 -0.046364076 0.16679391 0.15734245
0000c0 bd 9b ee 3c a5 24 15 3e ab a4 b7 bd 96 fd 36 bd
       0.029126996 0.1456476 -0.08966955 -0.044675432
0000d0 d9 82 84 3d 18 9f 8f 3d eb 83 82 3e 26 fd ae 3e
       0.0647027 0.070127666 0.2549127 0.34177512
0000e0 3d 10 89 3d 3d 8d 32 bd 3a fb 98 3d cc c7 48 3e
       0.0669255 -0.043591727 0.07469793 0.19607466
0000f0 6b 64 35 be 6a f9 ae 3d a4 1a 75 be be 2f e9 bd
       -0.17714088 0.08543666 -0.23935944 -0.11386059
000100 6f 36 17 bd e7 f0 d0 3d e7 1a 1f 3d d9 b6 80 3e
       -0.036917146 0.102021985 0.038844015 0.25139502
000110 75 25 64 be 5f 97 4d be b2 2c 6a 3e 68 8d b9 3e
       -0.22279914 -0.20077275 0.22868612 0.36240697
000120 cb eb f2 3d 9e 3b 99 3d 5a 75 25 be bf ed b4 3d
       0.1186138 0.07482074 -0.16158047 0.08834409
000130 39 21 8a 3e da 83 1a 3e 4e 12 89 3e 69 14 dc bd
       0.26978472 0.1508936 0.26771778 -0.107460804
000140 7d 3e 44 bd 29 de d9 3d 8c 45 4e be 95 85 aa 3d
       -0.047911156 0.10638077 -0.20143718 0.0832626
000150 be 54 8b be 5e 52 9a 3d 5a e3 e1 bd 50 39 1d 3d
       -0.2721309 0.075352415 -0.11029692 0.038384736
000160 dd 33 43 3e b3 46 68 bc 07 e4 12 3e ec 1b 0c be
       0.19062753 -0.014177012 0.14344798 -0.13682526
000170 46 4f c5 bc 19 7b 3e 3e 58 5a 9c 3d 4e 04 06 3e
       -0.024085652 0.18601646 0.07634419 0.1308758
000180 9c e5 3b bd 62 82 97 bd 32 eb 92 be fa 13 35 bd
       -0.04587327 -0.073979154 -0.28695065 -0.044208504
000190 68 18 4e bd 57 02 44 be 93 e2 8d 3e 84 6b ce 3d
       -0.050316244 -0.19141518 0.27711925 0.10079101
0001a0 46 37 1f 3e 4f b0 99 3d c0 8c a5 3e f7 ac 84 3e
       0.15548429 0.07504331 0.32333946 0.25913212
0001b0 08 92 fe bd 72 d5 98 3e 98 4d 12 be a7 ba 9a 3e
       -0.12430197 0.29850346 -0.14287412 0.3022053
0001c0 10 43 6e 3e 54 be aa 3d f4 ba f6 3d 4d 95 2a 3e
       0.2326777 0.083370835 0.12047377 0.16658516
0001d0 b9 3a d6 3d 15 65 1c 3e 8c 27 a9 3d 28 4b 6e be
       0.10460419 0.15272935 0.08259496 -0.23270857

fc3.bias f4 [10]
000000 31 78 55 3e 19 d6 6c 3e 19 ce 86 bd 91 cb 16 3e
       0.2084663 0.23128547 -0.06582279 0.14726092
000010 bf f6 d3 3c 15 78 b5 3e dd da 14 be 53 7d 63 3e
       0.025874494 0.35443178 -0.14536615 0.22215776
000020 7f dc e5 3d e5 82 f1 bb
       0.11223697 -0.00737034
